checkpoints/dqn_episode_50.pth (torch, 41314 bytes, 12 tensors)

fc1.weight f4 [64, 4]
0	0xbecd3ac3	-0.40083894
1	0xbecfa84d	-0.4055809
2	0x3e805a1b	0.25068745
3	0x3ea23a7e	0.3168525
4	0xbed99108	-0.42493463
5	0xbe2e0640	-0.16994572
6	0xbd8152a8	-0.063145936
7	0xbe8ff641	-0.28117564
8	0xbecfae9c	-0.40562904
9	0x3eafe3a4	0.34353364
10	0x3ef4cebc	0.47813976
11	0x3e7d9050	0.24762082
12	0x3ef90a69	0.48640755
13	0xbebfcc30	-0.3746047
14	0xbf3bf4fc	-0.7342069
15	0xbefa17c8	-0.4884627
16	0x3ed6f22e	0.41981643
17	0x3e783874	0.24240285
18	0x3b64cc00	0.0034911633
19	0x3e76bbe4	0.24095112
20	0xbebf5804	-0.37371838
21	0x3e882f27	0.26598474
22	0xbe729f79	-0.23693646
23	0xbd66ba74	-0.05633016
24	0xbe6e148b	-0.23250024
25	0x3e404d54	0.18779498
26	0xbef5bbb5	-0.47994772
27	0x3e8d0c42	0.27548414
28	0xbe7a06d2	-0.24416664
29	0xbf02aab1	-0.51041704
30	0xbe33a79b	-0.17544405
31	0xbdc88db9	-0.097926565
32	0xbead1be1	-0.33810332
33	0x3e8dddbb	0.2770823
34	0x3efec831	0.4976211
35	0xbe25fbfe	-0.16209409
36	0x3e9ba904	0.30402386
37	0xbe6ca013	-0.23107938
38	0xbecb76b9	-0.39739016
39	0x3ed68d06	0.41904467
40	0xbf25b10b	-0.6472327
41	0x3e716000	0.23571777
42	0x3f81dae6	1.0144928
43	0x3e4e8f86	0.20171937
44	0xbe6aa478	-0.22914302
45	0xbec7df55	-0.39037576
46	0xbf101599	-0.56282955
47	0x3e681f67	0.22668229
48	0x3e0657ac	0.13119382
49	0xbda5797e	-0.080798134
50	0x3f1a4e43	0.6027567
51	0xbe8a2a59	-0.26985434
52	0xbeedda21	-0.46455482
53	0x3db9a8ea	0.09065421
54	0x3e279863	0.16366725
55	0xbee4908a	-0.44641525
56	0x3e611e10	0.21984124
57	0x3e3ba328	0.18323958
58	0x3f0cf827	0.5506615
59	0xbe007d52	-0.12547806
60	0xbed0e7ac	-0.40801752
61	0xbefa1da8	-0.4885075
62	0xbe8660fc	-0.26245868
63	0xbe82d8c8	-0.25556016
64	0x3d2d735d	0.042346347
65	0x3d33a2bc	0.043856367
66	0x3e86bf65	0.26317897
67	0xbe87ed09	-0.2654803
68	0xbe44a8a3	-0.19204955
69	0xbd75df37	-0.060027327
70	0xbed3352e	-0.4125151
71	0x3ecebee6	0.4038002
72	0x3eb5ac69	0.354831
73	0xbee1838e	-0.4404568
74	0xbe2ca924	-0.16861397
75	0x3edecec5	0.43517128
76	0x3ea3b2da	0.3197239
77	0xbe40c126	-0.1882368
78	0xbdb72c6d	-0.089440204
79	0xbeb2ed09	-0.34946468
80	0xbe955ace	-0.2917084
81	0xbede01ee	-0.43360847
82	0xbea70266	-0.32619017
83	0xbe59273d	-0.21206374
84	0xbe9a1b99	-0.3009918
85	0xbe923ef5	-0.28563657
86	0xbdf0f4fd	-0.11765478
87	0x3eecd9dd	0.46259966
88	0xbf0307a3	-0.5118353
89	0x3d283efe	0.0410757
90	0x3eee1b2a	0.465051
91	0xbe227b0b	-0.1586725
92	0x3dc4070d	0.09571657
93	0x3ef8edba	0.4861887
94	0x3f023596	0.50863016
95	0xbe12926d	-0.1431367
96	0xbf1db6f6	-0.616073
97	0x3e22d88a	0.15902916
98	0x3e3ed2d9	0.1863512
99	0xbe80c0ae	-0.25147003
100	0xbe601b3c	-0.21885389
101	0x3e1ef26a	0.15522161
102	0x3f41c682	0.75693524
103	0x3ecc62ca	0.3991912
104	0xbe65344c	-0.22383231
105	0x3ddd0cb8	0.107934415
106	0xbe1312f8	-0.14362705
107	0xbae8e200	-0.0017767549
108	0x3f1f3be1	0.6220074
109	0xbdd3f6a2	-0.10349776
110	0xbf2b8d8b	-0.6701285
111	0xbe1d54b9	-0.1536435
112	0xbeb28975	-0.34870496
113	0xbea34667	-0.3188965
114	0x3d8cf244	0.06882146
115	0x3e8a59e5	0.2702171
116	0x3f09c62c	0.5381801
117	0x3ebba295	0.36647478
118	0x3f0595b0	0.5218153
119	0x3da01769	0.07816965
120	0x3d1aa8a3	0.03775848
121	0x3e76ea61	0.24112846
122	0x3e48dca8	0.19615424
123	0xbe352318	-0.17689168
124	0x3d1e11f6	0.038591348
125	0x3e4f4838	0.20242393
126	0x3d6267a1	0.05527461
127	0xbe7c83a9	-0.246596
128	0xbd7a435e	-0.061099403
129	0x3ea77b25	0.3271114
130	0x3eb39c7f	0.35080335
131	0x3ed8fa88	0.4237864
132	0x3d20ecc4	0.039288297
133	0x3e25467f	0.16140173
134	0xbea233f7	-0.3168027
135	0xbe49c842	-0.19705299
136	0x3efc4059	0.49267843
137	0xbdea9833	-0.11454811
138	0x3e885f7b	0.26635346
139	0x3de63a6b	0.11241611
140	0x3d493696	0.049124323
141	0x3c0e7869	0.0086957
142	0xbd5c9a21	-0.053857926
143	0xbe30a5db	-0.17250769
144	0x3ef86734	0.48516238
145	0xbda9097d	-0.08253763
146	0xbe52fae6	-0.20603523
147	0x3e7a26ad	0.24428816
148	0x3e0688df	0.1313815
149	0x3e95af17	0.29235145
150	0xbed39cdb	-0.4133061
151	0xbee14305	-0.43996444
152	0xbf114523	-0.5674612
153	0x3edb75b5	0.4286324
154	0x3ef3face	0.47652286
155	0x3ee832c7	0.4535124
156	0x3f081167	0.53151554
157	0xbdd93e1b	-0.10607549
158	0xbea1e5f9	-0.31620768
159	0xbe881af1	-0.26583055
160	0x3efd8d28	0.49521756
161	0xbeee535a	-0.46547967
162	0x3d6fe080	0.05856371
163	0xbe7a6b0c	-0.24454898
164	0x3e1502d7	0.14551865
165	0x3e4b4a31	0.1985252
166	0xbd1367b0	-0.035987556
167	0xbe544eeb	-0.2073323
168	0x3c854ad8	0.01627104
169	0xbe052f01	-0.13006212
170	0xbdacf618	-0.08445376
171	0xbdbe8832	-0.09303321
172	0xbdc94f8e	-0.09829627
173	0xbec4bdec	-0.3842615
174	0xbf0885ef	-0.53329366
175	0xbdda9ff6	-0.106750414
176	0x3e2a54cf	0.16633914
177	0xbd93593a	-0.07194753
178	0x3e087c82	0.13328746
179	0x3eb0b508	0.34513116
180	0x3e456721	0.19277622
181	0xbe8d6ee3	-0.27623662
182	0x3e8eabaa	0.27865344
183	0x3ef25ed7	0.47337982
184	0x3f01bbe2	0.5067731
185	0x3e2ab8e2	0.1667209
186	0xbe895c4d	-0.26828232
187	0x3ee6cc9c	0.4507798
188	0x3e69a2c3	0.22815995
189	0x3e4957dc	0.19662422
190	0x3e7a9d2c	0.24474019
191	0x3dd089ba	0.10182519
192	0xbef75301	-0.48305514
193	0x3ec3e853	0.38263187
194	0x3f115e63	0.5678465
195	0xbe801f76	-0.25024003
196	0xbca83602	-0.020533565
197	0x3ea3ee72	0.32017857
198	0x3f04c440	0.51861954
199	0xbe7638e6	-0.24045143
200	0x3e56259c	0.20912784
201	0x3d7f3598	0.06230697
202	0x3ef65094	0.4810835
203	0x3dfeb3cd	0.12436638
204	0xbeaeb4af	-0.34122226
205	0xbe14c830	-0.1452949
206	0xbdbcc3f9	-0.09217066
207	0x3e4431df	0.1915965
208	0x3cc1e1a5	0.023667166
209	0xbe32d18f	-0.17462753
210	0xbed12a62	-0.40852648
211	0x3ea29594	0.31754744
212	0x3eb51354	0.3536631
213	0x3df96123	0.121767305
214	0xbf10562a	-0.56381476
215	0x3e0f5413	0.13996916
216	0xbe34b9d6	-0.17649016
217	0x3e0fe508	0.14052212
218	0x3d9830be	0.07431172
219	0x3ecfff8d	0.40624657
220	0xbe7ad7cd	-0.24496384
221	0x3ec214d2	0.3790651
222	0x3ebba94b	0.36652598
223	0x3f08bd98	0.534143
224	0xbe9a1f15	-0.3010184
225	0xbccba12d	-0.024857128
226	0x3f80a724	1.0051007
227	0xbc6840d5	-0.014175613
228	0x3ec2d193	0.38050517
229	0xbe7c3fe3	-0.24633746
230	0xbb935144	-0.0044957716
231	0xbe42b79a	-0.19015351
232	0xbe313e34	-0.17308885
233	0xbe3b3ca0	-0.18284845
234	0xbd2d0fce	-0.0422514
235	0xbcdffab7	-0.02734123
236	0xbe5d1fe7	-0.21594201
237	0x3f0e0d61	0.55489165
238	0xbe960b52	-0.29305512
239	0x3ea6a3e7	0.32546923
240	0x3e233ff0	0.15942359
241	0x3ed27cb5	0.4111077
242	0x3e180bec	0.14848298
243	0x3eaa08d9	0.33209875
244	0x3e485b85	0.19566162
245	0xbd805f72	-0.06268205
246	0x3f3d1f95	0.73876315
247	0xbcd306a9	-0.025760012
248	0xbec74c3c	-0.3892535
249	0xbeddc49b	-0.4331406
250	0xbbe5ed0e	-0.0070167845
251	0xbee6c768	-0.4507401
252	0x3eb4ae79	0.35289362
253	0x3ef42ef3	0.4769207
254	0xbe9deeb9	-0.30846193
255	0x3e0ecb25	0.13944681

fc1.bias f4 [64]
0	0xbe286e89	-0.16448416
1	0x3e83a5df	0.25712487
2	0xbeeeafa0	-0.46618366
3	0xbee1a430	-0.44070578
4	0xbef3a0c0	-0.4758358
5	0xbc8f50b4	-0.017494537
6	0x3eb8cfd4	0.3609606
7	0xbe6069e6	-0.21915397
8	0x3edc7bf6	0.43063325
9	0x3ef27613	0.47355708
10	0xbe97d393	-0.29653606
11	0x3ed4ec2f	0.41586444
12	0x3e09c37b	0.13453476
13	0x3e3f676f	0.186918
14	0x3b49596d	0.0030723468
15	0xbef4bc84	-0.47800076
16	0x3ef00e26	0.46885794
17	0x3df6cfce	0.12051354
18	0x3d29f963	0.0414976
19	0xbe0dc127	-0.13843213
20	0x3c9f92d0	0.019479185
21	0x3eafb2bc	0.3431605
22	0x3c872df0	0.016501397
23	0xbd90c41c	-0.07068655
24	0x3efcd85c	0.4938382
25	0xbea9d2b3	-0.33168563
26	0xbec8d0ba	-0.39221746
27	0xbe96a812	-0.29425102
28	0x3c15bce2	0.009139271
29	0xbe89cc76	-0.26913804
30	0x3e23a883	0.15982251
31	0xbf203aae	-0.6258954
32	0xbec1cb0f	-0.37850234
33	0xbcd241b9	-0.025666105
34	0x3ee34558	0.44388843
35	0xbd99ece1	-0.07515884
36	0x3ed870cf	0.42273566
37	0xbe899915	-0.26874605
38	0xbed6fd9f	-0.41990373
39	0xbe9f5b15	-0.31124178
40	0xbe9175b4	-0.28410113
41	0x3e999352	0.2999521
42	0x3e196a84	0.14982039
43	0x3ec3b8dd	0.38226977
44	0x3f03c2a2	0.5146886
45	0xbea07ffc	-0.31347644
46	0x3e6d4876	0.23172173
47	0x3d57a038	0.05264303
48	0xbda75342	-0.08170177
49	0x3edc1b0a	0.4298938
50	0x3f018799	0.5059753
51	0x3ee09544	0.4386388
52	0x3ebd56e1	0.36980346
53	0x3e5fd495	0.21858437
54	0x3e66fe59	0.22557963
55	0xbf0c8a8e	-0.5489892
56	0xbe290d68	-0.1650902
57	0x3e54b5e0	0.20772505
58	0x3ee9fb7e	0.45699686
59	0x3e79aaa2	0.24381498
60	0x3e49dd58	0.19713342
61	0xbdd7239d	-0.105048396
62	0x3eea6899	0.45782927
63	0xbe7cba36	-0.24680409

fc2.weight f4 [64, 64]
0	0xbc890658	-0.016726658
1	0x3d94925e	0.0725448
2	0x3be270c0	0.0069104135
3	0x3d3a0288	0.04541257
4	0xbd716ed8	-0.0589436
5	0xbcb76976	-0.022389155
6	0x3ce43700	0.027858257
7	0x3d16dee8	0.036833674
8	0x3c429109	0.011875399
9	0xbdb9ab98	-0.09065932
10	0x3dcc9d7c	0.09990975
11	0x3de6b028	0.11264068
12	0x3da7e417	0.081978016
13	0xbdacb779	-0.08433432
14	0x3dcca12c	0.099916786
15	0x3d843d6c	0.06457028
16	0xbdad4a18	-0.08461398
17	0x3cfe3e60	0.031035602
18	0xbdf27ed4	-0.11840597
19	0xbdac3243	-0.08408024
20	0xbb95e240	-0.0045740902
21	0x39d86400	0.00041273236
22	0xbd397ad6	-0.04528316
23	0xbbc4a2a3	-0.006000833
24	0x3da6170c	0.081098646
25	0x3ca8bf30	0.020598978
26	0xbd1550f0	-0.03645414
27	0xbdc78fde	-0.09744237
28	0x3dec4190	0.115359426
29	0xbd520d9e	-0.051282518
30	0xbdac801f	-0.08422875
31	0xbd03e431	-0.032200042
32	0xbdd6a7fc	-0.10481259
33	0x3d948d9d	0.07253573
34	0xbd8f0276	-0.06982891
35	0x3d0911c9	0.033464227
36	0x395b5800	0.0002091825
37	0xbc16a00d	-0.0091934325
38	0xbd9a1ba8	-0.07524806
39	0x3daec62c	0.08533892
40	0xbdd3b7a8	-0.10337764
41	0xbc5cb969	-0.01347194
42	0xbdf8de8e	-0.12151824
43	0x3c9c7e17	0.019103093
44	0xbd217d84	-0.03942634
45	0xbde3e0e6	-0.1112688
46	0xbcbe0920	-0.02319771
47	0xbd863652	-0.065533295
48	0xbd8face9	-0.07015402
49	0x3c5c08dd	0.013429848
50	0xbdaa1272	-0.083042994
51	0xbcf0a800	-0.029376984
52	0xbcc881d0	-0.024475962
53	0xbcf8fc02	-0.030393604
54	0xbdd549ba	-0.10414453
55	0x3d98dbea	0.0746382
56	0x3d037534	0.032094195
57	0x3c8c385e	0.017116722
58	0x3c557611	0.0130286375
59	0x3d118c4c	0.03553419
60	0xbd973d60	-0.07384753
61	0xbc863600	-0.016383171
62	0xbe00f9a7	-0.12595235
63	0xbddafc68	-0.10692674
64	0x3d5fcf51	0.05464107
65	0xbb9cbb74	-0.0047830883
66	0x3de0b1fe	0.10971449
67	0xbdb1d9da	-0.0868413
68	0x3d3fafa4	0.046798363
69	0x3d69567e	0.05696725
70	0x3e18c1e0	0.14917707
71	0xbd824aff	-0.063619606
72	0x3e13c190	0.14429307
73	0xbac43f63	-0.0014972504
74	0xbf548203	-0.8301088
75	0x3d7b6bc9	0.06138209
76	0xbd9d54c1	-0.07682181
77	0xbd89aa41	-0.067219265
78	0x3df033ae	0.11728607
79	0xbc0071f0	-0.007839665
80	0x3d988b7d	0.0744848
81	0x3c20c2bd	0.009812054
82	0x3dffce11	0.12490476
83	0xbce0aa30	-0.027424902
84	0xbdc320ac	-0.09527716
85	0xbdb85559	-0.09000654
86	0xbdc0fea6	-0.0942357
87	0xbda6c306	-0.081426665
88	0xbb9a6ea9	-0.0047128987
89	0xbce03e4b	-0.027373454
90	0x3d945aac	0.07243857
91	0xbdba9e62	-0.091122404
92	0x3b874253	0.0041277795
93	0x3dc89af0	0.09795177
94	0x3dfad8b5	0.12248365
95	0x3d514428	0.05109039
96	0xbe3a5ecc	-0.18200225
97	0x3e07d57b	0.1326503
98	0x3d3b826d	0.04577868
99	0xbdaa59a0	-0.08317876
100	0xbd9194b9	-0.07108445
101	0xbdf5aa0b	-0.11995324
102	0xbe8f8da6	-0.28037757
103	0xbd572116	-0.052521788
104	0x3c3523e0	0.011055917
105	0x3d44997d	0.04799794
106	0x3d511ba2	0.051051743
107	0x3e1d427b	0.15357392
108	0xbd4441c7	-0.047914293
109	0x3dace152	0.08441414
110	0x3d437a09	0.047723804
111	0xbb6cc155	-0.0036125977
112	0xbdd5d3b2	-0.10440768
113	0x3dd08cc2	0.101830974
114	0x3e030352	0.12794235
115	0x3d91c9e4	0.07118586
116	0x3e0d91d0	0.13825154
117	0xbc718eb9	-0.0147435
118	0xbca5f00f	-0.02025607
119	0xbee5f37d	-0.4491233
120	0xbf07428b	-0.5283591
121	0xbd440f9a	-0.04786644
122	0xbc89f1b0	-0.016838878
123	0x3e1a3a12	0.15061215
124	0x3bda29ab	0.0066577992
125	0xbe7e0039	-0.24804772
126	0x3dfadbf1	0.12248982
127	0x3acde933	0.0015709758
128	0xbdd6cdff	-0.104885094
129	0xbdabd05b	-0.0838935
130	0x3d173d6c	0.03692381
131	0x3d87f9fe	0.06639479
132	0x3dc6f18e	0.09714042
133	0xbc4baf84	-0.012431983
134	0xbda6388c	-0.08116254
135	0x3d257209	0.040391956
136	0xbc7d3707	-0.015455014
137	0xbb2d2a0b	-0.0026422765
138	0xbc4c6079	-0.012474173
139	0x3d8fc283	0.07019522
140	0x3da9239b	0.08258744
141	0x3c1421e7	0.009041286
142	0xbdc0739d	-0.093970515
143	0xbbc88ee0	-0.0061205477
144	0xbdad0fd7	-0.08450287
145	0x3d8c8f3e	0.06863259
146	0xbcb6562f	-0.022257892
147	0xbd93a8a1	-0.07209898
148	0xbe1ca24d	-0.15296288
149	0x3d337d7c	0.043820843
150	0xbda35298	-0.07974738
151	0xbe181154	-0.1485036
152	0x3b95a473	0.004566723
153	0xbe1ee737	-0.15517889
154	0x3d83c94a	0.06434877
155	0x3d41edbc	0.04734586
156	0xbdde75f8	-0.108623445
157	0x3d65a2f2	0.0560636
158	0x3c811e82	0.015761618
159	0x3dbe73aa	0.09299405
160	0xbddff235	-0.10934869
161	0x3c3f1e16	0.011664888
162	0xbd1c178e	-0.0381084
163	0xbd2b1cad	-0.041775394
164	0x3d882c09	0.06649024
165	0xbdaaf878	-0.08348173
166	0x3c174a9f	0.0092341
167	0x3d894dc0	0.06704283
168	0x3d305154	0.04304631
169	0xbc08b8be	-0.008344827
170	0xbc460970	-0.012087211
171	0xbdc2836a	-0.094977215
172	0x3cf0b96b	0.02938529
173	0xbe162d15	-0.14665635
174	0xbcc238e5	-0.02370877
175	0x3d8037a7	0.06260615
176	0xbda8fc4e	-0.08251248
177	0x3d86516b	0.06558498
178	0xbddc4dcf	-0.10757028
179	0xbce7c09e	-0.02829009
180	0x3bf61d4b	0.007510816
181	0x3cffe583	0.03123737
182	0xbe032033	-0.12805252
183	0xbb7935a0	-0.0038026348
184	0xbc230f5c	-0.009952392
185	0xbd92ca31	-0.07167471
186	0xbd1fc598	-0.0390068
187	0x39ed93cf	0.0004531429
188	0x3d274a2b	0.040842216
189	0xbe0b7ea6	-0.13622531
190	0xbd54e78b	-0.05197863
191	0xbdd5a4ff	-0.10431861
192	0xbdec8b51	-0.1155001
193	0xbcbaf576	-0.022822123
194	0x3d5ccec4	0.053908125
195	0xbe1e454d	-0.15456124
196	0xbd2c68e4	-0.04209222
197	0xbd63906b	-0.05555765
198	0x3dc64da4	0.096827775
199	0xbd62e15a	-0.055390693
200	0xbd599371	-0.053119127
201	0xbd6287b8	-0.055305213
202	0x3cc38b40	0.02387011
203	0xbdcadf78	-0.099059045
204	0x3c676495	0.014123102
205	0xbcb2c151	-0.021820696
206	0x3d77223d	0.060335387
207	0x3d6eaaa4	0.058268204
208	0xbdfeb3fe	-0.124366745
209	0xbd4c7232	-0.049913593
210	0x3ce9685c	0.028492145
211	0xbd910978	-0.07081884
212	0xbd481b8a	-0.04885439
213	0x3da43a43	0.08018925
214	0xbcbb6fba	-0.022880424
215	0x3d74094f	0.05957919
216	0x3c2a7819	0.01040461
217	0x3c1b90b6	0.009494951
218	0x3d6eb1ec	0.05827515
219	0xbd93be25	-0.072140016
220	0xbe011e93	-0.1260932
221	0xbe0624b6	-0.13099942
222	0x3d8a592c	0.067552894
223	0xbcf6c531	-0.030123325
224	0xbd252a76	-0.040323697
225	0xbda54826	-0.08070402
226	0xbde39583	-0.111125015
227	0xbdc4858e	-0.09595786
228	0x3cc3ca39	0.023900138
229	0x3d9df008	0.07711798
230	0x3c9705dc	0.018435411
231	0x3b919101	0.0044423346
232	0x3dcf242e	0.101143226
233	0x3d50154a	0.050801553
234	0x3d8b16ae	0.06791435
235	0x3d9c17b0	0.076217055
236	0xbd9dc3fe	-0.07703398
237	0x3daa6e9a	0.08321877
238	0xbd9c4bee	-0.0763167
239	0xbe0d6f88	-0.13812077
240	0xbe17f31b	-0.14838831
241	0xbc7db784	-0.015485648
242	0x3946769e	0.0001892694
243	0x3da4a3bf	0.080390446
244	0xbd75ae84	-0.059980884
245	0x3d297f9d	0.041381467
246	0xbd965cd1	-0.07341922
247	0x3d0e5af3	0.034754705
248	0xbdde86fa	-0.108655885
249	0xbe15d088	-0.1463033
250	0xbdf9b5b2	-0.12192859
251	0xbd76c57f	-0.06024694
252	0x3d01c36e	0.031680517
253	0xbdabf172	-0.083956614
254	0xbd6f4698	-0.058416933
255	0xbdb2256f	-0.08698546

fc2.bias f4 [64]
0	0xbdb50f3f	-0.088407986
1	0x3d187793	0.03722341
2	0x3d59dd95	0.053189833
3	0x3d402de8	0.04691878
4	0x3de875e9	0.113506146
5	0xbe29b45f	-0.16572712
6	0x3d0fde81	0.035124306
7	0xbdd5fe86	-0.10448937
8	0xbbd6f486	-0.006559911
9	0xbcc6d238	-0.024270162
10	0x3e1a96d7	0.15096603
11	0xbc94d658	-0.018168613
12	0xbbefa935	-0.007313872
13	0x3e1f3520	0.1554761
14	0x3db63991	0.08897699
15	0x3df53a2b	0.11973985
16	0xbe0ea140	-0.139287
17	0xbdb03fdf	-0.086059324
18	0x3e2751fd	0.1633987
19	0x3e26699a	0.16251221
20	0x3d35d7f2	0.044395395
21	0xbdfd681c	-0.12373373
22	0x3d2907e0	0.041267276
23	0xbb8456d5	-0.0040386715
24	0x3e227f4e	0.15868875
25	0x3d58e806	0.05295565
26	0x3db6de63	0.08929136
27	0xbda69b57	-0.081350975
28	0x3d02475a	0.031806327
29	0xbdcc817e	-0.09985636
30	0xbd6a4d18	-0.05720243
31	0xbe016e2a	-0.1263968
32	0x3df4d5b7	0.11954825
33	0x3e024d00	0.12724686
34	0x3e387997	0.18015133
35	0xbd9017ff	-0.07035827
36	0x3d4fde6b	0.050749224
37	0x3d0871a5	0.033311505
38	0x3e0c89f1	0.13724495
39	0xbe0732f7	-0.13203035
40	0x3d83b882	0.064316764
41	0x3d5ffc8b	0.054684203
42	0x3d801f5f	0.062559836
43	0x3acc24e5	0.001557496
44	0xbd277f28	-0.04089275
45	0x3df6aba9	0.1204446
46	0xbe123999	-0.14279784
47	0xbd496b0b	-0.04917435
48	0x3b8187a0	0.0039529353
49	0xbdd9f1e4	-0.1064184
50	0x3ddf25b5	0.10895864
51	0xbd4e9655	-0.050436337
52	0xbd8f84c8	-0.07007748
53	0x3db6ef9a	0.08932419
54	0xbdfc3059	-0.12313909
55	0x3db324f8	0.087472856
56	0xbdde6d23	-0.1086066
57	0xbd3f843a	-0.04675696
58	0x3acecc4f	0.0015777441
59	0xbdb9c754	-0.09071222
60	0xbe2146a5	-0.15749605
61	0x3b2e2735	0.0026573662
62	0xbbb6cd85	-0.005578699
63	0x3e2b832a	0.16749254

fc3.weight f4 [2, 64]
0	0x3dc99732	0.09843291
1	0x3e1cc6c1	0.15310194
2	0xbcaaa0ea	-0.020828683
3	0x3d2cdf02	0.042204864
4	0x3e12cde1	0.14336349
5	0xbd7e4610	-0.062078536
6	0x3cb82302	0.02247763
7	0xbd998f2b	-0.0749801
8	0x3e31cd46	0.17363462
9	0x3d88a6a8	0.06672412
10	0x3daf7abd	0.08568332
11	0x3d227e87	0.039671447
12	0xbd85fe40	-0.06542635
13	0x3e05be5c	0.13060898
14	0x3d999593	0.07499232
15	0x3d9471ff	0.072483055
16	0x3c38dd02	0.011283161
17	0xbbabe4c3	-0.0052457764
18	0x3d097796	0.03356131
19	0x3e07c86b	0.13260047
20	0x3da88c60	0.082298994
21	0xbd445f00	-0.04794216
22	0xbd4d5e74	-0.050138906
23	0x3787714b	1.614601e-05
24	0x3e242701	0.16030504
25	0xbbf8eb4d	-0.0075964094
26	0x3da30c9e	0.07961391
27	0xbdbc674c	-0.0919939
28	0xbb1d43e3	-0.0023996762
29	0xbd5d58bc	-0.0540397
30	0x3da56e6e	0.080777034
31	0xbcbfd86e	-0.023418631
32	0x3daceeb3	0.08443966
33	0x3de279a4	0.11058357
34	0x3e08505a	0.13311902
35	0x3c4da4d2	0.012551503
36	0xbd748254	-0.059694603
37	0xbda90772	-0.08253373
38	0x3d941876	0.07231228
39	0xbd2c99fd	-0.042139042
40	0x3d2815df	0.041036483
41	0x3dd6253f	0.10456323
42	0x3dffedbf	0.12496518
43	0x3d99ceb7	0.07510131
44	0x3d8966a4	0.0670903
45	0x3cde3771	0.027126046
46	0xbc800e7a	-0.015631903
47	0xbcbcd8c0	-0.023052573
48	0x3da2e892	0.079545155
49	0x3bb1f8c0	0.0054312646
50	0x3e1565dd	0.14589639
51	0xbd32a4a2	-0.043614037
52	0xbbd25b40	-0.0064195693
53	0x3e18940c	0.14900225
54	0xbd6104c6	-0.054936193
55	0xbda10e05	-0.07864002
56	0xbd794e4a	-0.060865678
57	0x3d9f9016	0.07791154
58	0x3e2b9928	0.16757643
59	0xbdc261d2	-0.09491314
60	0x3db0291e	0.086015925
61	0x3df83516	0.121195
62	0x3de5a42c	0.11212954
63	0x3d2aeb08	0.04172805
64	0xbdac7a91	-0.08421815
65	0xbccb32b0	-0.024804443
66	0x3d1fd4e2	0.03902138
67	0xbda325b5	-0.079661764
68	0xbc4661e5	-0.012108301
69	0xbd901394	-0.07034984
70	0x3dbc6813	0.09199538
71	0xbd9545c2	-0.07288696
72	0x3d366d13	0.044537615
73	0x3c50dfa0	0.012748629
74	0x3dad41d7	0.084598236
75	0x3e168caa	0.14702097
76	0x3da01bdd	0.078178145
77	0x3d203264	0.039110556
78	0x3d989191	0.074496396
79	0x3d944dfa	0.07241435
80	0xbd787502	-0.060658462
81	0xbd0174bb	-0.031605463
82	0x3e28905e	0.16461322
83	0x3d91a927	0.071123414
84	0x3e3a4c16	0.18193087
85	0xbdd95de8	-0.10613614
86	0xbcc103b8	-0.023561344
87	0x3ce2e897	0.027698798
88	0xbd337730	-0.043814838
89	0x3c3c7892	0.011503356
90	0xbdc8d80d	-0.098068334
91	0xbda30a74	-0.07960978
92	0xbdbb8e7f	-0.09158038
93	0xbbd6413b	-0.006538538
94	0xbdd64f88	-0.10464388
95	0xbdae42a0	-0.085088015
96	0x3e22b4e6	0.1588932
97	0x3cd60b98	0.026128575
98	0x3e0f648a	0.14003196
99	0xbc269cf7	-0.010169259
100	0xbd0b2255	-0.03396829
101	0x3d3c7924	0.046013966
102	0x3dde8d82	0.10866834
103	0xbdc02bb5	-0.093833365
104	0xbd96b7d7	-0.073592834
105	0x3e17e763	0.14834361
106	0xbd888d0c	-0.066675276
107	0x3dc3f76e	0.09568678
108	0xbd92f02a	-0.07174714
109	0x3d8a0ba2	0.067405
110	0xbd937651	-0.072003014
111	0xbd593af9	-0.053034756
112	0xbd42a9a4	-0.047525063
113	0x3ddfabe2	0.10921456
114	0x3dbb399f	0.0914185
115	0x3c4ea18b	0.012611757
116	0xbcf8cc60	-0.030370891
117	0x3dfb6dff	0.122768395
118	0xbdac81ce	-0.08423196
119	0x3b064054	0.002048512
120	0xbd93eed2	-0.07223286
121	0xbdcb5b53	-0.09929528
122	0x3d863ddf	0.0655477
123	0x3cc6c090	0.024261743
124	0xbd79a7c8	-0.060951024
125	0x3de38c60	0.11110759
126	0x3dad7b4b	0.08470782
127	0x3d81d3b2	0.06339206

fc3.bias f4 [2]
0	0xbd8f5f8a	-0.070006445
1	0x3dd91291	0.105992444

fc1.weight f4 [64, 4]
0	0xbed0f485	-0.40811554
1	0xbee1c99f	-0.44099137
2	0x3e6ec7c9	0.233184
3	0x3eb491e9	0.3526757
4	0xbedb305f	-0.42810342
5	0xbe2d1b43	-0.16904931
6	0xbdb45275	-0.0880479
7	0xbe9148d2	-0.2837587
8	0xbecfaeb4	-0.40562975
9	0x3eafe3a4	0.34353364
10	0x3ef4cebc	0.47813976
11	0x3e7d90f2	0.24762323
12	0x3e39b905	0.18136986
13	0xbe929611	-0.28630117
14	0xbe9330a8	-0.2874806
15	0xbef57bac	-0.47945917
16	0x3ed6f22e	0.41981643
17	0x3e783874	0.24240285
18	0x3b64cc00	0.0034911633
19	0x3e76bbe4	0.24095112
20	0xbeb76273	-0.35817298
21	0x3e900ae1	0.281333
22	0xbe9b5a4c	-0.3034233
23	0xbda3b16b	-0.07992824
24	0xbe7e0b5e	-0.24809024
25	0x3e370d1c	0.17876095
26	0xbee8e24a	-0.45485145
27	0x3e9a3f31	0.30126336
28	0xbe87e444	-0.2654134
29	0xbef411bd	-0.47669783
30	0xbea8b99a	-0.32954103
31	0xbe345e47	-0.17614089
32	0xbeac6d94	-0.3367735
33	0x3e9561b3	0.291761
34	0x3ef392e9	0.4757302
35	0xbe3b667a	-0.1830081
36	0x3e8ff520	0.28116703
37	0xbe7ebff8	-0.24877918
38	0xbeb7496a	-0.35798198
39	0x3ee22fa5	0.44176975
40	0xbeded2d1	-0.43520215
41	0x3e0d9ea9	0.13830055
42	0x3edb92b7	0.42885372
43	0x3e362227	0.17786466
44	0xbe8094e7	-0.25113603
45	0xbecf9f31	-0.4055114
46	0xbf0507b1	-0.5196486
47	0x3e84f3fc	0.25967395
48	0x3e61a210	0.22034478
49	0xbd0c4df8	-0.034254044
50	0x3f023f73	0.50878066
51	0xbe9950a1	-0.29944327
52	0xbef79be2	-0.48361117
53	0x3dc43d1c	0.09581968
54	0x3d1641f6	0.036684
55	0xbeedb8c4	-0.46430027
56	0x3e662eb7	0.22478758
57	0x3e400993	0.18753652
58	0x3f03ce20	0.51486397
59	0xbe0c8547	-0.13722716
60	0xbed0e7ac	-0.40801752
61	0xbefa1e20	-0.4885111
62	0xbe8660fc	-0.26245868
63	0xbe82d8c8	-0.25556016
64	0x3d266381	0.040622238
65	0x3dc90889	0.09816081
66	0x3e7165bd	0.23573966
67	0xbea423ab	-0.32058463
68	0xbe5e299d	-0.21695562
69	0xbd9a48ca	-0.07533415
70	0xbec10efa	-0.3770674
71	0x3ed8d1b8	0.42347503
72	0x3e9c6da5	0.30552402
73	0xbeee209a	-0.46509248
74	0xbdfe6c2e	-0.124229774
75	0x3eee6d4d	0.46567765
76	0x3e910ef5	0.28331724
77	0xbe19497c	-0.14969438
78	0x3cae51a5	0.021279166
79	0xbebeec71	-0.37289765
80	0xbe8a590c	-0.27021062
81	0xbedeff90	-0.43554354
82	0xbeac8e5a	-0.33702356
83	0xbe57286b	-0.21011512
84	0xbea124e7	-0.31473467
85	0xbe977f5c	-0.29589355
86	0xbda32522	-0.07966067
87	0x3ef5d326	0.48012656
88	0xbf00ba35	-0.5028413
89	0x3d74a769	0.059729967
90	0x3ee04850	0.4380517
91	0xbe395b7f	-0.18101309
92	0x3dfcd1c9	0.12344701
93	0x3efa6794	0.4890715
94	0x3efaf1c8	0.4901259
95	0xbe09dc70	-0.13462996
96	0xbf05906c	-0.52173495
97	0x3e518d80	0.20464134
98	0x3df7ecdb	0.121057235
99	0xbea9205d	-0.33032504
100	0xbe70abd6	-0.2350305
101	0x3d0331d6	0.03202995
102	0x3f072072	0.5278388
103	0x3eea0b1b	0.45711598
104	0xbe65344c	-0.22383231
105	0x3ddd0cb8	0.107934415
106	0xbe1312f8	-0.14362705
107	0xbae8e200	-0.0017767549
108	0x3ef0cda3	0.47031888
109	0x3bd4efd0	0.0064983144
110	0xbec9b5fb	-0.39396653
111	0xbe47bd46	-0.19505796
112	0xbed48fc7	-0.41515943
113	0xbebd3ccf	-0.36960456
114	0x3db8f0b5	0.09030286
115	0x3ea174e5	0.31534496
116	0x3efcfd21	0.49411872
117	0x3ebc9e76	0.36839646
118	0x3ed366c4	0.4128934
119	0xbbcd5561	-0.0062662815
120	0x3dd1c645	0.10242895
121	0x3e8b105b	0.27160916
122	0x3dc60a8a	0.09669979
123	0xbe504ea4	-0.20342499
124	0xbda835b8	-0.08213371
125	0x3e562cdc	0.2091555
126	0x3e272c41	0.16325475
127	0xbe70f92a	-0.23532549
128	0x3d37a84a	0.044838227
129	0x3ec1fb46	0.3788702
130	0x3dc4446c	0.09583363
131	0x3edaeb5b	0.42757687
132	0x3da502f0	0.08057201
133	0x3e4dbbb9	0.20091142
134	0xbea286ff	-0.3174362
135	0xbe7afe10	-0.2451098
136	0x3ee3da5c	0.44502532
137	0xbe37dea8	-0.1795603
138	0x3e9a3527	0.30118677
139	0x3e314667	0.17312013
140	0x3d50160b	0.05080227
141	0x3d3103fa	0.043216683
142	0x3c697c60	0.014250845
143	0xbe54716f	-0.20746396
144	0x3ed8fcf4	0.42380488
145	0xbe0a20a6	-0.13489017
146	0xbe2c1c1f	-0.16807602
147	0x3e935447	0.28775236
148	0x3e07a404	0.13246161
149	0x3e9d09f8	0.30671668
150	0xbeb34f13	-0.35021266
151	0xbee7b5e9	-0.45255974
152	0xbebc1b75	-0.36739698
153	0x3ec041be	0.37550157
154	0x3c746a19	0.014917874
155	0x3ee77d50	0.45212793
156	0x3eb4fdeb	0.35349974
157	0xbad7f43b	-0.0016475985
158	0xbb029d60	-0.0019930229
159	0xbe8eba0b	-0.27876315
160	0x3efd8d28	0.49521756
161	0xbeee535a	-0.46547967
162	0x3d6fe0ff	0.058564182
163	0xbe7a6b0c	-0.24454898
164	0x3e65fc76	0.22459587
165	0x3e6bd0d5	0.23028882
166	0xbe294160	-0.16528845
167	0xbe80bda8	-0.25144696
168	0x3c3106c1	0.010804833
169	0xbe221e08	-0.15831769
170	0xbd612712	-0.0549689
171	0xbd83e05f	-0.0643928
172	0xbdbc9ad5	-0.09209219
173	0xbecb2972	-0.39680058
174	0xbefdc99b	-0.49567875
175	0xbd9f9fb4	-0.07794133
176	0x3e128481	0.14308359
177	0xbdb0957b	-0.08622261
178	0x3e2a9b1a	0.16660729
179	0x3ebb405e	0.36572546
180	0x3e0331b6	0.12811932
181	0xbea1fd02	-0.31638342
182	0x3e0c9366	0.13728103
183	0x3ef95efc	0.4870528
184	0x3ef8eacf	0.48616645
185	0x3e1874a7	0.1488825
186	0xbe736c6b	-0.23771827
187	0x3ef0fd0f	0.47068068
188	0x3e65a3fd	0.22425838
189	0x3e6a976f	0.2290933
190	0x3e96559d	0.29362193
191	0x3dd9fec5	0.106442966
192	0xbef4e723	-0.47832593
193	0x3ec22a12	0.37922722
194	0x3ef92467	0.48660585
195	0xbe868e91	-0.26280645
196	0xbce3bfae	-0.027801361
197	0x3eb2798e	0.34858364
198	0x3ef693a4	0.48159516
199	0xbe8c9ced	-0.27463475
200	0x3e513ddf	0.20433758
201	0x3d18f94c	0.037347123
202	0x3ef9c886	0.487858
203	0x3e1e1e38	0.15441215
204	0xbec7dfe7	-0.3903801
205	0xbe3964fc	-0.18104929
206	0xbce2e89b	-0.027698806
207	0x3e75f3c2	0.24018767
208	0xbc7ba2e2	-0.0153586585
209	0xbe4c273c	-0.19936842
210	0xbebdcc23	-0.37069806
211	0x3eb0bafd	0.3451766
212	0x3ed76ba8	0.42074323
213	0x3e437a72	0.19089678
214	0xbf070004	-0.527344
215	0x3df9b980	0.121935844
216	0xbe43a342	-0.19105247
217	0x3dfc28cb	0.12312468
218	0x3de4ad86	0.111659095
219	0x3edc518e	0.4303097
220	0xbdfc145d	-0.123085715
221	0x3ed7e471	0.42166474
222	0x3b3727ef	0.0027947386
223	0x3ef3429a	0.4751175
224	0xbeacbcb9	-0.33737734
225	0xbdccba9c	-0.099965304
226	0x3f10a394	0.564996
227	0xbda419bf	-0.08012723
228	0x3eba6834	0.36407626
229	0xbe751f5c	-0.23937744
230	0x3c752117	0.0149615025
231	0xbe45129e	-0.19245383
232	0xbe208287	-0.15674792
233	0xbe43532b	-0.19074695
234	0xbcd4ffde	-0.026000913
235	0xbc2d5bf4	-0.010581005
236	0xbe79acb4	-0.24382287
237	0x3f0860b5	0.53272563
238	0xbe7f82fc	-0.2495231
239	0x3eb79056	0.35852307
240	0x3e018bbd	0.12650962
241	0x3ec1220c	0.37721288
242	0x3e2cd500	0.16878128
243	0x3ebe26c2	0.37138945
244	0x3e92f796	0.28704518
245	0xbd95a6be	-0.07307194
246	0x3ee987e9	0.45611504
247	0xbd2cc125	-0.042176384
248	0xbed0f6c4	-0.40813267
249	0xbee0a67c	-0.43877017
250	0xbc4366e3	-0.011926386
251	0xbee88910	-0.4541707
252	0x3e9ac44d	0.3022789
253	0x3ef7b5fb	0.48381028
254	0xbe9361b3	-0.28785476
255	0x3dd2798a	0.10277088

fc1.bias f4 [64]
0	0xbe0732b2	-0.13202932
1	0x3e6908f5	0.22757323
2	0xbeeeb04e	-0.46618885
3	0xbeafa983	-0.34309015
4	0xbef3a0c0	-0.4758358
5	0xbcbf3b18	-0.023343608
6	0x3eaabbf9	0.33346537
7	0xbe4e4236	-0.20142445
8	0x3ec5c42d	0.38626233
9	0x3ee2c8b0	0.44293737
10	0xbe1ea9c3	-0.15494446
11	0x3ed0dad4	0.40791953
12	0x3dd32d68	0.10311395
13	0x3e1848d2	0.14871529
14	0xbc926c78	-0.017873988
15	0xbef4bc84	-0.47800076
16	0x3eea7009	0.457886
17	0x3dd8cfaf	0.105864875
18	0x3d5d11f7	0.05397221
19	0xbdd7dfba	-0.10540719
20	0x3c3ea9c6	0.011637157
21	0x3ea2e9e9	0.31819084
22	0x3cb3b3b5	0.021936277
23	0xbda98f2f	-0.08279263
24	0x3ee65f88	0.4499476
25	0xbe6d1bf2	-0.23155192
26	0xbec8d0de	-0.39221853
27	0xbe693508	-0.22774136
28	0x3d3be0b1	0.04586858
29	0xbe89627c	-0.2683295
30	0x3e067fcd	0.1313469
31	0xbeed2bfa	-0.46322614
32	0xbe885338	-0.2662599
33	0xbbb69d11	-0.005572923
34	0x3ecf8400	0.40530396
35	0xbd3123c4	-0.043247
36	0x3ec710e7	0.38880083
37	0xbe860819	-0.26178053
38	0xbeac9cc1	-0.33713344
39	0xbe5e639f	-0.2171769
40	0xbe9175b4	-0.28410113
41	0x3e92f2f8	0.28700995
42	0x3e1e226b	0.15442817
43	0x3eb4f00d	0.35339394
44	0x3efa16b8	0.48845458
45	0xbe90d57f	-0.28287885
46	0x3e4f772e	0.20260307
47	0x3d63dec0	0.055632353
48	0xbdcdd2d7	-0.1004998
49	0x3ec8aa31	0.39192346
50	0x3ef3267f	0.47490308
51	0x3edb8812	0.4287725
52	0x3ec62152	0.38697296
53	0x3e323f31	0.17406918
54	0x3e5272aa	0.20551553
55	0xbed4c3ee	-0.41555732
56	0xbd966b22	-0.07344653
57	0x3e375d73	0.17906742
58	0x3edb2175	0.42798963
59	0x3e7a988e	0.24472257
60	0x3e2aaeab	0.16668193
61	0xbd5dd6b6	-0.054159842
62	0x3ed8b990	0.42329073
63	0xbe8238c2	-0.25433928

fc2.weight f4 [64, 64]
0	0xbc890658	-0.016726658
1	0x3da2321b	0.07919713
2	0x3be270c0	0.0069104135
3	0x3d554019	0.05206308
4	0xbd716f70	-0.058944166
5	0xbc80ed82	-0.015738253
6	0x3ce43700	0.027858257
7	0x3d16dee8	0.036833674
8	0x3c97c5d8	0.018526956
9	0xbdb9ab98	-0.09065932
10	0x3dcc9d89	0.09990985
11	0x3de6b028	0.11264068
12	0x3db583a4	0.08862999
13	0xbd9f1878	-0.07768339
14	0x3dda4164	0.106570035
15	0x3d843d6c	0.06457028
16	0xbd9fabf3	-0.077964686
17	0x3cfe3e60	0.031035602
18	0xbdf27ed4	-0.11840597
19	0xbd9e9381	-0.07742978
20	0xbb95e240	-0.0045740902
21	0x39d86400	0.00041273236
22	0xbd1e3dee	-0.03863328
23	0x3a2a6d0c	0.00065012346
24	0x3db3b6af	0.087750785
25	0x3ca8bf30	0.020598978
26	0xbd15511a	-0.036454298
27	0xbdb9f036	-0.0907902
28	0x3dec4190	0.115359426
29	0xbd36d008	-0.044631988
30	0xbd9ee173	-0.07757845
31	0xbcd14ce5	-0.025549361
32	0xbdd6a7fc	-0.10481259
33	0x3da22dd4	0.07918897
34	0xbd8f0276	-0.06982891
35	0x3d245021	0.04011548
36	0x395b5800	0.0002091825
37	0xbb269ed7	-0.0025424266
38	0xbd9a1baf	-0.075248115
39	0x3dbc6580	0.09199047
40	0xbdd3b7a8	-0.10337764
41	0xbbdf82d5	-0.0068210163
42	0xbdeb4533	-0.11487808
43	0x3cd2f7aa	0.025752861
44	0xbd217d84	-0.03942634
45	0xbde3e0e6	-0.1112688
46	0xbcbe0920	-0.02319771
47	0xbd712e5e	-0.05888211
48	0xbd820e5b	-0.06350394
49	0x3ca480c5	0.020080933
50	0xbd9c7492	-0.076394215
51	0xbcf0a838	-0.029377088
52	0xbcc881d0	-0.024475962
53	0xbcc27f76	-0.023742419
54	0xbdd549ba	-0.10414453
55	0x3d98dbea	0.0746382
56	0x3d037534	0.032094195
57	0x3cc2b399	0.02376728
58	0x3ca13753	0.019679701
59	0x3d2ccad8	0.042185634
60	0xbd973d60	-0.07384753
61	0xbc863600	-0.016383171
62	0xbdf454b8	-0.11930221
63	0xbdcd5ce3	-0.10027482
64	0x3d87bb5f	0.06627535
65	0xbc6168c2	-0.013757886
66	0x3de0b23a	0.10971494
67	0xbdacdad7	-0.08440178
68	0x3d3fafa4	0.046798363
69	0x3d7afb0f	0.061274584
70	0x3e09f27f	0.13471411
71	0x3d14ab1d	0.036296
72	0x3e08c4fd	0.13356395
73	0xbcb440e2	-0.022003595
74	0xbea10a8b	-0.31453356
75	0x3d3844c4	0.044987455
76	0xbdc6dcc5	-0.09710077
77	0xbdc0f169	-0.09421045
78	0x3dccdc6b	0.10002979
79	0xbc0071f0	-0.007839665
80	0x3d6ed52e	0.058308773
81	0x3c866f1c	0.016410403
82	0x3dff29f6	0.12459175
83	0xbd0d89a2	-0.034555085
84	0xbdc7596a	-0.09733851
85	0xbdbfcba3	-0.093650125
86	0xbdb8a95e	-0.09016679
87	0xbdabc78b	-0.08387669
88	0xbc7b8c9b	-0.015353347
89	0x3d223271	0.039598886
90	0x3d945b02	0.07243921
91	0xbd5877bf	-0.052848574
92	0x3c3d58be	0.011556802
93	0x3da3adc3	0.07992127
94	0x3dc88fe1	0.09793068
95	0x3d23d40b	0.03999714
96	0xbdfdf60a	-0.12400444
97	0x3e026258	0.12732828
98	0x3cce353f	0.025171874
99	0xbdcf22e2	-0.10114075
100	0xbdbf15e9	-0.09330351
101	0xbdd8d81f	-0.10588097
102	0xbd8165bf	-0.06318235
103	0xbd963138	-0.073336065
104	0x3c3523e0	0.011055917
105	0x3ce95f3e	0.028487798
106	0x3d078015	0.033081133
107	0x3e0839d1	0.13303305
108	0xbd858501	-0.06519509
109	0x3dba0c72	0.09084405
110	0x3d05e16c	0.032685682
111	0xbca99f83	-0.020705944
112	0xbdd55fa5	-0.10418633
113	0x3dc3c475	0.095589556
114	0x3de149c3	0.11000397
115	0x3d70e849	0.058815274
116	0x3df1dd00	0.118097305
117	0xbd401c9f	-0.046902295
118	0xbcb12235	-0.021622756
119	0xbe2ba107	-0.16760646
120	0xbe56a783	-0.20962338
121	0xbda0165c	-0.07816765
122	0xbd093130	-0.033494174
123	0x3e0dde93	0.13854437
124	0x3ade8482	0.0016976746
125	0xbdd48b00	-0.10378075
126	0x3dd982ff	0.10620689
127	0xbcf690dc	-0.030098371
128	0xbdb67843	-0.08909657
129	0xbd852862	-0.06501843
130	0x3d173d6c	0.03692381
131	0x3d64d569	0.055867586
132	0x3dc6f18e	0.09714042
133	0x3bd5d141	0.006525189
134	0xbd81d239	-0.06338925
135	0x3d70397f	0.058648583
136	0x3b650f42	0.0034951721
137	0x3c6dee2d	0.014522118
138	0x3a88b5d7	0.0010430169
139	0x3db2bff7	0.08728021
140	0x3dcfa0a7	0.10138064
141	0x3cec4df5	0.028845767
142	0xbd97fbe6	-0.07421093
143	0xbbc88ee0	-0.0061205477
144	0xbd867ae5	-0.06566409
145	0x3dadf39c	0.084937304
146	0xbbc773c5	-0.006086799
147	0xbd5b71df	-0.053575393
148	0xbe0a664f	-0.1351559
149	0x3d7824c4	0.060581937
150	0xbd79a846	-0.060951494
151	0xbe03e7e3	-0.12881427
152	0x3cc0ce84	0.023535974
153	0xbe0fac20	-0.14030504
154	0x3d83c94a	0.06434877
155	0x3d723b22	0.059138425
156	0xbdbd5f82	-0.09246732
157	0x3d9cb6e6	0.076520726
158	0x3d0e79ad	0.034784008
159	0x3d9abc4d	0.07555447
160	0xbdbc3650	-0.09190047
161	0x3cf8caa1	0.030370058
162	0xbca8858e	-0.020571496
163	0xbcc321dd	-0.023819858
164	0x3dabb117	0.083833866
165	0xbd843f11	-0.064573415
166	0x3cd67faf	0.026183931
167	0x3dab5387	0.08365541
168	0x3d305154	0.04304631
169	0x3c2bb056	0.0104790535
170	0x3bafc8c1	0.005364508
171	0xbd9df2cc	-0.077123255
172	0x3d3ff200	0.04686165
173	0xbe06ae13	-0.13152342
174	0xbbdbed9d	-0.0067116753
175	0x3da5359b	0.08066865
176	0xbd7f8423	-0.062381875
177	0x3dad64db	0.08466502
178	0xbdb78929	-0.08961708
179	0xbc34ab33	-0.011027145
180	0x3cc9c40b	0.024629613
181	0x3d4cda66	0.05001297
182	0xbde3ad76	-0.111170694
183	0x3c73adb2	0.014872955
184	0x3ba3563a	0.0049846442
185	0xbd5a939d	-0.05336343
186	0xbcac6d9e	-0.021048363
187	0x3c960b26	0.018315863
188	0x3d6f76ae	0.05846279
189	0xbdfeb0c4	-0.12436059
190	0xbd09136a	-0.03346578
191	0xbdac893a	-0.084246114
192	0xbdda8b7f	-0.10671138
193	0xbc1171b0	-0.008877203
194	0x3d5ccec4	0.053908125
195	0xbe105fad	-0.14098997
196	0xbd2c68e4	-0.04209222
197	0xbd27bd16	-0.04095181
198	0x3ddf6bef	0.109092586
199	0xbd47a565	-0.048741717
200	0xbd1fcc61	-0.03901327
201	0xbd33be3b	-0.04388259
202	0x3d04c2be	0.032412283
203	0xbdb45402	-0.08805086
204	0x3ceaf177	0.028679593
205	0xbbe1d91a	-0.0068923356
206	0x3d99c2ea	0.0750788
207	0x3d6eaaa4	0.058268204
208	0xbde1c184	-0.11023238
209	0xbd234da7	-0.039868977
210	0x3d1b8df7	0.037977185
211	0xbd64db24	-0.05587305
212	0xbd24a813	-0.04019935
213	0x3dba57bd	0.09098766
214	0xbc0d0d47	-0.008609123
215	0x3d9843b7	0.074347906
216	0x3cca5502	0.024698738
217	0x3c98c13d	0.01864683
218	0x3d6eb1ec	0.05827515
219	0xbd6a5aad	-0.05721538
220	0xbdeeec3a	-0.116661504
221	0xbdf01f03	-0.11724665
222	0x3da82838	0.08210796
223	0xbc89c8b1	-0.01681933
224	0xbce07839	-0.027401077
225	0xbd86fe4a	-0.065914705
226	0xbdcb3255	-0.099217094
227	0xbda6827d	-0.081303574
228	0x3d11bdcf	0.035581406
229	0x3dbc9669	0.09208376
230	0x3ce18bab	0.02753242
231	0x3c9f1823	0.019420689
232	0x3dcf242e	0.101143226
233	0x3d8584ee	0.06519495
234	0x3da35420	0.0797503
235	0x3db45613	0.0880548
236	0xbd857612	-0.06516661
237	0x3dbc9ccb	0.092095934
238	0xbd8480d6	-0.06469886
239	0xbdfeecdb	-0.1244752
240	0xbe08bdac	-0.13353604
241	0xba989d89	-0.0011643629
242	0x3c50e860	0.012750715
243	0x3dbc348d	0.09189711
244	0xbd46db96	-0.048549257
245	0x3d6368aa	0.055519737
246	0xbd7dd40b	-0.061969798
247	0x3d320ad3	0.043467354
248	0xbdcf796e	-0.10130583
249	0xbe084000	-0.13305664
250	0xbde041c7	-0.10950046
251	0xbd41dff1	-0.047332708
252	0x3d344f16	0.044020735
253	0xbd94b5eb	-0.072612606
254	0xbd38fcbc	-0.0451629
255	0xbd952eda	-0.07284327

fc2.bias f4 [64]
0	0xbda770be	-0.08175801
1	0x3c859d07	0.016310228
2	0x3d921a89	0.071339674
3	0x3d758950	0.059945405
4	0x3db6d51e	0.08927368
5	0xbe07329b	-0.13202898
6	0x3b896ddc	0.0041940045
7	0xbdbebac3	-0.09312966
8	0xbd02b79f	-0.031913396
9	0xbcc6d238	-0.024270162
10	0x3dfbdd1f	0.12298035
11	0xbd418c6c	-0.047253057
12	0x3bfb88e8	0.0076762326
13	0x3e04f6ca	0.12984768
14	0x3d76973c	0.060202822
15	0x3dbcc3af	0.09217011
16	0xbe017efd	-0.12646098
17	0xbd9d7efd	-0.07690237
18	0x3e09d02b	0.13458316
19	0x3e08fe8b	0.1337835
20	0x3c7ff31a	0.015621925
21	0xbdfd681c	-0.12373373
22	0x3d29080b	0.041267436
23	0x3c3f1b66	0.011664247
24	0x3e0f3d57	0.13988243
25	0x3d8c094f	0.06837713
26	0x3dcdbb8b	0.100455366
27	0xbd8eabf4	-0.06966391
28	0x3d28ed16	0.041241728
29	0xbdaf23a0	-0.08551717
30	0xbd6a4d18	-0.05720243
31	0xbdebe245	-0.11517767
32	0x3db8786e	0.09007345
33	0x3dcd302e	0.10018955
34	0x3e1c7fcb	0.15283124
35	0xbd66c58c	-0.05634074
36	0x3d803562	0.06260182
37	0x3d57ab81	0.052653793
38	0x3dd100bb	0.102052175
39	0xbdf49765	-0.11942939
40	0x3d9156ec	0.07096657
41	0x3cd8db05	0.026471624
42	0x3da17bc2	0.07884933
43	0xbcddadd1	-0.027060421
44	0xbcea2f37	-0.028586967
45	0x3dc08544	0.094004184
46	0xbe083581	-0.1330166
47	0xbd3202b9	-0.043459628
48	0x3b8187a0	0.0039529353
49	0xbdd9f1e4	-0.1064184
50	0x3da7dbb2	0.081962004
51	0xbd1539dc	-0.036432132
52	0xbd8f84c8	-0.07007748
53	0x3d7d6d59	0.06187186
54	0xbde5c2cb	-0.112187944
55	0x3dd03c14	0.10167709
56	0xbdc7ac9d	-0.0974972
57	0xbd2445f9	-0.040105794
58	0xbcf181ea	-0.029480893
59	0xbdb9c754	-0.09071222
60	0xbe126577	-0.14296518
61	0xbcd5bc60	-0.0260908
62	0xbd0b80e9	-0.034058485
63	0x3e121bed	0.14268465

fc3.weight f4 [2, 64]
0	0x3dc99732	0.09843291
1	0x3e0269b4	0.12735635
2	0xbd1e7fa0	-0.03869593
3	0x3cfabceb	0.030607661
4	0x3deccca4	0.115624696
5	0xbd7e4610	-0.062078536
6	0xbae53aba	-0.0017488815
7	0xbdad32fa	-0.08456989
8	0x3e16bfc3	0.14721589
9	0x3d88a6e0	0.06672454
10	0x3d7cbf34	0.061705783
11	0x3c88a9ac	0.016682468
12	0xbda090a8	-0.07840091
13	0x3ded2714	0.11579719
14	0x3d4b49d7	0.049630966
15	0x3d3eaeee	0.046553545
16	0xba70d06d	-0.00091863313
17	0xbc5fe069	-0.013664343
18	0x3c2b748e	0.0104648005
19	0x3dcdf076	0.1005563
20	0x3d612c81	0.054974083
21	0xbd445f00	-0.04794216
22	0xbd4d5e74	-0.050138906
23	0xbc804b37	-0.015660865
24	0x3e0c4181	0.13696863
25	0xbcb33bb4	-0.021879055
26	0x3d8e9607	0.06962209
27	0xbdd2c224	-0.10290936
28	0xbc2ef326	-0.010678088
29	0xbd8840b5	-0.06652967
30	0x3da56e6e	0.080777034
31	0xbd066c44	-0.032818094
32	0x3d5bb9c7	0.053643968
33	0x3dafca03	0.085834526
34	0x3dd82bc8	0.105552256
35	0x388748f4	6.45089e-05
36	0xbd8f2598	-0.06989592
37	0xbdcb2c97	-0.09920614
38	0x3ce9545a	0.028482605
39	0xbd64530e	-0.05574327
40	0x3d0cd885	0.034386177
41	0x3da4a97d	0.0804014
42	0x3de6cc8b	0.11269482
43	0x3d6946af	0.056952175
44	0x3d61c763	0.05512179
45	0x3b996129	0.004680772
46	0xbcc7786d	-0.024349416
47	0xbcbcd8c0	-0.023052573
48	0x3da2e892	0.079545155
49	0x3bb1f923	0.0054313107
50	0x3dee433a	0.11633916
51	0xbd65244a	-0.05594281
52	0xbbd25b40	-0.0064195693
53	0x3df4c824	0.11952236
54	0xbd86629b	-0.06561776
55	0xbdbac107	-0.09118848
56	0xbd906a95	-0.07051579
57	0x3d91f13c	0.0712609
58	0x3e0a880a	0.13528457
59	0xbdc261d2	-0.09491314
60	0x3d96cbd7	0.07363098
61	0x3dbd9211	0.092563756
62	0x3dadf4d9	0.084939666
63	0x3c316883	0.01082814
64	0xbdba1a67	-0.09087067
65	0xbd734a20	-0.059396863
66	0x3ca8fe82	0.020629171
67	0xbdba6906	-0.09102063
68	0xbd4f0cc5	-0.050549287
69	0xbdd2cfc0	-0.102935314
70	0x3d8217d4	0.06352201
71	0xbdaac18c	-0.083376974
72	0x3c5e25cd	0.013558817
73	0x3c50dfa0	0.012748629
74	0x3d79f5f0	0.06102556
75	0x3dfa2e6a	0.12215884
76	0x3d85c8ac	0.06532416
77	0x3cb16ef7	0.021659357
78	0x3d1a35d6	0.037649
79	0x3d3f8109	0.046753917
80	0xbd94b942	-0.072618976
81	0xbd21b8fe	-0.039483063
82	0x3e1021cb	0.14075391
83	0x3cd83988	0.02639462
84	0x3e1b5e0f	0.151726
85	0xbdd95de8	-0.10613614
86	0xbcc103b8	-0.023561344
87	0x3c41c53a	0.011826808
88	0xbd990980	-0.07472515
89	0xbb04cf34	-0.0020265104
90	0xbddd12eb	-0.10794624
91	0xbdb7fbcb	-0.089835726
92	0xbdcc5bca	-0.09978445
93	0xbc9bb853	-0.019008791
94	0xbdd64f88	-0.10464388
95	0xbdc274cb	-0.09494933
96	0x3df46bab	0.119345985
97	0xba3083e6	-0.00067335216
98	0x3de125aa	0.10993512
99	0xbcbbf452	-0.02294365
100	0xbd34041d	-0.043949235
101	0x3cec7d96	0.028868478
102	0x3d235876	0.039879285
103	0xbddb92fa	-0.10721393
104	0xbda455fd	-0.080242135
105	0x3dffa832	0.124832526
106	0xbdb886d1	-0.09010089
107	0x3da6e613	0.08149352
108	0xbdaa0bf1	-0.08303059
109	0x3d2914a2	0.041279443
110	0xbda56ad2	-0.08077015
111	0xbd6f5e0e	-0.058439307
112	0xbd42a9a4	-0.047525063
113	0x3ddfac81	0.109215744
114	0x3d6fb7ce	0.0585249
115	0x39d8a7eb	0.0004132384
116	0xbcf8cc60	-0.030370891
117	0x3db31e71	0.087460406
118	0xbdc3754e	-0.095438585
119	0xbc2b7e83	-0.010467174
120	0xbda96e15	-0.082729496
121	0xbdd8fa4c	-0.10594615
122	0x3c820883	0.0158732
123	0x3cc6c090	0.024261743
124	0xbd96cd35	-0.07363359
125	0x3d9a6c75	0.07540218
126	0x3d39a32e	0.045321636
127	0x3d0c974d	0.03432398

fc3.bias f4 [2]
0	0xbdbfadd9	-0.09359331
1	0x3da01532	0.07816543
