checkpoints/dqn_episode_100.pth (torch, 41394 bytes, 12 tensors)

fc1.weight f4 [64, 4]
00000000: dd34 c2be 94bf c4be 1a31 9a3e cb98 8b3e
00000010: aded d2be 6bb0 4cbe 405d 8abd 14b5 93be
00000020: 9cae cfbe a4e3 af3e bcce f43e 5090 7d3e
00000030: 90a7 4a3f 0115 01bf f262 9ebf 096f d9be
00000040: 2ef2 d63e 7438 783e 00cc 643b e4bb 763e
00000050: e165 cbbe ea33 703e 0cf8 6abe 6387 45bc
00000060: 1067 73be 7719 4a3e 7c1e 07bf 262b 8d3e
00000070: cdb1 abbd 405b 02bf 6680 9a3c 5af7 80bd
00000080: 467d 5ebe 47d1 8a3e 25ac de3e be65 2bbe
00000090: 8aac 893e 7cdf 4ebe b5a6 d5be 1cac d43e
000000a0: 98b5 0bbf 8a67 533e 6932 ac3f 3816 353e
000000b0: 3e9c 8abe 6787 bcbe 0662 1cbf d8c7 5d3e
000000c0: 8e10 393e fe5d d6bd 823a 2d3f 066b 8abe
000000d0: 9d03 adbe 3aeb 453d e018 503e d6f4 d7be
000000e0: b69f 633e bee4 123e 8899 193f 4db1 a5bd
000000f0: ace7 d0be a81d fabe fc60 86be c8d8 82be
00000100: 4862 273e accf fe3c be1f 7a3e 4f42 85be
00000110: 86d9 35be b12f d3bc 4157 03bf 973a be3e
00000120: 3516 d53e 52b4 bebe 85a6 8dbe bea6 b43e
00000130: 10a0 9b3e 1d35 64be 3d12 a6be ac17 b9be
00000140: 3a67 a8be ac28 debe b2e0 99be cc3c 4abe
00000150: 6883 9bbe f0b1 86be c274 41be d2f2 e53e
00000160: 8d40 cdbe 85ba 073d 70df 053f 80ec 0cbe
00000170: df86 df3d 2435 e73e f76d e83e 8f5a 04be
00000180: f63e 11bf fbf8 133e f55f 203e 3466 80be
00000190: c4f0 68be c38f 143e e2de 7c3f d09b c23e
000001a0: 4c34 65be b80c dd3d f812 13be 00e2 e8ba
000001b0: 4574 683f e210 66be d4cb 9fbf fdb8 08be
000001c0: 59c0 8fbe 732c 7ebe 1076 113e d0ad 543e
000001d0: aa6b 0a3f a079 bb3e 137e 043f bd0a ab3d
000001e0: 7da7 3b3d a0ae 4f3e e6b8 ac3e f7c0 0dbe
000001f0: e45a 513e 8dcb 513e 69c7 b2bd 1845 59be
00000200: 4eee 80bc cd4d 953e d3be 1f3f c06a db3e
00000210: 31eb 18bd a86e d63d f9bc afbe 7423 0fbe
00000220: 8581 fc3e 5193 c5bd 955e 5e3e 7684 d53d
00000230: e3c4 af3c 0b80 12bd fad5 64be 9fc3 21be
00000240: 89fc 013f 92db 41bd f73a 76be d301 813e
00000250: 2154 d93d 9bb9 7d3e 2b7c 19bf 170a d5be
00000260: d4bd 25bf a751 e53e 5c75 4f3f e90a ce3e
00000270: 3194 213f f37e 1fbe 4852 2ebf 2e53 95be
00000280: 288d fd3e 5a53 eebe 80e0 6f3d 0c6b 7abe
00000290: 1780 5b3e 55f8 1e3e d6bd 9b3d 555c 33be
000002a0: 9f14 dc3c 5c31 f0bd a66e ffbd b9f5 b6bd
000002b0: b21a e5bd 12ba bfbe 7f99 18bf e5e2 e3bd
000002c0: d84b 463e f46d 9ebb 8b05 283d 9ab9 983e
000002d0: d1f7 9f3e a9c8 74be 318f d33e 6328 db3e
000002e0: b82c fd3e 37c3 463e 4744 a1be 1a2c e43e
000002f0: 8bbc 973e ace3 5b3e ae3d 7c3e 9609 a23d
00000300: eb47 e9be 43cb b53e d595 1e3f 1aec 4bbe
00000310: 1f0b 093e 83d5 a33e e576 fa3e efa7 86be
00000320: e750 503e 6c67 873d a51c dd3e 025b 053e
00000330: 4128 a8be 4867 e7bd 6206 1cbe 7f14 3a3e
00000340: 4b5d eebb ce49 14be 5363 e0be 81f8 993e
00000350: 3b67 b23e 11ad 093e 2a00 1cbf a530 103e
00000360: dfe1 1cbe 03c2 343e a587 82bc 8937 be3e
00000370: fed3 44be ba14 aa3e ce30 103f 13c1 053f
00000380: f728 8ebd 9471 b5bc c044 ad3f 27b1 0fbc
00000390: f7a3 be3e 485b 77be eeb8 44bd b304 3ebe
000003a0: 2ea8 33be a333 2dbe ad0e abbd 4a1a c9bc
000003b0: 7370 6dbe f29b 0c3f 94bb acbe a104 ad3e
000003c0: e778 263e 9b39 d93e 2f57 c33d 32d4 a63e
000003d0: c767 323e 475a a6bd 4169 903f c68c 2cbd
000003e0: e6ed cfbe bae9 dbbe 58c8 bfbd 6a27 edbe
000003f0: f77f b23e d74c f33e de45 02bf 1622 df3d
-0.37930956 -0.38427413 0.30115587 0.2726501 -0.41196957 -0.19989173 -0.06756067 -0.2884909
-0.40562904 0.34353364 0.47813976 0.24762082 0.7916193 -0.50422674 -1.2373946 -0.42467526
0.41981643 0.24240285 0.0034911633 0.24095112 -0.39726165 0.23457304 -0.22946185 -0.0120562045
-0.23769784 0.19736277 -0.5278089 0.27571982 -0.08383522 -0.50920486 0.018860053 -0.062971786
-0.21727476 0.2711279 0.4349071 -0.1673803 0.2688945 -0.2020244 -0.4172875 0.4153756
-0.54573965 0.20644966 1.3452884 0.17684257 -0.27072328 -0.36822054 -0.6108707 0.21658266
0.18072721 -0.10467146 0.676674 -0.27034777 -0.3379182 0.048320033 0.20321989 -0.42178982
0.22228894 0.1434507 0.59999895 -0.08090458 -0.40801752 -0.4885075 -0.26245868 -0.25556016
0.16346085 0.031104885 0.24426171 -0.26027152 -0.1775876 -0.025779577 -0.51305014 0.37154076
0.41618505 -0.37246948 -0.27666107 0.35283464 0.30395555 -0.22285886 -0.3243579 -0.36150873
-0.32891256 -0.43390405 -0.3005424 -0.19749755 -0.30373693 -0.2630763 -0.18892196 0.4491182
-0.4008831 0.033136863 0.52294064 -0.13762093 0.109143965 0.4515773 0.45396397 -0.1292517
-0.56736696 0.14450447 0.15661605 -0.25077975 -0.22748095 0.14507966 0.9877759 0.380095
-0.22383231 0.107934415 -0.14362705 -0.0017767549 0.90802413 -0.22467378 -1.2484078 -0.13351817
-0.28076437 -0.24821644 0.14205194 0.20769429 0.5407053 0.3661623 0.51754874 0.083516575
0.045814026 0.20281458 0.33734816 -0.13843141 0.20444828 0.20487805 -0.08729441 -0.21217763
-0.015738633 0.2916092 0.6240055 0.4285488 -0.03733367 0.10470325 -0.34323862 -0.13978368
0.49317566 -0.09647239 0.21715768 0.104256555 0.021456188 -0.035766643 -0.2234725 -0.1579728
0.50775963 -0.04732854 -0.24045931 0.25196704 0.106117494 0.24777834 -0.5995509 -0.4160926
-0.6474278 0.44788858 0.8103845 0.402427 0.6311675 -0.15575771 -0.680943 -0.29165024
0.49521756 -0.46547967 0.05856371 -0.24454898 0.21435581 0.15524419 0.07604568 -0.1751569
0.026865302 -0.117281646 -0.124722764 -0.089335866 -0.11186732 -0.37446648 -0.59609216 -0.11127261
0.1936487 -0.004834885 0.04102091 0.29829103 0.31243756 -0.23904671 0.41320184 0.4280425
0.4944818 0.19410406 -0.31497404 0.44564897 0.29636034 0.21473569 0.24632904 0.079119846
-0.45562682 0.3550664 0.61947376 -0.19914284 0.13383149 0.31998834 0.48918834 -0.26299998
0.20343362 0.06611523 0.43185917 0.13022998 -0.3284321 -0.11298996 -0.1523681 0.18171881
-0.007274305 -0.14481279 -0.43825778 0.30072406 0.34844384 0.13444926 -0.6093775 0.14081056
-0.15320538 0.17652135 -0.015933821 0.37151745 -0.19221494 0.33218938 0.5632447 0.5224773
-0.06941407 -0.022148885 1.3536606 -0.008770264 0.3723447 -0.24155915 -0.048027925 -0.1855648
-0.17544624 -0.16914229 -0.083524086 -0.024548668 -0.23187427 0.54925454 -0.3373686 0.33792594
0.16257058 0.42426762 0.09538113 0.32583767 0.174224 -0.08122688 1.1282121 -0.04212644
-0.4061119 -0.42951757 -0.093643844 -0.46319133 0.34863254 0.47519562 -0.5088786 0.10895173

fc1.bias f4 [64]
00000000: b363 4fbe 29ec 783e a0af eebe aca2 d4be
00000010: c0a0 f3be 0360 a0bc a258 b83e 64ba 97be
00000020: d9ce dc3e f94e e93e c29a afbe 9145 c93e
00000030: 4415 db3d 2611 223e ad8a 723c 84bc f4be
00000040: aebe f03e 51d2 de3d 201c 0a3c aa06 60be
00000050: f22d e7bc 33a6 a13e fe23 3d3c 384b d6bd
00000060: e933 fa3e 4e0e bdbe bad0 c8be f909 82be
00000070: 935c 1ebd f0dd 9bbe 6c21 203e 33b5 46bf
00000080: c501 afbe 05fd 92bd fd74 e23e ed12 02be
00000090: 18fb ce3e 747f b0be fc7d cdbe 4581 96be
000000a0: b475 91be d6c9 983e e420 0c3e d83c c13e
000000b0: 7844 053f b699 bfbe 8374 593e c33b fa3c
000000c0: ff06 d8bd 211f d33e 00a6 003f a779 dd3e
000000d0: eb01 b23e 265b 5a3e ce0e 4d3e 19c0 0fbf
000000e0: e66a 69be b0c0 513e ece9 e63e 34b7 773e
000000f0: e1f6 453e 838a 2ebe be5e e13e 3fbb 8ebe
-0.20252876 0.24308838 -0.46618366 -0.4153036 -0.4758358 -0.019577032 0.3600512 -0.29634392
0.43126562 0.45568064 -0.34297758 0.39310887 0.106974155 0.15826854 0.014803571 -0.47800076
0.47020477 0.108799584 0.008429557 -0.21877542 -0.02822015 0.31572112 0.011544226 -0.104635656
0.4886773 -0.36924976 -0.39221746 -0.25398234 -0.038662504 -0.30442762 0.1563775 -0.7762024
-0.34181038 -0.07177166 0.4422988 -0.12702532 0.40425944 -0.3447224 -0.4013518 -0.293955
-0.28410113 0.2984149 0.13684422 0.37741733 0.520576 -0.3742196 0.21235852 0.030546075
-0.105482094 0.41234687 0.50253296 0.43256876 0.34767088 0.21323833 0.20025179 -0.5615249
-0.22794685 0.2048366 0.45100343 0.2419098 0.19332458 -0.17045026 0.44017595 -0.27877232

fc2.weight f4 [64, 64]
00000000: 5806 89bc 5e92 943d c070 e23b 8802 3a3d
00000010: d86e 71bd 7669 b7bc 0037 e43c e8de 163d
00000020: 0991 423c 98ab b9bd 7c9d cc3d 28b0 e63d
00000030: 17e4 a73d 79b7 acbd 2ca1 cc3d 6c3d 843d
00000040: 184a adbd 603e fe3c d47e f2bd 4332 acbd
00000050: 40e2 95bb 0064 d839 d67a 39bd a3a2 c4bb
00000060: 0c17 a63d 30bf a83c f050 15bd de8f c7bd
00000070: 9041 ec3d 9e0d 52bd 1f80 acbd 31e4 03bd
00000080: fca7 d6bd 9d8d 943d 7602 8fbd c911 093d
00000090: 0058 5b39 0da0 16bc a81b 9abd 2cc6 ae3d
000000a0: a8b7 d3bd 69b9 5cbc 8ede f8bd 177e 9c3c
000000b0: 847d 21bd e6e0 e3bd 2009 bebc 5236 86bd
000000c0: e9ac 8fbd dd08 5c3c 7212 aabd 00a8 f0bc
000000d0: d081 c8bc 02fc f8bc ba49 d5bd eadb 983d
000000e0: 3475 033d 5e38 8c3c 1176 553c 4c8c 113d
000000f0: 603d 97bd 0036 86bc a7f9 00be 68fc dabd
00000100: cadd 253d 1706 4e3c feb1 e03d 40a0 7fbe
00000110: a4af 3f3d 33bf 283d ff8d 243e 2c17 e3bd
00000120: f93d 1c3e d30d d03b e49a 8bbf e548 883d
00000130: 4d7a 59bd 828c 57bd 7885 083e f071 00bc
00000140: f7f8 b83d d2e9 503c f226 e83d f1b3 c73c
00000150: 9367 9ebd 1758 a7bd 33ad f7bd d368 b3bd
00000160: 44e8 163b 48f8 adbd ac5a 943d 4a6f fbbe
00000170: e127 0dbc 3e28 d13d 8953 103e 5c4c b6bd
00000180: 2e85 3dbe d421 df3d 88c1 643d 5a67 3fbd
00000190: f779 85bd 789b d7bd 170e adbd f263 9cbd
000001a0: e023 353c 2577 323d a71f 6a3d 1082 2d3e
000001b0: ddee 25bd e6d0 a73d 1db9 733d d2aa 103c
000001c0: 2211 e8bd deea c83d 32fb 0d3e b639 9e3d
000001d0: 9e05 153e 014a bcbb 82c1 d9bb 119c dfbe
000001e0: 6ae9 6cbf d73b 23bd f4e3 6fbb 4c0c 233e
000001f0: eae5 0c3c fbc7 55bf c9ec 133e 3cfd 93bd
00000200: ffcd d6bd 5bd0 abbd 6c3d 173d fef9 873d
00000210: 8ef1 c63d 84af 4bbc 8c38 a6bd 0972 253d
00000220: 0737 7dbc 0b2a 2dbb 7960 4cbc 83c2 8f3d
00000230: 9b23 a93d e721 143c 9d73 c0bd e08e c8bb
00000240: d70f adbd 3e8f 8c3d 2f56 b6bc a1a8 93bd
00000250: 4da2 1cbe 7c7d 333d 9852 a3bd 5411 18be
00000260: 73a4 953b 37e7 1ebe 4ac9 833d bced 413d
00000270: f875 debd f2a2 653d 821e 813c aa73 be3d
00000280: 35f2 dfbd 161e 3f3c 8e17 1cbd ad1c 2bbd
00000290: 092c 883d 78f8 aabd 9f4a 173c c04d 893d
000002a0: 5451 303d beb8 08bc 7009 46bc 6a83 c2bd
000002b0: 6bb9 f03c 152d 16be e538 c2bc a737 803d
000002c0: 4efc a8bd 6b51 863d cf4d dcbd 9ec0 e7bc
000002d0: 4b1d f63b 83e5 ff3c 3320 03be a035 79bb
000002e0: 5c0f 23bc 31ca 92bd 98c5 1fbd cf93 ed39
000002f0: 2b4a 273d a67e 0bbe 8be7 54bd ffa4 d5bd
00000300: 518b ecbd 76f5 babc c4ce 5c3d 4d45 1ebe
00000310: e468 2cbd 6b90 63bd a44d c63d 5ae1 62bd
00000320: 7193 59bd b887 62bd 408b c33c 78df cabd
00000330: 9564 673c 51c1 b2bc 3d22 773d a4aa 6e3d
00000340: feb3 febd 3272 4cbd 5c68 e93c 7809 91bd
00000350: 8a1b 48bd 433a a43d ba6f bbbc 4f09 743d
00000360: 1978 2a3c b690 1b3c ecb1 6e3d 25be 93bd
00000370: 931e 01be b624 06be 2c59 8a3d 31c5 f6bc
00000380: 762a 25bd 2648 a5bd 8395 e3bd 8e85 c4bd
00000390: 39ca c33c 08f0 9d3d dc05 973c 0191 913b
000003a0: 2e24 cf3d 4a15 503d ae16 8b3d b017 9c3d
000003b0: fec3 9dbd 9a6e aa3d ee4b 9cbd 886f 0dbe
000003c0: 1bf3 17be 84b7 7dbc 9e76 4639 bfa3 a43d
000003d0: 84ae 75bd 9d7f 293d d15c 96bd f35a 0e3d
000003e0: fa86 debd 88d0 15be b2b5 f9bd 7fc5 76bd
000003f0: 6ec3 013d 72f1 abbd 9846 6fbd 6f25 b2bd
-0.016726658 0.0725448 0.0069104135 0.04541257 -0.0589436 -0.022389155 0.027858257 0.036833674
0.011875399 -0.09065932 0.09990975 0.11264068 0.081978016 -0.08433432 0.099916786 0.06457028
-0.08461398 0.031035602 -0.11840597 -0.08408024 -0.0045740902 0.00041273236 -0.04528316 -0.006000833
0.081098646 0.020598978 -0.03645414 -0.09744237 0.115359426 -0.051282518 -0.08422875 -0.032200042
-0.10481259 0.07253573 -0.06982891 0.033464227 0.0002091825 -0.0091934325 -0.07524806 0.08533892
-0.10337764 -0.01347194 -0.12151824 0.019103093 -0.03942634 -0.1112688 -0.02319771 -0.065533295
-0.07015402 0.013429848 -0.083042994 -0.029376984 -0.024475962 -0.030393604 -0.10414453 0.0746382
0.032094195 0.017116722 0.0130286375 0.03553419 -0.07384753 -0.016383171 -0.12595235 -0.10692674
0.040494718 0.012574694 0.10971449 -0.24963474 0.046798363 0.041197967 0.16069792 -0.11088404
0.15258016 0.006349304 -1.0906644 0.066545285 -0.05309515 -0.052624233 0.13332164 -0.007839665
0.09031861 0.01275106 0.11335553 0.024377795 -0.07734599 -0.08171099 -0.12093582 -0.08760228
0.0023026625 -0.084946215 0.07243857 -0.49108344 -0.008615465 0.10212754 0.14094366 -0.08901283
-0.18507835 0.10895124 0.05584863 -0.046729423 -0.065174036 -0.105277 -0.08449953 -0.076362506
0.011055917 0.043570656 0.057159092 0.16944146 -0.040511 0.08194141 0.05950271 0.008829789
-0.11331393 0.09810422 0.13865355 0.07725851 0.14552924 -0.0057461266 -0.0066453824 -0.43673757
-0.9254366 -0.03985199 -0.0036604377 0.1592266 0.008599738 -0.8350827 0.14445795 -0.07226035
-0.104885094 -0.0838935 0.03692381 0.06639479 0.09714042 -0.012431983 -0.08116254 0.040391956
-0.015455014 -0.0026422765 -0.012474173 0.07019522 0.08258744 0.009041286 -0.093970515 -0.0061205477
-0.08450287 0.06863259 -0.022257892 -0.07209898 -0.15296288 0.043820843 -0.07974738 -0.1485036
0.004566723 -0.15517889 0.06434877 0.04734586 -0.108623445 0.0560636 0.015761618 0.09299405
-0.10934869 0.011664888 -0.0381084 -0.041775394 0.06649024 -0.08348173 0.0092341 0.06704283
0.04304631 -0.008344827 -0.012087211 -0.094977215 0.02938529 -0.14665635 -0.02370877 0.06260615
-0.08251248 0.06558498 -0.10757028 -0.02829009 0.007510816 0.03123737 -0.12805252 -0.0038026348
-0.009952392 -0.07167471 -0.0390068 0.0004531429 0.040842216 -0.13622531 -0.05197863 -0.10431861
-0.1155001 -0.022822123 0.053908125 -0.15456124 -0.04209222 -0.05555765 0.096827775 -0.055390693
-0.053119127 -0.055305213 0.02387011 -0.099059045 0.014123102 -0.021820696 0.060335387 0.058268204
-0.124366745 -0.049913593 0.028492145 -0.07081884 -0.04885439 0.08018925 -0.022880424 0.05957919
0.01040461 0.009494951 0.05827515 -0.072140016 -0.1260932 -0.13099942 0.067552894 -0.030123325
-0.040323697 -0.08070402 -0.111125015 -0.09595786 0.023900138 0.07711798 0.018435411 0.0044423346
0.101143226 0.050801553 0.06791435 0.076217055 -0.07703398 0.08321877 -0.0763167 -0.13812077
-0.14838831 -0.015485648 0.0001892694 0.080390446 -0.059980884 0.041381467 -0.07341922 0.034754705
-0.108655885 -0.1463033 -0.12192859 -0.06024694 0.031680517 -0.083956614 -0.058416933 -0.08698546

fc2.bias f4 [64]
00000000: 3f0f b5bd f343 613d 95dd 593d e82d 403d
00000010: 05d1 033e 5fb4 29be 54aa 083d 86fe d5bd
00000020: 2e36 213b 38d2 c6bc 423f 1f3e 156c 94bc
00000030: 35a9 efbb cc08 283e 769c b63d 1735 fe3d
00000040: 40a1 0ebe df3f b0bd 3604 273e 5f0a 2b3e
00000050: 1607 403d 1c68 fdbd e007 293d d556 84bb
00000060: 1a4e 363e 06e8 583d 63de b63d 579b a6bd
00000070: 5a47 023d 7e81 ccbd 184d 6abd 2a6e 01be
00000080: 96e7 ef3d 3784 0c3e fe63 3d3e ff17 90bd
00000090: 6bde 4f3d a571 083d fab0 0a3e f732 07be
000000a0: 82b8 833d 693e 6e3d 5f1f 803d 20af b43b
000000b0: 287f 27bd 0947 f63d 9939 12be 0b6b 49bd
000000c0: a087 813b e4f1 d9bd 1d1a ed3d 5596 4ebd
000000d0: c884 8fbd 5718 c33d 5930 fcbd f824 b33d
000000e0: 236d debd 3a84 3fbd dfa3 eb3b 54c7 b9bd
000000f0: a546 21be 2e92 963b 8000 9e3a 4537 2c3e
-0.088407986 0.054996442 0.053189833 0.04691878 0.12872703 -0.16572712 0.033365563 -0.10448937
0.0024598944 -0.024270162 0.15551475 -0.018117944 -0.007313872 0.16409606 0.08916561 0.1241247
-0.139287 -0.086059324 0.163102 0.16703175 0.046881758 -0.12373373 0.041267276 -0.0040386715
0.17803231 0.05295565 0.08929136 -0.081350975 0.031806327 -0.09985636 -0.05720243 -0.1263968
0.117140934 0.13722311 0.18495175 -0.07035827 0.050749224 0.033311505 0.13544074 -0.13203035
0.064316764 0.058164988 0.062559836 0.0055140406 -0.04089275 0.12025268 -0.14279784 -0.04917435
0.0039529353 -0.1064184 0.11577246 -0.050436337 -0.07007748 0.09526127 -0.12313909 0.087472856
-0.1086066 -0.04675696 0.007191166 -0.09071222 -0.15749605 0.0045950627 0.0012054592 0.16817959

fc3.weight f4 [2, 64]
00000000: 3297 c93d fbdf 293e eaa0 aabc 02df 2c3d
00000010: c001 233e 1046 7ebd e221 5f3d 2b8f 99bd
00000020: 68bd 483e a8a6 883d 00b9 df3d d312 703d
00000030: 40fe 85bd 0daf 233e b72e d63d 7084 cb3d
00000040: 02dd 383c c3e4 abbb 6226 6d3d 551f 263e
00000050: 280f e13d 005f 44bd 745e 4dbd 4b71 8737
00000060: 8d9d 2c3e 4deb f8bb 9e0c a33d 4c67 bcbd
00000070: e343 1dbb bc58 5dbd 6e6e a53d 6ed8 bfbc
00000080: 892b f53d 314d 073e 0dc4 1d3e d2a4 4d3c
00000090: 5482 74bd 7207 a9bd de88 113e fd99 2cbd
000000a0: df15 283d 0f06 093e bfed ff3d efa0 cd3d
000000b0: a466 893d a2f5 353d 7a0e 80bc c0d8 bcbc
000000c0: 92e8 a23d c0f8 b13b 679b 353e a2a4 32bd
000000d0: 405b d2bb 7b97 373e c604 61bd 050e a1bd
000000e0: 4a4e 79bd 1690 9f3d 5980 5d3e d261 c2bd
000000f0: 1e29 b03d ce42 253e eced 143e 4f16 b73d
00000100: 917a acbd f9ff d23a e2d4 1f3d b525 a3bd
00000110: 1299 923b 9413 90bd 3dd0 f03d c245 95bd
00000120: 7dfa 7d3d a0df 503c a8e2 db3d 8d11 213e
00000130: dd1b a03d c3fc a83d 22a7 ec3d aa59 d23d
00000140: 0275 78bd bb74 01bd 4a01 3c3e 5bb9 f03d
00000150: bf7c 4e3e e85d d9bd b803 c1bc 97e8 e23c
00000160: 7b3a cabc 9278 3c3c 0dd8 c8bd 740a a3bd
00000170: 7f8e bbbd 3b41 d6bb 884f d6bd a042 aebd
00000180: 9bca 513e fade 5d3d d738 1e3e f79c 26bc
00000190: 5522 0bbd 2479 3c3d cb06 6f3e b52b c0bd
000001a0: d7b7 96bd 0e3b 333e 0c8d 88bd 5f72 f93d
000001b0: 2af0 92bd eb84 a73d 5176 93bd f93a 59bd
000001c0: a4a9 42bd e2ab df3d b6f7 013e 8ba1 4e3c
000001d0: 60cc f8bc 2d25 1b3e ce81 acbd 5440 063b
000001e0: d2ee 93bd 535b cbbd 7f89 303e 90c0 c63c
000001f0: c8a7 79bd 5857 1d3e 9368 033e 3c2f 003e
0.09843291 0.16589348 -0.020828683 0.042204864 0.15918636 -0.062078536 0.054475673 -0.0749801
0.19603503 0.06672412 0.10923958 0.058611702 -0.06542635 0.15984745 0.10458129 0.0993737
0.011283161 -0.0052457764 0.057897933 0.1622289 0.10989219 -0.04794216 -0.050138906 1.614601e-05
0.16856976 -0.0075964094 0.07961391 -0.0919939 -0.0023996762 -0.0540397 0.080777034 -0.023418631
0.11971194 0.1321304 0.15406819 0.012551503 -0.059694603 -0.08253373 0.14212367 -0.042139042
0.041036483 0.13381217 0.12496518 0.10040461 0.0670903 0.044423707 -0.015631903 -0.023052573
0.079545155 0.0054312646 0.17735063 -0.043614037 -0.0064195693 0.17928879 -0.054936193 -0.07864002
-0.060865678 0.07791154 0.21630992 -0.09491314 0.086015925 0.16138765 0.14543885 0.08939802
-0.08421815 0.0016098014 0.03902138 -0.079661764 0.004473814 -0.07034984 0.11758468 -0.07288696
0.062006462 0.012748629 0.107365906 0.15729351 0.078178145 0.082513355 0.115553156 0.10271008
-0.060658462 -0.031605463 0.18359867 0.11754104 0.20164774 -0.10613614 -0.023561344 0.027698798
-0.024686089 0.011503356 -0.098068334 -0.07960978 -0.09158038 -0.006538538 -0.10464388 -0.085088015
0.20487444 0.054167725 0.1545137 -0.010169259 -0.03396829 0.046013966 0.23342435 -0.093833365
-0.073592834 0.17502996 -0.066675276 0.12180018 -0.07174714 0.08179649 -0.072003014 -0.053034756
-0.047525063 0.10921456 0.1269215 0.012611757 -0.030370891 0.151509 -0.08423196 0.002048512
-0.07223286 -0.09929528 0.1723995 0.024261743 -0.060951024 0.1536535 0.1283286 0.12518018

fc3.bias f4 [2]
00000000: 766c 79bd cb96 d83d
-0.060894452 0.105756365

fc1.weight f4 [64, 4]
00000000: 2e21 cbbe 332e d6be a897 813e 58c0 a43e
00000010: c98d d7be 27f0 34be 52b9 a0bd e4f5 91be
00000020: b4ae cfbe a4e3 af3e bcce f43e f290 7d3e
00000030: 10a2 db3e f2be bdbe c71a 2abf c6f4 eebe
00000040: 2ef2 d63e 7438 783e 00cc 643b e4bb 763e
00000050: 122d bebe eeac 873e ffc0 84be 0027 60bd
00000060: 7e5a 76be 2855 3f3e dd82 f6be f6b2 933e
00000070: 3b1a 51be e145 fdbe b13d 58be bd03 02be
00000080: 4770 98be bcda 913e 7855 f03e c69f 31be
00000090: e732 913e 5eb8 6dbe 4dff c4be 9758 dc3e
000000a0: 0f50 03bf b37b 373e 833a 523f b1ba 3b3e
000000b0: 5056 80be 8696 c8be 5124 0ebf 1eae 773e
000000c0: af59 403e 0954 7fbd edcb 153f 788c 91be
000000d0: d897 e0be ae5e ac3d 1e79 ec3d 7c7d e6be
000000e0: 660b 673e ea00 343e 090a 0c3f f077 f4bd
000000f0: ace7 d0be 201e fabe fc60 86be c8d8 82be
00000100: a090 a73d 5394 933d 9651 783e f534 96be
00000110: 3683 4ebe c34f 70bd 52b2 d6be 51fd cf3e
00000120: a795 ae3e 8b6c dfbe 6dfe 27be 64b5 dd3e
00000130: 1037 9e3e c953 3abe 3ce8 ebbd 2be6 b9be
00000140: ee76 96be 8761 dfbe 568a a5be 49d4 51be
00000150: dff2 9cbe d031 92be 0ac4 fabd 68ae ef3e
00000160: 1a3f f5be ec0d 4c3d 079b f33e 6e90 28be
00000170: 9c37 da3d 8524 f53e 18bc ff3e 5b5a 07be
00000180: a634 0cbf 3645 3b3e da1b 123e 9f70 96be
00000190: b8a6 67be dfe6 b83d db2e 363f 2def d83e
000001a0: 4c34 65be b80c dd3d f812 13be 00e2 e8ba
000001b0: 2e89 243f 955a b1bd a103 36bf d729 2dbe
000001c0: c805 babe 2a1d a8be b9f0 cd3d 746d 8e3e
000001d0: 2e97 053f b3a7 bd3e ed9a ee3e 65cd 133d
000001e0: 277b 943d 73f3 7c3e d803 443e 1a3a 36be
000001f0: 9ec5 b33c adfb 4d3e 90cf 873d efc7 69be
00000200: 5cad 583b c434 af3e e094 9c3e 8269 da3e
00000210: 525e 303d f364 2a3e 0dc6 a7be a12f 53be
00000220: 8305 f13e 5e2c 0fbe d6b3 893e b857 0e3e
00000230: 6ea1 463d ab53 583c 8eaf 8ebd 072a 3cbe
00000240: 6fc4 ed3e 2d6a cdbd 05e3 4bbe ce34 8a3e
00000250: 08c6 023e 59ac 923e d3f5 dfbe f9f0 dfbe
00000260: db1e fdbe 57a8 d13e ba70 b33e 6ae9 df3e
00000270: b8dd fa3e 0648 91bd 7b2b 90be fb46 8fbe
00000280: 288d fd3e 5a53 eebe ffe0 6f3d 0c6b 7abe
00000290: 721a 4a3e a1ec 4f3e 88a7 73bd c236 60be
000002a0: c823 883c 4d92 10be e3ab a5bd 7f2d 9cbd
000002b0: 097e cabd 0682 c5be 95ad 08bf 08d4 c2bd
000002c0: 6a01 213e 56bc 88bd 08c2 033e aacd b23e
000002d0: aa38 433e 10ee 92be 2e0d 823e f839 f03e
000002e0: a68e fe3e 8e20 2a3e b5ee 89be 9504 eb3e
000002f0: c71e 823e 6ca4 643e 2574 853e b688 bd3d
00000300: f6e4 f3be ab8c bf3e 70ac 0d3f c105 77be
00000310: 553b 923c 1a4b aa3e 061b fc3e 9761 85be
00000320: d4df 523e 6a17 523d 95f6 f03e 0ae9 103e
00000330: 5f72 b9be 8bf9 1ebe bcc9 9ebd ee38 5c3e
00000340: 9fa4 a7bb ad89 37be 7abc cabe 4d4f a83e
00000350: 9734 c63e 797e 243e d63c 0fbf 10a1 063e
00000360: ad98 33be e29a 0e3e 1945 853d 23f1 d13e
00000370: 64c0 36be 110a c63e ed58 7f3e 562b 003f
00000380: 46f8 7dbe b12a 70bd 07fd 643f 6dde 32bd
00000390: cdde bd3e 7c97 76be dce6 febb 6538 42be
000003a0: ba9a 28be 2165 3bbe 3adf 3ebd d05d 90bc
000003b0: 70df 6ebe d1f1 0a3f 075b 91be c10f b13e
000003c0: 9deb 143e 3cf5 cb3e d32c 123e d639 b33e
000003d0: e399 5f3e af2e 96bd 26c1 383f 1703 1ebd
000003e0: fe5a cebe 4ba4 debe ae74 0abd 2024 e9be
000003f0: abe2 aa3e 8517 f63e 7c8e bbbe 9f15 e63d
-0.39673752 -0.41832122 0.25311017 0.32177997 -0.4210036 -0.17669736 -0.07847847 -0.28507912
-0.40562975 0.34353364 0.47813976 0.24762323 0.4289708 -0.37059742 -0.6644711 -0.46671122
0.41981643 0.24240285 0.0034911633 0.24095112 -0.3714376 0.26499122 -0.25928494 -0.054724693
-0.24057958 0.18684828 -0.48146716 0.28847474 -0.20420162 -0.49467376 -0.21117283 -0.12696739
-0.2977316 0.28487194 0.46940207 -0.17346105 0.28359148 -0.23214862 -0.3847603 0.4303634
-0.51294035 0.17918281 0.8212053 0.18332936 -0.2506585 -0.3917734 -0.55524164 0.24187514
0.18784212 -0.062336 0.5851429 -0.28427482 -0.43865848 0.08416496 0.11546539 -0.45017612
0.22562942 0.17578474 0.5470281 -0.11936939 -0.40801752 -0.4885111 -0.26245868 -0.25556016
0.08181882 0.07206025 0.24249873 -0.29337278 -0.2016724 -0.058669817 -0.41932923 0.40622953
0.3409855 -0.436375 -0.1640565 0.43302453 0.30901384 -0.18196024 -0.115189046 -0.36308417
-0.2938761 -0.43629095 -0.32332104 -0.20491137 -0.30654046 -0.2855363 -0.12244423 0.4681275
-0.47899705 0.049817964 0.47579214 -0.16461346 0.10655138 0.47879425 0.49948192 -0.13218062
-0.54767835 0.1828812 0.14268437 -0.29382798 -0.22622192 0.0902841 0.71165246 0.42369977
-0.22383231 0.107934415 -0.14362705 -0.0017767549 0.6427182 -0.08659855 -0.7109929 -0.16910492
-0.36332536 -0.3283475 0.1005568 0.2781788 0.52183807 0.37042007 0.46602574 0.03608455
0.07250052 0.24702244 0.19142091 -0.17795601 0.021944817 0.20115538 0.06631386 -0.22830175
0.0033062315 0.34219944 0.30582333 0.4265862 0.0430587 0.16640072 -0.32768288 -0.20623638
0.47074518 -0.13981768 0.26895016 0.1390065 0.048493795 0.013203542 -0.06967078 -0.18375407
0.4643893 -0.10030017 -0.1991082 0.26993412 0.12770855 0.28647116 -0.43742236 -0.43738535
-0.49437603 0.40948746 0.3504694 0.43732768 0.48997283 -0.070938155 -0.28158173 -0.2798384
0.49521756 -0.46547967 0.058564182 -0.24454898 0.1973665 0.2030511 -0.059485942 -0.21895888
0.016618624 -0.1411831 -0.080894254 -0.07625865 -0.098873205 -0.38575763 -0.53389865 -0.09513098
0.15723196 -0.06676547 0.12866986 0.34922534 0.19064584 -0.28697252 0.2540068 0.46919227
0.49718207 0.16613981 -0.26939932 0.45901933 0.25414106 0.22328347 0.26065174 0.09254591
-0.4763562 0.3741201 0.55341244 -0.24123289 0.017850557 0.33260423 0.49239367 -0.26051018
0.20593196 0.05129186 0.47063127 0.14151397 -0.3622007 -0.1552488 -0.077533215 0.21506092
-0.00511606 -0.17923613 -0.3959692 0.32873002 0.38711998 0.1606387 -0.55952203 0.13147378
-0.1753871 0.1392627 0.0650732 0.41004285 -0.17846829 0.38679555 0.24936266 0.50066125
-0.2480174 -0.058634464 0.8944859 -0.043669153 0.37084046 -0.24081224 -0.0077789854 -0.18966825
-0.16465273 -0.18300296 -0.046599604 -0.017622858 -0.23327422 0.5427523 -0.2838976 0.34582332
0.14543004 0.39835536 0.14274912 0.35005063 0.21836047 -0.07333123 0.7216972 -0.038577165
-0.40303797 -0.4348472 -0.03380268 -0.45535374 0.3337606 0.4806482 -0.36632144 0.11234593

fc1.bias f4 [64]
00000000: c059 22be 31c4 733e 4eb0 eebe 25b6 c6be
00000010: c0a0 f3be e249 c7bc eddb b13e 5309 6dbe
00000020: 0567 d13e bb70 e83e 843e 77be b9e7 cf3e
00000030: 9b71 e03d 3575 223e b0f0 d2bb 84bc f4be
00000040: 3897 ed3e bce0 e13d 985c 293d 8f20 14be
00000050: dea7 453b d6e6 a53e 9c29 8a3c 3c34 adbd
00000060: 3778 f03e 8537 95be ded0 c8be 2179 7fbe
00000070: 62e9 8a3c a298 8dbe 7e13 153e eb80 18bf
00000080: 2915 a0be 206c d5bc a782 d93e 0c32 98bd
00000090: a8ee cc3e ba23 94be 35d5 bebe dd38 82be
000000a0: b475 91be 9468 963e 945b 193e a600 bc3e
000000b0: c730 003f f411 a0be 2944 5a3e 05b9 433d
000000c0: 860b c6bd 6caf d03e ecc3 fa3e 4c18 dd3e
000000d0: 2d4f bf3e 7521 483e 6b36 573e b96f f8be
000000e0: 1cb5 0cbe 3502 463e f3e3 e13e 4020 7a3e
000000f0: 7a32 3a3e 0ca5 cdbd 1049 df3e 8886 82be
-0.1585455 0.2380531 -0.46618885 -0.3881084 -0.4758358 -0.024327222 0.34738103 -0.23148088
0.4089891 0.45398507 -0.24144942 0.40606478 0.109591685 0.15865023 -0.0064373836 -0.47800076
0.46404433 0.11029193 0.04134807 -0.14465545 0.003015987 0.32402676 0.016865544 -0.084572285
0.46966717 -0.2914392 -0.39221853 -0.24948551 0.016956989 -0.27655512 0.14558217 -0.59571713
-0.31266144 -0.026052535 0.42482492 -0.07431421 0.4002583 -0.28933507 -0.3727204 -0.25434008
-0.28410113 0.29376662 0.1497634 0.36719245 0.5007443 -0.31263697 0.21315064 0.04778387
-0.09670167 0.40758836 0.48977602 0.431826 0.37365094 0.19544013 0.21016853 -0.48522738
-0.13740963 0.1933678 0.44119224 0.24426365 0.18183318 -0.10041246 0.4361043 -0.25493264

fc2.weight f4 [64, 64]
00000000: 5806 89bc 1074 9b3d c070 e23b 5bc3 473d
00000010: 706f 71bd d9e6 9bbc 0037 e43c e8de 163d
00000020: 9599 793c 98ab b9bd 899d cc3d 28b0 e63d
00000030: 85c5 ae3d c2d6 a5bd 8f83 d33d 6c3d 843d
00000040: b06a a6bd 603e fe3c d47e f2bd dd51 a5bd
00000050: 40e2 95bb 0064 d839 14bb 2bbd 3d2f 2dbb
00000060: 91f8 ac3d 30bf a83c 1a51 15bd 3aae c0bd
00000070: 9041 ec3d aa4c 44bd e69f a5bd cb45 ecbc
00000080: fca7 d6bd f46f 9b3d 7602 8fbd 9dd3 163d
00000090: 0058 5b39 6035 bfbb af1b 9abd 50a7 b53d
000000a0: a8b7 d3bd 97b3 25bc 5701 f2bd 2200 b83c
000000b0: 847d 21bd e6e0 e3bd 2009 bebc a2aa 7ebd
000000c0: dbcc 88bd 6087 893c e832 a3bd 38a8 f0bc
000000d0: d081 c8bc 8878 ddbc ba49 d5bd eadb 983d
000000e0: 3475 033d 15ba a73c b73e 863c f24e 1f3d
000000f0: 603d 97bd 0036 86bc 2e13 fbbd ea1a d4bd
00000100: ab15 6c3d 3b1c 6bbb 3ab2 e03d 3861 e9bd
00000110: a4af 3f3d 2a1b 623d c949 153e fe38 05bd
00000120: 7d97 113e 4cdf 26bc edfa 26bf acc7 5b3d
00000130: ad29 a3bd ac6c 96bd 2b19 e73d f071 00bc
00000140: 5166 923d cd81 5f3c 936a f73d 1740 16bc
00000150: 21bb c0bd 9848 b9bd c8e7 cbbd c0ec acbd
00000160: 8712 ebbb 26d1 82bb 025b 943d 95e6 1dbe
00000170: 28e3 973b 4f90 a93d 79f6 f03d a94c 41bb
00000180: 9e7d 0fbe 5ab2 023e 6c8a 1d3d 0eb6 a6bd
00000190: c516 a5bd 87e2 dabd a680 fabd b0da 7ebd
000001a0: e023 353c 02b2 1f3d 9121 353d 7323 173e
000001b0: 3db1 5fbd c852 b33d a9fc 333d f00c 0dbc
000001c0: c838 ddbd 1f37 ca3d 55a4 fa3d 47fb 873d
000001d0: 98b8 043e 2c92 dbbc 6089 8bbc d59d 99be
000001e0: d140 f5be e347 77bd 9a8c aebc 2ad2 183e
000001f0: cd6f cd3b 60e6 acbe 5989 f73d aed6 1dbd
00000200: cf79 c6bd dd4b 98bd 6c3d 173d 402f 7a3d
00000210: 8ef1 c63d 746e 3bbb d2d6 93bd 2535 4b3d
00000220: f8e3 c0bb 0b6a c53b 1f1b b9bb c56c a13d
00000230: 9093 bc3d 5bfc 9b3c f705 acbd e08e c8bb
00000240: 5d95 99bd 5b6c 9d3d cbe4 66bc 3481 80bd
00000250: 376d 13be fa27 563d e3e3 8fbd 9ee3 0dbe
00000260: 8bc0 673c f036 17be 4ac9 833d 2b51 5a3d
00000270: f9c0 cdbd d3f9 873d f9cd cf3c 516a ac3d
00000280: 64e8 cdbd 50ef ac3c eea4 efbc 3cfa 05bd
00000290: 501b 9a3d ae6b 97bd dac2 913c 287b 9a3d
000002a0: 5451 303d 9008 983a 5ba7 56bb fc0d b0bd
000002b0: cb81 1c3d 6a5a 0ebe 37d5 77bc d3e5 923d
000002c0: 212c 94bd 530d 9a3d bdbd c9bd b858 a0bc
000002d0: 2e56 843c 75c7 263d ebcb f4bd bf64 b83b
000002e0: b3f5 1dbb bcb5 7fbd f443 f5bc 7133 1b3c
000002f0: d0bb 4b3d 8c5c 05be 509e 2ebd c6e2 c0bd
00000300: bd74 e3bd 3547 81bc c4ce 5c3d 6940 17be
00000310: e468 2cbd 4b5c 45bd d6fc d23d ac21 55bd
00000320: 2f67 3cbd 81e8 4abd ffe0 e63c ab7c bfbd
00000330: 06e8 af3c c903 6abc 37d0 8a3d a4aa 6e3d
00000340: 2e16 f0bd 25ad 37bd bd51 083d db94 81bd
00000350: e234 36bd 8365 af3d 3c68 80bc 5a4b 893d
00000360: 9d5c 903c dd47 673c ecb1 6e3d 0a4f 84bd
00000370: d57c f8bd 4f10 febd fc66 993d 15bd bfbc
00000380: 9470 0abd 6afd 95bd 9c45 d7bd f65d b5bd
00000390: a11c f43c f76a ad3d 40a6 bc3c 83b2 443c
000003a0: 2e24 cf3d 0ada 6d3d 9d53 973d 5756 a83d
000003b0: f27d 91bd 1e9c b33d 7848 90bd 5261 06be
000003c0: 1b45 10be c73d 07bc f108 d63b 8c8a b03d
000003d0: 530a 5ebd 05bd 463d bf85 8abd 6a5f 203d
000003e0: 70ee d6bd eef6 0ebe 1bdc ecbd 850f 5cbd
000003f0: f048 1b3d ba35 a0bd 2ddd 53bd ef85 a3bd
-0.016726658 0.075904965 0.0069104135 0.04877029 -0.058944166 -0.019030975 0.027858257 0.036833674
0.015234371 -0.09065932 0.09990985 0.11264068 0.085337676 -0.080976024 0.10327827 0.06457028
-0.08125818 0.031035602 -0.11840597 -0.08072255 -0.0045740902 0.00041273236 -0.04192646 -0.0026425861
0.08445848 0.020598978 -0.036454298 -0.09408231 0.115359426 -0.047924675 -0.08087139 -0.028841874
-0.10481259 0.07589713 -0.06982891 0.036822904 0.0002091825 -0.00583522 -0.075248115 0.08869803
-0.10337764 -0.010113618 -0.11816662 0.022461 -0.03942634 -0.1112688 -0.02319771 -0.062174447
-0.06679698 0.016788185 -0.07968694 -0.029377088 -0.024475962 -0.027035013 -0.10414453 0.0746382
0.032094195 0.020474473 0.016387327 0.038893647 -0.07384753 -0.016383171 -0.122595176 -0.10356696
0.05763785 -0.003587498 0.10971494 -0.11395496 0.046798363 0.055201687 0.14578928 -0.032525055
0.14217944 -0.010185074 -0.6522663 0.05365722 -0.079669334 -0.07344946 0.11284097 -0.007839665
0.071484216 0.013641787 0.12080874 -0.009170554 -0.09410692 -0.09047049 -0.09956318 -0.08443594
-0.0071738395 -0.0039922176 0.07243921 -0.15419991 0.0046352334 0.08279478 0.11765761 -0.0029495156
-0.14012763 0.12763348 0.038462088 -0.08140193 -0.080609836 -0.10687738 -0.12231569 -0.062220275
0.011055917 0.03898812 0.044221465 0.14759617 -0.054612387 0.08756024 0.043942127 -0.008609042
-0.10801846 0.09873795 0.12238375 0.06639724 0.12961042 -0.026803099 -0.017033279 -0.3000323
-0.47901013 -0.06037129 -0.021307278 0.14923921 0.006269431 -0.33769512 0.12086744 -0.038534813
-0.09691202 -0.07436345 0.03692381 0.061080217 0.09714042 -0.002859977 -0.07218708 0.04961123
-0.005886551 0.006024604 -0.005648985 0.07882074 0.09207833 0.01904123 -0.08399575 -0.0061205477
-0.07499192 0.07686683 -0.014092634 -0.062746435 -0.14397131 0.05228422 -0.07025888 -0.1385636
0.014145027 -0.1476705 0.06434877 0.053300064 -0.10046572 0.06639447 0.02536677 0.08418716
-0.100540906 0.021110207 -0.02925345 -0.032709345 0.07524741 -0.07393585 0.017793108 0.075430214
0.04304631 0.0011599232 -0.003275356 -0.08596417 0.038209718 -0.13901678 -0.015126518 0.07172742
-0.072349794 0.07522073 -0.09850643 -0.019573554 0.016154375 0.04071756 -0.11952957 0.0056272442
-0.0024102747 -0.062429175 -0.02993963 0.009472714 0.04973966 -0.13023585 -0.042631447 -0.094182536
-0.111062504 -0.015781024 0.053908125 -0.14770664 -0.04209222 -0.04818372 0.10302131 -0.052034065
-0.04599684 -0.04953814 0.028183458 -0.093499504 0.021472942 -0.014283129 0.06777995 0.058268204
-0.117229804 -0.044842858 0.033281077 -0.0632722 -0.044484027 0.08564284 -0.015674703 0.06703825
0.017622286 0.014116255 0.05827515 -0.06460388 -0.12133185 -0.12405454 0.07490346 -0.023405591
-0.03379877 -0.073237255 -0.10511324 -0.08855812 0.029798808 0.084676675 0.023028493 0.012005451
0.101143226 0.058069266 0.07388995 0.08219593 -0.071041 0.08770011 -0.07045072 -0.13123062
-0.14088862 -0.008254475 0.0065318276 0.08620176 -0.054209065 0.048520107 -0.06763791 0.039153494
-0.10494697 -0.13961384 -0.11565419 -0.053725738 0.037911355 -0.078227475 -0.0517246 -0.0798453

fc2.bias f4 [64]
00000000: 442f aebd 92d3 033d 8467 7f3d e51f 5b3d
00000010: 9d3f db3d a648 18be e935 963c 013f cabd
00000020: 2955 8abc 38d2 c6bc 3c2e 0d3e c30e 08bd
00000030: 95bc 8539 e550 143e 270b 993d 93bd da3d
00000040: 00ff 07be adc8 a6bd 08ea 173e cf52 193e
00000050: db4d f73c 1c68 fdbd 0b08 293d e7f3 7e3b
00000060: 5a14 1f3e 51ce 783d 3269 c23d 2986 9abd
00000070: 5ccb 153d d1ac bdbd 184d 6abd 5243 f7bd
00000080: 4e64 d53d 9292 ee3d 517a 2b3e 8499 81bd
00000090: 6e62 683d d272 303d 2917 f23d 46af 00be
000000a0: 4798 8a3d 8b5b 283d 93f8 903d 9e7f 46bc
000000b0: e20b 0ebd 4128 da3d 272b 0dbe 6d99 3dbd
000000c0: a087 813b e4f1 d9bd bcb8 c63d 3fa0 31bd
000000d0: c884 8fbd a274 9d3d cedc f0bd c8d4 c13d
000000e0: a9f0 d2bd 91c2 31bd 485a 4dbc 54c7 b9bd
000000f0: d0c2 19be 4550 34bc 7dca 95bc 34b9 1d3e
-0.08505109 0.03218419 0.06235458 0.053497214 0.10705493 -0.14871463 0.018336253 -0.09875298
-0.01688631 -0.024270162 0.13787168 -0.033217203 0.0002550824 0.14483984 0.0747283 0.1068069
-0.13280869 -0.081437446 0.1483537 0.14972995 0.030188492 -0.12373373 0.041267436 0.0038902701
0.15535107 0.060743634 0.09492721 -0.0754512 0.03657089 -0.09261478 -0.05720243 -0.12073387
0.10419522 0.1164905 0.16745879 -0.06328109 0.056734495 0.04307825 0.11820824 -0.12566862
0.06767326 0.041102927 0.07078662 -0.012115387 -0.0346793 0.10652209 -0.13785993 -0.046288896
0.0039529353 -0.1064184 0.09703204 -0.043365713 -0.07007748 0.076882616 -0.11760865 0.09464413
-0.102998085 -0.043398444 -0.012533732 -0.09071222 -0.15015721 -0.011005466 -0.01828503 0.1540268

fc3.weight f4 [2, 64]
00000000: 3297 c93d 1634 133e 8c88 f4bc 8ce2 143d
00000010: 2669 083e 1046 7ebd e679 963c ca7a a3bd
00000020: bd1f 2a3e e0a6 883d 47cd a23d 81ac 063d
00000030: 7268 93bd b3d8 053e 474b 8e3d 032c 893d
00000040: abd7 a73b 6c98 1bbc 6516 e73c a43f fe3d
00000050: 62cc 9b3d 005f 44bd 745e 4dbd 4a6e 01bc
00000060: b6a3 1a3e 719d 72bc 8bb8 983d d2b0 c7bd
00000070: 449b d7bb b02d 77bd 6e6e a53d 0dba e6bc
00000080: 5b19 9f3d 506c d33d cc62 ff3d 49af cc3b
00000090: d4cd 84bd 7444 babd e925 8a3d eabd 48bd
000000a0: ce55 1a3d 3e51 cc3d b33e f33d 6100 943d
000000b0: 170c 7a3d de9d a53c 351d a4bc c0d8 bcbc
000000c0: 92e8 a23d 23f9 b13b 8b60 0e3e 5d25 4cbd
000000d0: 405b d2bb 8a45 113e 141c 77bd 7608 aebd
000000e0: 7da1 86bd 87af 983d 2da0 273e d261 c2bd
000000f0: fe5a a33d 78e0 ef3d e732 db3d d9fc 193d
00000100: cf5c b3bd 1f8b 0fbd 9c95 f33c f7e4 aebd
00000110: 41e1 dbbc c4c5 b1bd abb0 ad3d 861f a0bd
00000120: 9487 0a3d a0df 503c 0dda a13d 6a94 0c3e
00000130: 7ad1 923d 6e3d 2c3d f762 883d 7f8c 893d
00000140: 2c98 88bd c2bf 11bd be4b 213e 90e4 783d
00000150: d4ec 2f3e e85d d9bd b803 c1bc 2742 a13c
00000160: 933b 5fbd c015 993b 5010 d3bd c09d adbd
00000170: 3a0b c4bd 9d4a 52bc 884f d6bd e874 b8bd
00000180: 509c 1a3e 9f30 aa3c 31bb 033e 7f26 88bc
00000190: 77c6 1fbd 1304 193d d338 dc3d 1502 cebd
000001a0: 7597 9dbd 0998 133e b4c6 a0bd a7b7 c33d
000001b0: f19b 9ebd b640 6d3d 4a87 9cbd 0e68 64bd
000001c0: a4a9 42bd 81ac df3d d9fc ad3d 586f d33b
000001d0: 60cc f8bc 047e e83d 0618 b8bd d4f3 8bbb
000001e0: f7c9 9ebd f63b d2bd cd51 8e3d 90c0 c63c
000001f0: 1cf2 89bd d397 d53d 03ce 9d3d 65dd 833d
0.09843291 0.14375338 -0.029850267 0.036348864 0.13321361 -0.062078536 0.018368673 -0.079824045
0.1661367 0.06672454 0.0794931 0.032879356 -0.07197656 0.13070945 0.06947952 0.06697848
0.005122145 -0.009496789 0.02820892 0.12414482 0.07607342 -0.04794216 -0.050138906 -0.00789983
0.15101513 -0.014808045 0.07457074 -0.09750523 -0.0065797884 -0.060346305 0.080777034 -0.028164888
0.07768508 0.10323393 0.12470016 0.0062464816 -0.06484571 -0.09095088 0.06745512 -0.04900924
0.037679486 0.09976433 0.11877193 0.07226635 0.061046686 0.020216879 -0.020033458 -0.023052573
0.079545155 0.0054313107 0.13904016 -0.04984032 -0.0064195693 0.14186683 -0.06032951 -0.084977075
-0.0657377 0.07455354 0.16369696 -0.09491314 0.0797634 0.11712736 0.10703068 0.03759465
-0.08757936 -0.035044786 0.029734425 -0.08539765 -0.026840808 -0.08680299 0.08480962 -0.078185126
0.033820704 0.012748629 0.07902918 0.1372849 0.07168861 0.04205077 0.06659501 0.06716251
-0.066696495 -0.035583265 0.1575155 0.06076485 0.17180187 -0.10613614 -0.023561344 0.019684864
-0.054500174 0.0046717823 -0.10305846 -0.08477354 -0.09572454 -0.012835172 -0.10464388 -0.09006673
0.15098691 0.020775137 0.12864377 -0.016619919 -0.03900763 0.0373574 0.10753026 -0.10058991
-0.07694904 0.14413466 -0.078503996 0.09556513 -0.07744587 0.05792304 -0.07642992 -0.055763297
-0.047525063 0.109215744 0.084954925 0.006452482 -0.030370891 0.113521606 -0.08988957 -0.00427101
-0.077533655 -0.10265343 0.06949196 0.024261743 -0.06735632 0.10429349 0.07705309 0.06438712

fc3.bias f4 [2]
00000000: 4c9c a2bd 1d5b bb3d
-0.079399675 0.09148238
