checkpoints/dqn_episode_150.pth (torch, 41394 bytes, 12 tensors)

fc1.weight f4 [64, 4]
0	0xbf039179	-0.5139385
1	0xbeb165e0	-0.34648037
2	0x3eed8883	0.46393213
3	0x3e7e75ef	0.24849676
4	0xbed3ae5d	-0.41343966
5	0xbe4827d1	-0.19546439
6	0xbd1db2cc	-0.038500592
7	0xbea31b5a	-0.31856805
8	0xbecfae9c	-0.40562904
9	0x3eafe3a4	0.34353364
10	0x3ef4cebc	0.47813976
11	0x3e7d9050	0.24762082
12	0x3f476847	0.7789349
13	0xbf07ca97	-0.530435
14	0xbfb493bd	-1.4107586
15	0xbecf9466	-0.40542907
16	0x3ed6f22e	0.41981643
17	0x3e783874	0.24240285
18	0x3b64cc00	0.0034911633
19	0x3e76bbe4	0.24095112
20	0xbec4eaaf	-0.384603
21	0x3e3bc0fb	0.18335335
22	0xbefd729b	-0.495015
23	0x3b49659d	0.0030730732
24	0xbe814ea5	-0.25255314
25	0x3e4cc3c4	0.19996554
26	0xbf0b1422	-0.54327595
27	0x3e8b7e6d	0.27244893
28	0xbdf1512b	-0.1178306
29	0xbefc41a8	-0.49268842
30	0x3e3b0afc	0.18265909
31	0xbd6795bc	-0.056539282
32	0xbe4691b1	-0.19391514
33	0x3e70bee0	0.23510313
34	0x3ee447e1	0.4458609
35	0xbe1c5792	-0.1526778
36	0x3e7b8743	0.24563317
37	0xbe36bfdf	-0.1784663
38	0xbed193de	-0.40933126
39	0x3ece7e93	0.40330943
40	0xbf039db1	-0.51412493
41	0x3e20001d	0.15625043
42	0x3fbffb6d	1.4998604
43	0x3e19e9dd	0.15030618
44	0xbe780696	-0.24221262
45	0xbeaa10e1	-0.33216003
46	0xbf2ee70f	-0.6832132
47	0x3e3a6e37	0.18206106
48	0x3e8b4ebe	0.27208513
49	0xbdf029cf	-0.11726724
50	0x3f410e5f	0.75412554
51	0xbe90e18d	-0.28297082
52	0xbeba39e8	-0.36372304
53	0xbd2bdd5c	-0.04195915
54	0x3eac8a5e	0.33699316
55	0xbeac8da0	-0.337018
56	0x3e800cb6	0.25009698
57	0x3daef7e2	0.08543374
58	0x3f131308	0.57450914
59	0xbd84f33d	-0.064917065
60	0xbed0e7ac	-0.40801752
61	0xbefa1da8	-0.4885075
62	0xbe8660fc	-0.26245868
63	0xbe82d8c8	-0.25556016
64	0x3e5907e3	0.21194415
65	0x3c594858	0.013261877
66	0x3e53f1df	0.20697735
67	0xbe8ccc90	-0.2749982
68	0xbe02c57f	-0.12770651
69	0x3b3f9d4c	0.0029238043
70	0xbf25c24a	-0.64749587
71	0x3eab7f98	0.33495784
72	0x3f17c8cd	0.5929077
73	0xbe918fd5	-0.28430048
74	0xbf0d6625	-0.55233985
75	0x3e6a1545	0.22859676
76	0x3eb27930	0.34858084
77	0xbe6a3e4d	-0.22875328
78	0xbefbb137	-0.49158642
79	0xbeb48dd1	-0.35264447
80	0xbe8e0044	-0.27734578
81	0xbef0598e	-0.46943325
82	0xbed16764	-0.40899193
83	0xbe2df9e3	-0.16989855
84	0xbea7fa4a	-0.32808143
85	0xbe5aba98	-0.21360242
86	0xbe390d63	-0.18071513
87	0x3ed82fce	0.42223972
88	0xbf106fff	-0.5642089
89	0xbc528f0f	-0.012851491
90	0x3f5a370e	0.85240257
91	0xbd2ee82f	-0.042701896
92	0x3d5edba0	0.05440867
93	0x3eccd0db	0.40003094
94	0x3efa7415	0.4891669
95	0xbdd985c8	-0.1062122
96	0xbf1afb15	-0.6053937
97	0x3deec5ea	0.11658843
98	0x3e306bd7	0.17228638
99	0xbe807c06	-0.25094622
100	0xbea4485d	-0.3208646
101	0x3e13e6f7	0.14443575
102	0x3f94dde8	1.163022
103	0x3eb7ad15	0.3587424
104	0xbe65344c	-0.22383231
105	0x3ddd0cb8	0.107934415
106	0xbe1312f8	-0.14362705
107	0xbae8e200	-0.0017767549
108	0x3f4c331f	0.79765505
109	0xbe4d82f5	-0.20069487
110	0xbfb58186	-1.4180152
111	0xbe30d4fe	-0.1726875
112	0xbec69090	-0.38782167
113	0xbe241023	-0.1602178
114	0x3ea73a1a	0.32661515
115	0x3e206fe2	0.1566768
116	0x3f0caa0a	0.5494696
117	0x3eb7decc	0.35912168
118	0x3eee37f9	0.4652708
119	0x3da62695	0.08112828
120	0x3ca4c650	0.020114094
121	0x3e2ec09c	0.17065662
122	0x3f006a44	0.5016215
123	0xbdf530d8	-0.11972207
124	0x3e93a784	0.28838742
125	0x3e5b352a	0.21406999
126	0xbe053cee	-0.13011524
127	0xbe44af8a	-0.19207588
128	0xbbacd17d	-0.0052739964
129	0x3e94520a	0.2896884
130	0x3f597f48	0.8495984
131	0x3ed08a68	0.40730596
132	0xbdea5677	-0.11442273
133	0x3dbfd5da	0.09366961
134	0xbedfcfa9	-0.4371312
135	0xbe0eaa26	-0.13932094
136	0x3eea178e	0.45721096
137	0xbdc5953c	-0.09647605
138	0x3e567ecf	0.20946811
139	0x3dd5743d	0.10422561
140	0x3d29d124	0.041459218
141	0xbd628b83	-0.05530883
142	0xbed5ff56	-0.41796368
143	0xbe28a0e5	-0.16467626
144	0x3ee9d3be	0.4566936
145	0xbcf0895a	-0.02936237
146	0xbe52d21b	-0.20587961
147	0x3e841799	0.25799254
148	0x3d8e4cc2	0.06948234
149	0x3e77d8fb	0.24203865
150	0xbf380925	-0.71888953
151	0xbed45bc6	-0.41476268
152	0xbf286c15	-0.6578992
153	0x3ed1bcb0	0.4096427
154	0x3f807f82	1.0038912
155	0x3ed0d718	0.40789104
156	0x3f17f994	0.593652
157	0xbe381b2c	-0.17979115
158	0xbf61c849	-0.88196236
159	0xbe932705	-0.28740707
160	0x3efd8d28	0.49521756
161	0xbeee535a	-0.46547967
162	0x3d6fe080	0.05856371
163	0xbe7a6b0c	-0.24454898
164	0x3e83ce7a	0.25743467
165	0x3dd3705b	0.103241645
166	0x3db59a46	0.08867316
167	0xbe31675c	-0.17324585
168	0x3d9c7996	0.07640378
169	0xbde44b1e	-0.1114714
170	0xbe0ca8fa	-0.13736334
171	0xbdafd7ff	-0.0858612
172	0xbdf1f3cf	-0.11814081
173	0xbebe7549	-0.37198856
174	0xbf193b55	-0.5985616
175	0xbddc0e30	-0.107448936
176	0x3e3d3c56	0.18480048
177	0x3ca779b9	0.020443784
178	0x3cc04b58	0.023473427
179	0x3e901f09	0.28148678
180	0x3eb9fe4a	0.3632682
181	0xbe52b296	-0.20575938
182	0x3f12f1c9	0.57400185
183	0x3ed0f13d	0.4080905
184	0x3ef412c5	0.4767057
185	0x3e56fedc	0.20995659
186	0xbea83738	-0.3285463
187	0x3ee22447	0.44168302
188	0x3e8fe255	0.28102365
189	0x3e468c9f	0.1938958
190	0x3e86c319	0.26320723
191	0x3d891b4d	0.0669466
192	0xbee5dac9	-0.44893482
193	0x3e9624ba	0.29324895
194	0x3f17e7dc	0.59338164
195	0xbe0d9cbb	-0.13829319
196	0x3e3f4151	0.1867726
197	0x3e97bbf5	0.29635587
198	0x3f0eae08	0.557343
199	0xbe86b2bf	-0.26308247
200	0x3e2e78be	0.17038247
201	0x3d801bac	0.06255278
202	0x3ed9c284	0.42531216
203	0x3e08a315	0.13343461
204	0xbeaba01b	-0.33520588
205	0xbdb78a0f	-0.089618795
206	0xbe3260a8	-0.17419684
207	0x3e24e480	0.16102791
208	0x3b8c5be0	0.0042834133
209	0xbdf4df52	-0.119566575
210	0xbefd2159	-0.49439505
211	0x3e89a6fa	0.26885206
212	0x3eba16dc	0.36345565
213	0x3e0fefb0	0.14056277
214	0xbf22d1dc	-0.6360147
215	0x3e0939d8	0.13400972
216	0xbe5f2ad1	-0.21793677
217	0x3e748f28	0.23882735
218	0xbcb33d9d	-0.021879965
219	0x3ea638ae	0.32465118
220	0xbdb608c6	-0.08888392
221	0x3ea2917e	0.31751627
222	0x3f2273a5	0.6345771
223	0x3f02a2d7	0.51029724
224	0x3d8a62f3	0.06757154
225	0xbd53f802	-0.05175019
226	0x3fc08430	1.504034
227	0xbc2ede74	-0.010673154
228	0x3ecd7667	0.40129396
229	0xbe7e6846	-0.24844465
230	0xbdba0352	-0.090826645
231	0xbe3e9e28	-0.1861502
232	0xbe4bb586	-0.19893464
233	0xbe230854	-0.15921146
234	0xbdae2471	-0.085030444
235	0xbcf80c6c	-0.03027936
236	0xbe8ce28a	-0.27516586
237	0x3f0af731	0.54283434
238	0xbeaf3ae6	-0.34224623
239	0x3eaffac9	0.3437102
240	0x3e130e53	0.14360933
241	0x3eda49e1	0.4263449
242	0x3d91985c	0.07109138
243	0x3ea2c887	0.31793615
244	0x3e67ae9d	0.22625203
245	0xbde81f2f	-0.11334073
246	0x3fa51688	1.2897501
247	0xbd66fee4	-0.056395426
248	0xbeaa9b9c	-0.33321846
249	0xbed1ec10	-0.41000414
250	0xbe229486	-0.1587697
251	0xbf00fac7	-0.50382656
252	0x3e9c97b6	0.30584496
253	0x3eed53ba	0.4635294
254	0xbf2ec5f5	-0.6827081
255	0x3db27422	0.08713557

fc1.bias f4 [64]
0	0xbe5f5190	-0.21808457
1	0x3e62297d	0.22086139
2	0xbeeeafa0	-0.46618366
3	0xbede71fe	-0.43446344
4	0xbef3a0c0	-0.4758358
5	0xbd0cfce2	-0.034420855
6	0x3eb7c8b6	0.35895318
7	0xbea58c2d	-0.32333508
8	0x3edd5a0e	0.4323277
9	0x3ee3964e	0.4445061
10	0xbeb36c3e	-0.3504352
11	0x3ec9336c	0.39297044
12	0x3dbba382	0.09162046
13	0x3e1ba38a	0.15199104
14	0x3bf1ac8d	0.007375306
15	0xbef4bc84	-0.47800076
16	0x3eeb0410	0.45901537
17	0x3db8d4df	0.09024977
18	0xbd85dc9b	-0.06536218
19	0xbe8ec103	-0.2788163
20	0xbd71eeb7	-0.059065547
21	0x3e9c8129	0.3056729
22	0xbd7b7fda	-0.061401226
23	0xbe0f38b9	-0.13986482
24	0x3ef5393c	0.4789523
25	0xbecbf112	-0.3983236
26	0xbec8d0ba	-0.39221746
27	0xbea82f10	-0.32848406
28	0xbdb34830	-0.08754003
29	0xbea9a9d0	-0.3313737
30	0x3e06517d	0.13117023
31	0xbf4eba5b	-0.80753106
32	0xbeb1712f	-0.34656665
33	0xbd5e44bf	-0.05426478
34	0x3ee00ad4	0.4375826
35	0xbe1cb371	-0.15302826
36	0x3ec87590	0.39152193
37	0xbeb666b3	-0.35625228
38	0xbeb86cda	-0.36020547
39	0xbeb2a53e	-0.34891695
40	0xbe9175b4	-0.28410113
41	0x3e94a563	0.2903243
42	0x3ded4f1e	0.11587356
43	0x3ec12206	0.3772127
44	0x3f044449	0.51666695
45	0xbec89341	-0.39174846
46	0x3e44e406	0.19227609
47	0x3c8616d9	0.016368316
48	0xbe1f6c83	-0.15568738
49	0x3ecc7271	0.39931062
50	0x3effc595	0.4995543
51	0x3edbd1bf	0.4293346
52	0x3ea97049	0.3309348
53	0x3e4fded8	0.20299852
54	0x3e2318a6	0.15927371
55	0xbf11b4c1	-0.56916434
56	0xbe8a29b5	-0.26984945
57	0x3e481389	0.19538702
58	0x3ee324f0	0.4436412
59	0x3e7217c6	0.23641881
60	0x3e3af0db	0.18255942
61	0xbe469ae9	-0.19395031
62	0x3ed47b1a	0.4150017
63	0xbea2bf13	-0.31786403

fc2.weight f4 [64, 64]
0	0xbc890658	-0.016726658
1	0x3d94925e	0.0725448
2	0x3be270c0	0.0069104135
3	0x3d3a0288	0.04541257
4	0xbd716ed8	-0.0589436
5	0xbcb76976	-0.022389155
6	0x3ce43700	0.027858257
7	0x3d16dee8	0.036833674
8	0x3c429109	0.011875399
9	0xbdb9ab98	-0.09065932
10	0x3dcc9d7c	0.09990975
11	0x3de6b028	0.11264068
12	0x3da7e417	0.081978016
13	0xbdacb779	-0.08433432
14	0x3dcca12c	0.099916786
15	0x3d843d6c	0.06457028
16	0xbdad4a18	-0.08461398
17	0x3cfe3e60	0.031035602
18	0xbdf27ed4	-0.11840597
19	0xbdac3243	-0.08408024
20	0xbb95e240	-0.0045740902
21	0x39d86400	0.00041273236
22	0xbd397ad6	-0.04528316
23	0xbbc4a2a3	-0.006000833
24	0x3da6170c	0.081098646
25	0x3ca8bf30	0.020598978
26	0xbd1550f0	-0.03645414
27	0xbdc78fde	-0.09744237
28	0x3dec4190	0.115359426
29	0xbd520d9e	-0.051282518
30	0xbdac801f	-0.08422875
31	0xbd03e431	-0.032200042
32	0xbdd6a7fc	-0.10481259
33	0x3d948d9d	0.07253573
34	0xbd8f0276	-0.06982891
35	0x3d0911c9	0.033464227
36	0x395b5800	0.0002091825
37	0xbc16a00d	-0.0091934325
38	0xbd9a1ba8	-0.07524806
39	0x3daec62c	0.08533892
40	0xbdd3b7a8	-0.10337764
41	0xbc5cb969	-0.01347194
42	0xbdf8de8e	-0.12151824
43	0x3c9c7e17	0.019103093
44	0xbd217d84	-0.03942634
45	0xbde3e0e6	-0.1112688
46	0xbcbe0920	-0.02319771
47	0xbd863652	-0.065533295
48	0xbd8face9	-0.07015402
49	0x3c5c08dd	0.013429848
50	0xbdaa1272	-0.083042994
51	0xbcf0a800	-0.029376984
52	0xbcc881d0	-0.024475962
53	0xbcf8fc02	-0.030393604
54	0xbdd549ba	-0.10414453
55	0x3d98dbea	0.0746382
56	0x3d037534	0.032094195
57	0x3c8c385e	0.017116722
58	0x3c557611	0.0130286375
59	0x3d118c4c	0.03553419
60	0xbd973d60	-0.07384753
61	0xbc863600	-0.016383171
62	0xbe00f9a7	-0.12595235
63	0xbddafc68	-0.10692674
64	0x3bac671f	0.0052613164
65	0x3ce047fc	0.027378075
66	0x3de0b1fe	0.10971449
67	0xbf1d58b6	-0.6146349
68	0x3d3fafa4	0.046798363
69	0x3d278d76	0.040906392
70	0x3e271e22	0.16320089
71	0xbd7d4722	-0.061835416
72	0x3e22be35	0.1589287
73	0x3c8f659e	0.01750451
74	0xbf84cb31	-1.0374509
75	0x3d9fa992	0.07796015
76	0xbc3fd3ae	-0.011708183
77	0xbd0f9ae3	-0.03505982
78	0x3e2f7c1d	0.17137189
79	0xbc0071f0	-0.007839665
80	0x3de6c0be	0.112672314
81	0x3c72790e	0.0147993695
82	0x3df36c50	0.11885893
83	0x3d9664f4	0.07343474
84	0x3c5db628	0.013532199
85	0xbda28785	-0.079360045
86	0xbe9bbe18	-0.30418468
87	0xbdaf4caf	-0.08559548
88	0x3c171ce0	0.009223193
89	0xbe6cfba9	-0.23142876
90	0x3d945aac	0.07243857
91	0xbf84915e	-1.0356863
92	0xbd1abaf6	-0.037775956
93	0x3e4339b4	0.19064981
94	0x3e2a7b26	0.1664854
95	0xbd9f9db0	-0.077937484
96	0xbe97386b	-0.2953523
97	0x3db1c4f0	0.08680141
98	0x3d7747dc	0.060371265
99	0x3ba309e2	0.0049755434
100	0xbd6c391f	-0.057671662
101	0xbd9f557a	-0.07779975
102	0x3d1289f2	0.035776086
103	0xbe3a8d5e	-0.1821799
104	0x3c3523e0	0.011055917
105	0x3d68a794	0.05680044
106	0x3d929a63	0.07158353
107	0x3e408163	0.18799357
108	0xbd1fa597	-0.03897628
109	0x3d83c66c	0.0643433
110	0x3d84d30c	0.064855665
111	0x3cd307a3	0.025760477
112	0xbdb52d8c	-0.08846578
113	0x3deb456d	0.11487851
114	0x3e0d5cb5	0.13804896
115	0x3da0d1ba	0.07852502
116	0x3e2012fc	0.15632242
117	0x3c577755	0.01315101
118	0xbc1a259a	-0.009408379
119	0xbed394bc	-0.41324413
120	0xbf89fe17	-1.0780667
121	0xbc5323f6	-0.012886992
122	0x3b4b96d6	0.0031065247
123	0x3e145c27	0.14488278
124	0xbc3205cb	-0.010865639
125	0xbf91b92c	-1.1384635
126	0x3e3340ec	0.17505234
127	0xbd0218c3	-0.031761896
128	0xbdd6cdff	-0.104885094
129	0xbdabd05b	-0.0838935
130	0x3d173d6c	0.03692381
131	0x3d87f9fe	0.06639479
132	0x3dc6f18e	0.09714042
133	0xbc4baf84	-0.012431983
134	0xbda6388c	-0.08116254
135	0x3d257209	0.040391956
136	0xbc7d3707	-0.015455014
137	0xbb2d2a0b	-0.0026422765
138	0xbc4c6079	-0.012474173
139	0x3d8fc283	0.07019522
140	0x3da9239b	0.08258744
141	0x3c1421e7	0.009041286
142	0xbdc0739d	-0.093970515
143	0xbbc88ee0	-0.0061205477
144	0xbdad0fd7	-0.08450287
145	0x3d8c8f3e	0.06863259
146	0xbcb6562f	-0.022257892
147	0xbd93a8a1	-0.07209898
148	0xbe1ca24d	-0.15296288
149	0x3d337d7c	0.043820843
150	0xbda35298	-0.07974738
151	0xbe181154	-0.1485036
152	0x3b95a473	0.004566723
153	0xbe1ee737	-0.15517889
154	0x3d83c94a	0.06434877
155	0x3d41edbc	0.04734586
156	0xbdde75f8	-0.108623445
157	0x3d65a2f2	0.0560636
158	0x3c811e82	0.015761618
159	0x3dbe73aa	0.09299405
160	0xbddff235	-0.10934869
161	0x3c3f1e16	0.011664888
162	0xbd1c178e	-0.0381084
163	0xbd2b1cad	-0.041775394
164	0x3d882c09	0.06649024
165	0xbdaaf878	-0.08348173
166	0x3c174a9f	0.0092341
167	0x3d894dc0	0.06704283
168	0x3d305154	0.04304631
169	0xbc08b8be	-0.008344827
170	0xbc460970	-0.012087211
171	0xbdc2836a	-0.094977215
172	0x3cf0b96b	0.02938529
173	0xbe162d15	-0.14665635
174	0xbcc238e5	-0.02370877
175	0x3d8037a7	0.06260615
176	0xbda8fc4e	-0.08251248
177	0x3d86516b	0.06558498
178	0xbddc4dcf	-0.10757028
179	0xbce7c09e	-0.02829009
180	0x3bf61d4b	0.007510816
181	0x3cffe583	0.03123737
182	0xbe032033	-0.12805252
183	0xbb7935a0	-0.0038026348
184	0xbc230f5c	-0.009952392
185	0xbd92ca31	-0.07167471
186	0xbd1fc598	-0.0390068
187	0x39ed93cf	0.0004531429
188	0x3d274a2b	0.040842216
189	0xbe0b7ea6	-0.13622531
190	0xbd54e78b	-0.05197863
191	0xbdd5a4ff	-0.10431861
192	0xbdec8b51	-0.1155001
193	0xbcbaf576	-0.022822123
194	0x3d5ccec4	0.053908125
195	0xbe1e454d	-0.15456124
196	0xbd2c68e4	-0.04209222
197	0xbd63906b	-0.05555765
198	0x3dc64da4	0.096827775
199	0xbd62e15a	-0.055390693
200	0xbd599371	-0.053119127
201	0xbd6287b8	-0.055305213
202	0x3cc38b40	0.02387011
203	0xbdcadf78	-0.099059045
204	0x3c676495	0.014123102
205	0xbcb2c151	-0.021820696
206	0x3d77223d	0.060335387
207	0x3d6eaaa4	0.058268204
208	0xbdfeb3fe	-0.124366745
209	0xbd4c7232	-0.049913593
210	0x3ce9685c	0.028492145
211	0xbd910978	-0.07081884
212	0xbd481b8a	-0.04885439
213	0x3da43a43	0.08018925
214	0xbcbb6fba	-0.022880424
215	0x3d74094f	0.05957919
216	0x3c2a7819	0.01040461
217	0x3c1b90b6	0.009494951
218	0x3d6eb1ec	0.05827515
219	0xbd93be25	-0.072140016
220	0xbe011e93	-0.1260932
221	0xbe0624b6	-0.13099942
222	0x3d8a592c	0.067552894
223	0xbcf6c531	-0.030123325
224	0xbd252a76	-0.040323697
225	0xbda54826	-0.08070402
226	0xbde39583	-0.111125015
227	0xbdc4858e	-0.09595786
228	0x3cc3ca39	0.023900138
229	0x3d9df008	0.07711798
230	0x3c9705dc	0.018435411
231	0x3b919101	0.0044423346
232	0x3dcf242e	0.101143226
233	0x3d50154a	0.050801553
234	0x3d8b16ae	0.06791435
235	0x3d9c17b0	0.076217055
236	0xbd9dc3fe	-0.07703398
237	0x3daa6e9a	0.08321877
238	0xbd9c4bee	-0.0763167
239	0xbe0d6f88	-0.13812077
240	0xbe17f31b	-0.14838831
241	0xbc7db784	-0.015485648
242	0x3946769e	0.0001892694
243	0x3da4a3bf	0.080390446
244	0xbd75ae84	-0.059980884
245	0x3d297f9d	0.041381467
246	0xbd965cd1	-0.07341922
247	0x3d0e5af3	0.034754705
248	0xbdde86fa	-0.108655885
249	0xbe15d088	-0.1463033
250	0xbdf9b5b2	-0.12192859
251	0xbd76c57f	-0.06024694
252	0x3d01c36e	0.031680517
253	0xbdabf172	-0.083956614
254	0xbd6f4698	-0.058416933
255	0xbdb2256f	-0.08698546

fc2.bias f4 [64]
0	0xbdb50f3f	-0.088407986
1	0x3d883850	0.06651366
2	0x3d59dd95	0.053189833
3	0x3d402de8	0.04691878
4	0x3e0a4e8d	0.13506527
5	0xbe29b45f	-0.16572712
6	0x3cede0cb	0.029037854
7	0xbdd5fe86	-0.10448937
8	0x3c601687	0.013677246
9	0xbcc6d238	-0.024270162
10	0x3e263b7f	0.16233633
11	0xbc3ecc3d	-0.011645374
12	0xbbefa935	-0.007313872
13	0x3e32e304	0.17469412
14	0x3dbd5e76	0.092465326
15	0x3df7c1dd	0.12097523
16	0xbe0ea140	-0.139287
17	0xbdb03fdf	-0.086059324
18	0x3e2dfe15	0.16991456
19	0x3e2c4ddc	0.16826576
20	0x3d63f100	0.055649757
21	0xbdfd681c	-0.12373373
22	0x3d2907e0	0.041267276
23	0xbb8456d5	-0.0040386715
24	0x3e4131df	0.1886668
25	0x3d58e806	0.05295565
26	0x3db6de63	0.08929136
27	0xbda69b57	-0.081350975
28	0x3d02475a	0.031806327
29	0xbdcc817e	-0.09985636
30	0xbd6a4d18	-0.05720243
31	0xbe016e2a	-0.1263968
32	0x3dec1114	0.11526695
33	0x3e163c63	0.14671473
34	0x3e471904	0.19443136
35	0xbd9017ff	-0.07035827
36	0x3d4fde6b	0.050749224
37	0x3d0871a5	0.033311505
38	0x3e17192f	0.147557
39	0xbe0732f7	-0.13203035
40	0x3d83b882	0.064316764
41	0x3d85d3cb	0.06534537
42	0x3d801f5f	0.062559836
43	0x3c692630	0.014230296
44	0xbd277f28	-0.04089275
45	0x3e02ce2f	0.12773965
46	0xbe123999	-0.14279784
47	0xbd496b0b	-0.04917435
48	0xbd8f9499	-0.07010765
49	0xbdd9f1e4	-0.1064184
50	0x3dfd3856	0.12364261
51	0xbd4e9655	-0.050436337
52	0xbe2cad12	-0.16862896
53	0x3dd94b62	0.10610081
54	0xbdfc3059	-0.12313909
55	0x3db324f8	0.087472856
56	0xbdde6d23	-0.1086066
57	0xbd3f843a	-0.04675696
58	0x3cad665f	0.021166978
59	0xbdb9c754	-0.09071222
60	0xbe2146a5	-0.15749605
61	0x3ba41918	0.005007874
62	0x3c3e7b9a	0.011626149
63	0x3e4108f2	0.18851069

fc3.weight f4 [2, 64]
0	0x3dc99732	0.09843291
1	0x3e3ed7a9	0.18636955
2	0xbcaaa0ea	-0.020828683
3	0x3d2cdf02	0.042204864
4	0x3e621524	0.22078377
5	0xbd7e4610	-0.062078536
6	0x3dc27f24	0.094969064
7	0xbd998f2b	-0.0749801
8	0x3e680e99	0.22661819
9	0x3d88a6a8	0.06672412
10	0x3e048dac	0.12944669
11	0x3d9b8299	0.07593269
12	0xbd85fe40	-0.06542635
13	0x3e3a9d12	0.1822398
14	0x3e2617bb	0.1621999
15	0x3e0d0a32	0.1377342
16	0x3c38dd02	0.011283161
17	0xbbabe4c3	-0.0052457764
18	0x3d9c72ce	0.07639085
19	0x3e5e893a	0.21732035
20	0x3e081439	0.13288964
21	0xbd445f00	-0.04794216
22	0xbd4d5e74	-0.050138906
23	0x3787714b	1.614601e-05
24	0x3e3df166	0.18549117
25	0xbbf8eb4d	-0.0075964094
26	0x3da30c9e	0.07961391
27	0xbdbc674c	-0.0919939
28	0xbb1d43e3	-0.0023996762
29	0xbd5d58bc	-0.0540397
30	0x3da56e6e	0.080777034
31	0xbcbfd86e	-0.023418631
32	0x3e36b4d5	0.1784242
33	0x3e223199	0.15839233
34	0x3e360015	0.17773469
35	0x3c4da4d2	0.012551503
36	0xbd748254	-0.059694603
37	0xbda90772	-0.08253373
38	0x3e788f10	0.24273324
39	0xbd2c99fd	-0.042139042
40	0x3d2815df	0.041036483
41	0x3e1fdf8b	0.15612619
42	0x3dffedbf	0.12496518
43	0x3df4bccf	0.11950075
44	0x3d8966a4	0.0670903
45	0x3d729763	0.059226405
46	0xbc800e7a	-0.015631903
47	0xbcbcd8c0	-0.023052573
48	0x3bcf3a30	0.006324075
49	0x3bb1f8c0	0.0054312646
50	0x3e5429d6	0.20719084
51	0xbd32a4a2	-0.043614037
52	0x3b546db9	0.0032414033
53	0x3e571c13	0.21006803
54	0xbd6104c6	-0.054936193
55	0xbda10e05	-0.07864002
56	0xbd794e4a	-0.060865678
57	0x3d9f9016	0.07791154
58	0x3e9d9914	0.30780852
59	0xbdc261d2	-0.09491314
60	0x3db0291e	0.086015925
61	0x3e64b25f	0.22333668
62	0x3e2fdc8c	0.17173976
63	0x3e398332	0.18116453
64	0xbdac7a91	-0.08421815
65	0x3c09fbce	0.008421851
66	0x3d1fd4e2	0.03902138
67	0xbda325b5	-0.079661764
68	0x3c1cc84f	0.009569242
69	0xbd901394	-0.07034984
70	0x3e3ffc00	0.18748474
71	0xbd9545c2	-0.07288696
72	0x3d8379cb	0.064197145
73	0x3c50dfa0	0.012748629
74	0x3e00b31b	0.12568323
75	0x3e2c440e	0.16822836
76	0x3da01bdd	0.078178145
77	0x3e00220a	0.12512985
78	0x3e3fbf65	0.18725355
79	0x3e3664ff	0.17811964
80	0xbd787502	-0.060658462
81	0xbd0174bb	-0.031605463
82	0x3e521200	0.20514679
83	0x3e3c8810	0.18411279
84	0x3e61288e	0.21988127
85	0xbdd95de8	-0.10613614
86	0xbcc103b8	-0.023561344
87	0x3ce2e897	0.027698798
88	0xbca38587	-0.019961132
89	0x3c3c7892	0.011503356
90	0xbdc8d80d	-0.098068334
91	0xbda30a74	-0.07960978
92	0xbdbb8e7f	-0.09158038
93	0xbbd6413b	-0.006538538
94	0xbdd64f88	-0.10464388
95	0xbdae42a0	-0.085088015
96	0x3e9895a9	0.29801682
97	0x3d8d9a4a	0.06914194
98	0x3e27c2be	0.16382882
99	0xbc269cf7	-0.010169259
100	0xbd0b2255	-0.03396829
101	0x3d3c7924	0.046013966
102	0x3ed0dc44	0.4079305
103	0xbdc02bb5	-0.093833365
104	0xbd96b7d7	-0.073592834
105	0x3e4c388d	0.19943447
106	0xbd888d0c	-0.066675276
107	0x3e13292e	0.14371178
108	0xbd92f02a	-0.07174714
109	0x3dd113af	0.102088325
110	0xbd937651	-0.072003014
111	0xbd593af9	-0.053034756
112	0xbd42a9a4	-0.047525063
113	0x3ddfabe2	0.10921456
114	0x3e0fc14c	0.1403858
115	0x3c4ea18b	0.012611757
116	0xbcd0753a	-0.025446523
117	0x3e26db47	0.16294585
118	0xbdac81ce	-0.08423196
119	0x3b064054	0.002048512
120	0xbd93eed2	-0.07223286
121	0xbdcb5b53	-0.09929528
122	0x3e9cf0df	0.3065252
123	0x3cc6c090	0.024261743
124	0xbd79a7c8	-0.060951024
125	0x3e729f0d	0.23693486
126	0x3e264ed6	0.16241011
127	0x3e7ea5e1	0.24867965

fc3.bias f4 [2]
0	0xbd4b07e5	-0.049568076
1	0x3de406f3	0.11134138

fc1.weight f4 [64, 4]
0	0xbedcdffa	-0.4313963
1	0xbec56542	-0.38553816
2	0x3eaa92d3	0.33315143
3	0x3e90d035	0.2828385
4	0xbed5ae8c	-0.4173473
5	0xbe3e6086	-0.18591508
6	0xbd81e967	-0.06343346
7	0xbe998a3f	-0.29988286
8	0xbecfaeb4	-0.40562975
9	0x3eafe3a4	0.34353364
10	0x3ef4cebc	0.47813976
11	0x3e7d90f2	0.24762323
12	0x3f2258f0	0.6341696
13	0xbeec5776	-0.46160477
14	0xbf887de6	-1.0663421
15	0xbede7de0	-0.4345541
16	0x3ed6f22e	0.41981643
17	0x3e783874	0.24240285
18	0x3b64cc00	0.0034911633
19	0x3e76bbe4	0.24095112
20	0xbebfc3bb	-0.37454018
21	0x3e6b6d6f	0.22990964
22	0xbeaf3b58	-0.34224963
23	0xbcccf7c0	-0.02502048
24	0xbe77c803	-0.24197392
25	0x3e467f5e	0.19384524
26	0xbf04279b	-0.51622933
27	0x3e8fbf75	0.28075758
28	0xbe1debf9	-0.15422048
29	0xbeff56ed	-0.49871007
30	0xbc885bbf	-0.01664531
31	0xbdb4842a	-0.08814271
32	0xbe7bb379	-0.24580182
33	0x3e89a05f	0.26880166
34	0x3ee8bc3d	0.45456114
35	0xbe2bea02	-0.16788486
36	0x3e8a8864	0.27057183
37	0xbe51144d	-0.204179
38	0xbecede07	-0.40403768
39	0x3ed57f7b	0.41698822
40	0xbf0504f8	-0.51960707
41	0x3e38fb76	0.18064675
42	0x3f980315	1.187594
43	0x3e2ad74a	0.16683689
44	0xbe852445	-0.26004234
45	0xbebccf4b	-0.36876902
46	0xbf1c6ae5	-0.6110061
47	0x3e5e7920	0.21725893
48	0x3e570952	0.20999649
49	0xbdba9351	-0.091101296
50	0x3f2b0d86	0.6681751
51	0xbe8ee1fd	-0.2790679
52	0xbec2b84d	-0.38031235
53	0x3d12f83a	0.03588126
54	0x3e580736	0.21096501
55	0xbed0e7d3	-0.40801868
56	0x3e6c5bda	0.23081914
57	0x3e11395f	0.14182042
58	0x3f113480	0.56720734
59	0xbdc75f94	-0.09735027
60	0xbed0e7ac	-0.40801752
61	0xbefa1e20	-0.4885111
62	0xbe8660fc	-0.26245868
63	0xbe82d8c8	-0.25556016
64	0x3e18c123	0.14917426
65	0x3d30abfe	0.043132775
66	0x3e6e5951	0.23276259
67	0xbe8e6306	-0.27809924
68	0xbe322f05	-0.17400749
69	0xbcf11ae3	-0.029431766
70	0xbf04a49e	-0.51813686
71	0x3ebfa127	0.37427637
72	0x3ee44ab5	0.44588247
73	0xbebd7101	-0.37000278
74	0xbea5788a	-0.32318527
75	0x3eb079f5	0.34468046
76	0x3e96cf4c	0.2945503
77	0xbe56ef01	-0.2098961
78	0xbe902167	-0.28150484
79	0xbeb8b06e	-0.36072105
80	0xbe9c6a5f	-0.30549905
81	0xbee4d904	-0.4469682
82	0xbea8dc43	-0.32980546
83	0xbe41bfbc	-0.18920797
84	0xbe9f1038	-0.3106706
85	0xbe8363e0	-0.25662136
86	0xbe256de8	-0.16155207
87	0x3ee61ad1	0.44942334
88	0xbef775e1	-0.48332122
89	0x3c9a760a	0.018855114
90	0x3f1a0d8c	0.6017692
91	0xbde14f1e	-0.110014185
92	0x3dd146e5	0.102186
93	0x3ee54acc	0.44783628
94	0x3eedf899	0.46478727
95	0xbe0154c2	-0.12629989
96	0xbf13a29b	-0.5766999
97	0x3e1f43d2	0.15553215
98	0x3e20adcc	0.15691298
99	0xbe8b029e	-0.27150434
100	0xbe859008	-0.2608645
101	0x3df883fc	0.12134549
102	0x3f6f6c54	0.9352467
103	0x3ec80233	0.39064178
104	0xbe65344c	-0.22383231
105	0x3ddd0cb8	0.107934415
106	0xbe1312f8	-0.14362705
107	0xbae8e200	-0.0017767549
108	0x3f48eede	0.7848948
109	0xbe352233	-0.17688827
110	0xbf8c78de	-1.0974386
111	0xbe157249	-0.14594378
112	0xbeb02838	-0.34405684
113	0xbe7fe2a0	-0.24988794
114	0x3e3986c3	0.18117814
115	0x3e5e068a	0.21682182
116	0x3f07d10d	0.5305336
117	0x3eb4a984	0.3528558
118	0x3eed9ae7	0.46407244
119	0x3d903314	0.070409924
120	0x3d30c4eb	0.043156546
121	0x3e54ee0e	0.20793936
122	0x3eaf99f5	0.34297147
123	0xbe13ae63	-0.14421992
124	0x3e19ca2d	0.1501853
125	0x3e55c183	0.208746
126	0xbd12d0e0	-0.03584373
127	0xbe5b6d01	-0.214283
128	0xbc0a4509	-0.008439311
129	0x3ea0c1d7	0.31397888
130	0x3f12440c	0.5713508
131	0x3ed64fcf	0.41857764
132	0xbc6bf3f3	-0.014401424
133	0x3e00f011	0.12591578
134	0xbec37a9c	-0.3817948
135	0xbe2b39c0	-0.16721249
136	0x3ef23aa1	0.47310355
137	0xbdeab523	-0.1146033
138	0x3e6ef04f	0.23333858
139	0x3df4a4aa	0.1194547
140	0x3cfecc44	0.03110326
141	0xbcaa7266	-0.020806503
142	0xbe61406b	-0.2199723
143	0xbe31a4c9	-0.17348017
144	0x3ef1b43e	0.47207826
145	0xbd82b8d4	-0.063829094
146	0xbe5b7aba	-0.21433535
147	0x3e8675f3	0.26261863
148	0x3de5edd4	0.11227003
149	0x3e8590fd	0.2608718
150	0xbf154670	-0.58310604
151	0xbed9b9b3	-0.4252449
152	0xbf122f81	-0.57103735
153	0x3ed6ccc2	0.41953093
154	0x3f2e7868	0.68152475
155	0x3ed60191	0.4179807
156	0x3f0d6ad9	0.5524116
157	0xbe01ccb4	-0.12675744
158	0xbf125aaf	-0.5716962
159	0xbe92c441	-0.28665355
160	0x3efd8d28	0.49521756
161	0xbeee535a	-0.46547967
162	0x3d6fe0ff	0.058564182
163	0xbe7a6b0c	-0.24454898
164	0x3e5e5b7b	0.21714585
165	0x3e2437e1	0.16036941
166	0x3cf41360	0.029794395
167	0xbe46d495	-0.19417031
168	0x3d25c1a1	0.040467862
169	0xbdfdabb1	-0.12386263
170	0xbde1e451	-0.11029876
171	0xbda91616	-0.08256166
172	0xbdde8889	-0.10865886
173	0xbec36d78	-0.38169456
174	0xbf134d9f	-0.57540315
175	0xbdcdfbef	-0.10057818
176	0x3e371e47	0.17882644
177	0xbcafa0cd	-0.02143898
178	0x3d8b0f3d	0.06790016
179	0x3ea10277	0.31447193
180	0x3e8e8035	0.2783219
181	0xbe7c648d	-0.24647732
182	0x3ed0d54f	0.40787742
183	0x3edffb9a	0.43746644
184	0x3efbc2ac	0.4917196
185	0x3e4175c9	0.18892588
186	0xbe9c8ba9	-0.30575302
187	0x3ee60bd1	0.4493089
188	0x3e8a6e10	0.27037096
189	0x3e5c91cb	0.2153999
190	0x3e865b8e	0.26241726
191	0x3da07e9f	0.07836651
192	0xbeeb4750	-0.45952845
193	0x3eb12b7c	0.34603488
194	0x3f15d95a	0.5853478
195	0xbe49f72f	-0.197232
196	0x3dd2f73a	0.10301061
197	0x3ea3d78d	0.3200039
198	0x3f04d3d3	0.5188572
199	0xbe872bcf	-0.2640061
200	0x3e474639	0.19460382
201	0x3d6f3f51	0.058409993
202	0x3ee2adab	0.44273123
203	0x3e0c39be	0.13693902
204	0xbeacf93a	-0.33783895
205	0xbdf6a1e2	-0.120425954
206	0xbe07daac	-0.1326701
207	0x3e4069b3	0.18790321
208	0x3b4fe7ce	0.003172386
209	0xbe17a036	-0.1480721
210	0xbee448d2	-0.44586807
211	0x3e996fc9	0.29968098
212	0x3ebcd327	0.36879846
213	0x3e171617	0.1475452
214	0xbf18dd63	-0.5971281
215	0x3e0b1da9	0.13585533
216	0xbe38d418	-0.18049657
217	0x3e3c285c	0.18374771
218	0x3c4e295f	0.012583106
219	0x3ebe6e61	0.37193587
220	0xbe19422b	-0.14966647
221	0x3eb23ed9	0.34813574
222	0x3eea92d9	0.4581516
223	0x3f029b17	0.510179
224	0xbdb208db	-0.08693095
225	0xbd48a302	-0.04898358
226	0x3f9c18c0	1.2195053
227	0xbcd80a13	-0.026371991
228	0x3ec35731	0.3815246
229	0xbe78b59b	-0.24288027
230	0xbd3fe01e	-0.046844594
231	0xbe40141a	-0.18757668
232	0xbe358d6a	-0.17729726
233	0xbe2ed945	-0.17075069
234	0xbd9049f2	-0.07045354
235	0xbcbc7cf2	-0.023008797
236	0xbe7a6534	-0.24452668
237	0x3f0b8408	0.5449834
238	0xbea400df	-0.32031915
239	0x3eafbc12	0.34323174
240	0x3e1baf74	0.15203649
241	0x3ed46a31	0.41487268
242	0x3dd675fc	0.104717225
243	0x3eaae86d	0.33380452
244	0x3e5e1cc5	0.21690662
245	0xbdb76a60	-0.08955836
246	0x3f82cfaf	1.021963
247	0xbd4023b4	-0.04690905
248	0xbec31ca7	-0.38107798
249	0xbed87a82	-0.42280966
250	0xbdc7f2ec	-0.097631305
251	0xbef404cc	-0.4765991
252	0x3eafe87f	0.34357068
253	0x3ef23dd4	0.47312796
254	0xbf081137	-0.5315127
255	0x3dca465a	0.098767

fc1.bias f4 [64]
0	0xbe44afff	-0.19207762
1	0x3e6c8511	0.23097636
2	0xbeeeb04e	-0.46618885
3	0xbed13cc7	-0.40866682
4	0xbef3a0c0	-0.4758358
5	0xbcd39f4e	-0.025832798
6	0x3eb4ec30	0.35336447
7	0xbe91f013	-0.28503475
8	0x3ed74677	0.42045948
9	0x3ee70615	0.45121828
10	0xbe9a0b25	-0.30086628
11	0x3ec9f1b8	0.3944223
12	0x3dd50e74	0.10403147
13	0x3e215a43	0.15757088
14	0x3b966209	0.0045893234
15	0xbef4bc84	-0.47800076
16	0x3eed6a10	0.46369982
17	0x3dd618d1	0.10453952
18	0xbb83ab18	-0.0040181987
19	0xbe5c3ac9	-0.215068
20	0xbce0d2e0	-0.027444303
21	0x3ea0debb	0.3141993
22	0xbba8c4e2	-0.0051504234
23	0xbde171b7	-0.110080175
24	0x3ef34355	0.47512308
25	0xbeb2f637	-0.34953472
26	0xbec8d0de	-0.39221853
27	0xbe89113f	-0.2677097
28	0xbd077a83	-0.03307582
29	0xbea0dd42	-0.31418806
30	0x3e15bdc5	0.14623173
31	0xbf36323e	-0.71170413
32	0xbeab6b1b	-0.33480152
33	0xbd3c3220	-0.04594624
34	0x3edd6744	0.43242848
35	0xbde9433d	-0.11389778
36	0x3ecb73cb	0.3973678
37	0xbea6ae9d	-0.32555094
38	0xbebfe924	-0.3748256
39	0xbe9a325c	-0.30116546
40	0xbe9175b4	-0.28410113
41	0x3e962d20	0.29331303
42	0x3e0ab940	0.1354723
43	0x3ebde524	0.37088883
44	0x3f028a07	0.50991863
45	0xbeb53354	-0.35390723
46	0x3e528891	0.20559908
47	0x3d0e597d	0.03475331
48	0xbdf04ba6	-0.11733179
49	0x3ecf8c05	0.40536514
50	0x3efd7fcc	0.49511564
51	0x3edcac69	0.4310029
52	0x3eb472ed	0.3524393
53	0x3e4effdc	0.2021479
54	0x3e42d09e	0.19024894
55	0xbf08580a	-0.53259337
56	0xbe510acd	-0.20414276
57	0x3e48b523	0.19600348
58	0x3ee30a30	0.4434371
59	0x3e75e5dd	0.24013467
60	0x3e3c780b	0.18405168
61	0xbe18a709	-0.14907469
62	0x3eda9ad8	0.4269626
63	0xbe9162b3	-0.28395614

fc2.weight f4 [64, 64]
0	0xbc890658	-0.016726658
1	0x3d977712	0.07395758
2	0x3be270c0	0.0069104135
3	0x3d3fc8f6	0.04682251
4	0xbd716f70	-0.058944166
5	0xbcabdb75	-0.020978669
6	0x3ce43700	0.027858257
7	0x3d16dee8	0.036833674
8	0x3c59aecc	0.013286304
9	0xbdb9ab98	-0.09065932
10	0x3dcc9d89	0.09990985
11	0x3de6b028	0.11264068
12	0x3daac87b	0.0833902
13	0xbda9d3e5	-0.08292369
14	0x3dcf86bc	0.101331204
15	0x3d843d6c	0.06457028
16	0xbdaa681b	-0.08320638
17	0x3cfe3e60	0.031035602
18	0xbdf27ed4	-0.11840597
19	0xbda94f0d	-0.08267031
20	0xbb95e240	-0.0045740902
21	0x39d86400	0.00041273236
22	0xbd33b5ae	-0.043874435
23	0xbb966a7a	-0.0045903297
24	0x3da8fb89	0.082511015
25	0x3ca8bf30	0.020598978
26	0xbd15511a	-0.036454298
27	0xbdc4ab2f	-0.09602963
28	0x3dec4190	0.115359426
29	0xbd4c4701	-0.049872402
30	0xbda99d22	-0.08281924
31	0xbcfc3a24	-0.030789442
32	0xbdd6a7fc	-0.10481259
33	0x3d97731c	0.07395002
34	0xbd8f0276	-0.06982891
35	0x3d0ed958	0.034875244
36	0x395b5800	0.0002091825
37	0xbbff08a8	-0.0077830143
38	0xbd9a1baf	-0.075248115
39	0x3db1aa3e	0.08675049
40	0xbdd3b7a8	-0.10337764
41	0xbc459c74	-0.012061227
42	0xbdf5fd26	-0.12011175
43	0x3ca80c86	0.020513784
44	0xbd217d84	-0.03942634
45	0xbde3e0e6	-0.1112688
46	0xbcbe0920	-0.02319771
47	0xbd83536a	-0.06412394
48	0xbd8cca1c	-0.06874487
49	0x3c73256a	0.014840463
50	0xbda73015	-0.08163468
51	0xbcf0a838	-0.029377088
52	0xbcc881d0	-0.024475962
53	0xbced6cfb	-0.02898263
54	0xbdd549ba	-0.10414453
55	0x3d98dbea	0.0746382
56	0x3d037534	0.032094195
57	0x3c97c557	0.018526716
58	0x3c6c9336	0.014439395
59	0x3d175507	0.036946323
60	0xbd973d60	-0.07384753
61	0xbc863600	-0.016383171
62	0xbdff106a	-0.124543026
63	0xbdd817e5	-0.105514325
64	0x3d10ea0d	0.03537946
65	0x3c2f08ac	0.01068322
66	0x3de0b23a	0.10971494
67	0xbea74ab3	-0.32674178
68	0x3d3fafa4	0.046798363
69	0x3d3e5f75	0.046477754
70	0x3e1e7449	0.15474047
71	0xbd93ccc6	-0.07216792
72	0x3e196a11	0.14981867
73	0x3b0f6823	0.0021882139
74	0xbf6924a4	-0.91071534
75	0x3d82be52	0.06383957
76	0xbd48f6b4	-0.0490634
77	0xbd60ee90	-0.05491501
78	0x3e0e1e9e	0.13878867
79	0xbc0071f0	-0.007839665
80	0x3db5d14e	0.08877812
81	0x3c5881ae	0.013214512
82	0x3df03bfc	0.11730191
83	0x3cd11682	0.025523428
84	0xbd7d3839	-0.061821196
85	0xbdadb75d	-0.084822394
86	0xbe21bc22	-0.15794423
87	0xbdad2de8	-0.084560215
88	0xb99a846e	-0.00029471837
89	0xbdd4a33c	-0.10382697
90	0x3d945b02	0.07243921
91	0xbf0f339f	-0.5593814
92	0xbc54eab1	-0.012995408
93	0x3defc42c	0.11707339
94	0x3e0e8e81	0.13921548
95	0xbd4c3fdf	-0.0498656
96	0xbe5568e8	-0.208408
97	0x3dddc182	0.10827924
98	0x3d4bd68f	0.049765166
99	0xbd3226dd	-0.043494094
100	0xbd8e3f75	-0.06945697
101	0xbdc58eb8	-0.09646362
102	0xbc679fdf	-0.014137237
103	0xbdca11c8	-0.09866673
104	0x3c3523e0	0.011055917
105	0x3d359c7e	0.044338696
106	0x3d63ebdb	0.05564485
107	0x3e29c23b	0.16578
108	0xbd3d507b	-0.04621933
109	0x3da2f5fb	0.07957073
110	0x3d60cef4	0.054884866
111	0x3bce6878	0.0062990747
112	0xbdd824ae	-0.10553871
113	0x3dd34797	0.10316389
114	0x3e067ef5	0.13134368
115	0x3d947321	0.072485216
116	0x3e10e57b	0.1415004
117	0xbc116b5a	-0.008875692
118	0xbc45de4a	-0.012076924
119	0xbec4425e	-0.38331884
120	0xbf521e4e	-0.8207749
121	0xbd24d6e6	-0.040244006
122	0xbc19d861	-0.009389968
123	0x3e199a69	0.15000309
124	0x3aa8d12e	0.0012879723
125	0xbf44a18e	-0.7680901
126	0x3e12dee1	0.14342834
127	0xbd650eaa	-0.055922188
128	0xbdcff1a0	-0.10153508
129	0xbda39dfc	-0.079891175
130	0x3d173d6c	0.03692381
131	0x3d83675f	0.06416201
132	0x3dc6f18e	0.09714042
133	0xbc09d039	-0.008411461
134	0xbd9e7f48	-0.07739121
135	0x3d354fb1	0.044265453
136	0xbc3b5ec7	-0.011436171
137	0x3a82d360	0.0009981208
138	0xbc1d688e	-0.009607447
139	0x3d972d3f	0.07381677
140	0x3db14ea5	0.086575784
141	0x3c58f384	0.013241652
142	0xbdb7e073	-0.08978357
143	0xbbc88ee0	-0.0061205477
144	0xbda4e227	-0.08050948
145	0x3d93a57b	0.07209297
146	0xbc9a3eab	-0.01882871
147	0xbd8b9d61	-0.06817127
148	0xbe18c42b	-0.14918582
149	0x3d420d48	0.047375947
150	0xbd9b2a76	-0.07576458
151	0xbe13cb5c	-0.14433044
152	0x3c0cbbd1	0.008589701
153	0xbe1bad12	-0.1520274
154	0x3d83c94a	0.06434877
155	0x3d4c2bd7	0.049846496
156	0xbdd77187	-0.105197005
157	0x3d776972	0.060403295
158	0x3ca22bca	0.01979627
159	0x3db6df8d	0.08929358
160	0xbdd86010	-0.105651975
161	0x3c801065	0.015632818
162	0xbd0cdc69	-0.034389887
163	0xbd1b83fd	-0.03796767
164	0x3d8fb45a	0.07016821
165	0xbda2c33d	-0.07947395
166	0x3c523234	0.012829352
167	0x3d908447	0.0705648
168	0x3d305154	0.04304631
169	0xbb8ea025	-0.004352587
170	0xbc0965c3	-0.008386078
171	0xbdbac3ca	-0.09119375
172	0x3d078b6d	0.03309195
173	0xbe12e456	-0.14344916
174	0xbca4b265	-0.020104596
175	0x3d8810e5	0.066438474
176	0xbda03f7b	-0.07824608
177	0x3d8e9c63	0.06963422
178	0xbdd4828e	-0.10376464
179	0xbcc9c299	-0.024628924
180	0x3c368b39	0.011141592
181	0x3d1041e9	0.035219107
182	0xbdfeec30	-0.12447393
183	0x3925e616	0.0001582134
184	0xbbde5171	-0.006784611
185	0xbd8ad669	-0.06779177
186	0xbd102cd5	-0.035199005
187	0x3b8afdb6	0.0042416705
188	0x3d369948	0.044579774
189	0xbe08eb9b	-0.13371126
190	0xbd44d355	-0.048053104
191	0xbdccec5b	-0.10006019
192	0xbde8ba27	-0.11363631
193	0xbca2bc94	-0.019865312
194	0x3d5ccec4	0.053908125
195	0xbe1b51dc	-0.15167946
196	0xbd2c68e4	-0.04209222
197	0xbd56e1ec	-0.05246155
198	0x3dcba1f2	0.09942998
199	0xbd5d1bd1	-0.053981606
200	0xbd4d52d0	-0.050127804
201	0xbd589c65	-0.052883524
202	0x3cd262c4	0.02568186
203	0xbdc61671	-0.09672249
204	0x3c8cfc22	0.01721007
205	0xbc98d242	-0.018654946
206	0x3d81f899	0.06346244
207	0x3d6eaaa4	0.058268204
208	0xbdf8904a	-0.12136896
209	0xbd43ba42	-0.04778505
210	0x3cf9e2fe	0.030503746
211	0xbd8a8b82	-0.0676489
212	0xbd409688	-0.047018558
213	0x3da8ebf7	0.08248132
214	0xbca2a527	-0.019854141
215	0x3d80706b	0.06271442
216	0x3c5c247c	0.013436433
217	0x3c3b5e48	0.011436053
218	0x3d6eb1ec	0.05827515
219	0xbd8d41c3	-0.06897309
220	0xbdfe253a	-0.12409444
221	0xbe0327c7	-0.12808143
222	0x3d90ac9e	0.07064174
223	0xbcdfa776	-0.027301531
224	0xbd19f03d	-0.037582625
225	0xbd9edc5b	-0.07756873
226	0xbdde6a25	-0.10860089
227	0xbdbe27ce	-0.09284936
228	0x3cd815ec	0.02637764
229	0x3da471d0	0.080295205
230	0x3ca6d315	0.020364324
231	0x3bf9aa2c	0.007619163
232	0x3dcf242e	0.101143226
233	0x3d5c96ca	0.05385474
234	0x3d903a33	0.070423506
235	0x3da13d5b	0.07873031
236	0xbd989bca	-0.074515894
237	0x3dae48cd	0.085099794
238	0xbd97404e	-0.07385312
239	0xbe0a78d9	-0.13522662
240	0xbe14b93d	-0.14523788
241	0xbc4bf572	-0.012448655
242	0x3b3afe4a	0.0028532916
243	0x3da9a438	0.08283275
244	0xbd6bc0dc	-0.057556972
245	0x3d35c782	0.04437972
246	0xbd91639a	-0.070990756
247	0x3d15ebb8	0.036601752
248	0xbddb57a5	-0.10710076
249	0xbe12efab	-0.14349239
250	0xbdf4507c	-0.11929414
251	0xbd6b8ce9	-0.05750743
252	0x3d0c7b97	0.034297552
253	0xbda7030a	-0.081548765
254	0xbd63c325	-0.055606026
255	0xbdac016b	-0.08398708

fc2.bias f4 [64]
0	0xbdb22c8b	-0.08699902
1	0x3d47abe6	0.04874792
2	0x3d69a265	0.057039637
3	0x3d4b8070	0.049683034
4	0x3df81120	0.12112641
5	0xbe226400	-0.1585846
6	0x3cc5c5c1	0.024142148
7	0xbdd10ef7	-0.102079324
8	0xbb1de879	-0.0024094863
9	0xbcc6d238	-0.024270162
10	0x3e19f6a2	0.15035489
11	0xbcb8a783	-0.022540813
12	0xbb877c8b	-0.0041347197
13	0x3e2335fe	0.15938565
14	0x3da8b077	0.08236783
15	0x3de91826	0.11381559
16	0xbe0bd74f	-0.13656352
17	0xbdac471d	-0.08412001
18	0x3e22c403	0.15895085
19	0x3e22e030	0.15905833
20	0x3d2e35f2	0.042531915
21	0xbdfd681c	-0.12373373
22	0x3d29080b	0.041267436
23	0xba39ac89	-0.00070828997
24	0x3e2fa0d4	0.17151195
25	0x3d664e2a	0.056226887
26	0x3dbbb6be	0.09165715
27	0xbda18903	-0.07887461
28	0x3d0a7a32	0.03380794
29	0xbdc6460f	-0.09681331
30	0xbd6a4d18	-0.05720243
31	0xbdfdfe77	-0.12402051
32	0x3de19545	0.11014799
33	0x3e067f3c	0.13134474
34	0x3e38be93	0.18041448
35	0xbd8a0104	-0.06738475
36	0x3d5a2b31	0.053263847
37	0x3d193f90	0.037414134
38	0x3e065b02	0.13120654
39	0xbe0475d5	-0.12935574
40	0x3d869ae7	0.06572514
41	0x3d5a4bbd	0.053294886
42	0x3d873415	0.06601731
43	0x3a7b73fb	0.00095921726
44	0xbd1cceb2	-0.038283058
45	0x3deefa9c	0.11668894
46	0xbe101a2b	-0.14072482
47	0xbd44743e	-0.04796242
48	0xbc84069d	-0.016116435
49	0xbdd9f1e4	-0.1064184
50	0x3de21edb	0.110410415
51	0xbd426cd5	-0.04746707
52	0xbdd06428	-0.10175353
53	0x3db9dbac	0.09075102
54	0xbdf76de5	-0.120815076
55	0x3db94fa2	0.09048392
56	0xbdd99aa6	-0.106252
57	0xbd39bce0	-0.04534614
58	0x3aee73e9	0.0018192503
59	0xbdb9c754	-0.09071222
60	0xbe1e1e09	-0.15441145
61	0xbb50124d	-0.003174919
62	0xbb6dd2e7	-0.0036289038
63	0x3e2bec6d	0.16789408

fc3.weight f4 [2, 64]
0	0x3dc99732	0.09843291
1	0x3e28164f	0.1641476
2	0xbcc9ab64	-0.024617858
3	0x3d22cb81	0.039744858
4	0x3e2b3a91	0.1672156
5	0xbd7e4610	-0.062078536
6	0x3d5ae138	0.05343744
7	0xbd9dbaf9	-0.07701678
8	0x3e4756e4	0.1946674
9	0x3d88a6e0	0.06672454
10	0x3dd6db43	0.104910396
11	0x3d5f9be9	0.054592047
12	0xbd8ba023	-0.06817653
13	0x3e213c95	0.15745766
14	0x3ddfd90e	0.10930072
15	0x3dca5f01	0.09881402
16	0x3c0e76c8	0.008695312
17	0xbbe66817	-0.0070314514
18	0x3d594aa4	0.0530497
19	0x3e289f03	0.16466908
20	0x3dd6d7a4	0.10490349
21	0xbd445f00	-0.04794216
22	0xbd4d5e74	-0.050138906
23	0xbb58d809	-0.0033087751
24	0x3e2b2cca	0.16716304
25	0xbc2e17e0	-0.010625809
26	0x3d9eb739	0.07749791
27	0xbdc124e3	-0.09430864
28	0xbb882a0e	-0.004155404
29	0xbd683270	-0.056688726
30	0x3da56e6e	0.080777034
31	0xbcd02e28	-0.025412634
32	0x3dfb39ac	0.122668594
33	0x3e050ba5	0.12992723
34	0x3e19e425	0.15028436
35	0x3c22413d	0.009903249
36	0xbd7d5f37	-0.061858382
37	0xbdb04440	-0.08606768
38	0x3e172c68	0.14763033
39	0xbd386d16	-0.045025907
40	0x3d225075	0.03962751
41	0x3e042a0d	0.12906666
42	0x3dfa9b6a	0.12236674
43	0x3dc6ec8d	0.09713087
44	0x3d843460	0.06455302
45	0x3d259b72	0.040431447
46	0xbc8f332d	-0.017480457
47	0xbcbcd8c0	-0.023052573
48	0x3d748c0b	0.059703868
49	0x3bb1f923	0.0054313107
50	0x3e31508a	0.1731588
51	0xbd3d5c48	-0.046230584
52	0xbb899d03	-0.0041996255
53	0x3e3349ab	0.17508571
54	0xbd6a4cfd	-0.057202328
55	0xbda68222	-0.081302896
56	0xbd80d7b4	-0.06291142
57	0x3d9cacaa	0.076501206
58	0x3e67e260	0.22644949
59	0xbdc261d2	-0.09491314
60	0x3daac8d7	0.083390884
61	0x3e2871dc	0.16449684
62	0x3e100cfb	0.14067452
63	0x3dcd2e0d	0.10018549
64	0xbdaf6017	-0.085632496
65	0xbc0a0742	-0.008424582
66	0x3d0fdb55	0.03512128
67	0xbda81518	-0.08207148
68	0xbbb1e752	-0.005429187
69	0xbd9e3ab8	-0.077260435
70	0x3dfe5da5	0.12420205
71	0xbd99d569	-0.07511408
72	0x3d59e03f	0.053192373
73	0x3c50dfa0	0.012748629
74	0x3dd30d32	0.10305251
75	0x3e1d6393	0.15370016
76	0x3d9a8750	0.0754534
77	0x3daa9649	0.08329446
78	0x3df38797	0.11891096
79	0x3de32175	0.11090366
80	0xbd816b67	-0.063193135
81	0xbd084ce0	-0.03327644
82	0x3e394a07	0.18094645
83	0x3deec778	0.116591394
84	0x3e491730	0.19637752
85	0xbdd95de8	-0.10613614
86	0xbcc103b8	-0.023561344
87	0x3cc75692	0.024333272
88	0xbd076ce4	-0.03306283
89	0x3c0d7594	0.00863399
90	0xbdcd2474	-0.100167185
91	0xbda77bcf	-0.081779115
92	0xbdbf2025	-0.09332303
93	0xbc16768d	-0.009183538
94	0xbdd64f88	-0.10464388
95	0xbdb28a9f	-0.08717846
96	0x3e593fc9	0.21215738
97	0x3d44ca90	0.04804474
98	0x3e17b6bc	0.14815801
99	0xbc5301b3	-0.012878823
100	0xbd13cd78	-0.036084622
101	0x3d2d9552	0.04237873
102	0x3e760e92	0.24028996
103	0xbdc5fbbf	-0.096671574
104	0xbd999a2b	-0.07500108
105	0x3e300a86	0.17191514
106	0xbd92ba35	-0.071644224
107	0x3df66080	0.12030125
108	0xbd97d800	-0.074142456
109	0x3da30a34	0.079609305
110	0xbd974548	-0.07386261
111	0xbd5dec38	-0.054180354
112	0xbd42a9a4	-0.047525063
113	0x3ddfac81	0.109215744
114	0x3deead56	0.11654155
115	0x3c243f6d	0.0100248875
116	0xbcec8312	-0.028871093
117	0x3e11822b	0.14209811
118	0xbdb15f16	-0.08660714
119	0xba1ed44c	-0.00060588564
120	0xbd987e90	-0.07446015
121	0xbdce3ece	-0.10070573
122	0x3e348f81	0.17632867
123	0x3cc6c090	0.024261743
124	0xbd825757	-0.06364315
125	0x3e23fb45	0.1601382
126	0x3df874e2	0.121316686
127	0x3e0fbba0	0.14036417

fc3.bias f4 [2]
0	0xbd85cffa	-0.06533809
1	0x3dd01df9	0.10161967
