checkpoints/dqn_episode_200.pth (torch, 41394 bytes, 12 tensors)

fc1.weight f4 [64, 4]
00000000: 51d6 1bbf fd02 85be c3b8 5f3f 6e23 813e
00000010: ae49 95be 20d2 96be a48b 11be 7569 94be
00000020: 9cae cfbe a4e3 af3e bcce f43e 5090 7d3e
00000030: 8a6b 233e eee0 27bf 647b dfbf 1e42 fbbe
00000040: da0a de3e 1c8a 8e3e a2ec 1fbf 14be b33c
00000050: 828e c8be 6442 523e 8f74 56bf 25b7 f6bd
00000060: f2f5 96be ab79 6d3e 767b 0ebf b442 6d3e
00000070: ff06 13be 4271 e5be fd77 293f a93f 4d3d
00000080: d454 b6bd 23d7 213e 85b7 bd3e 891f cfbd
00000090: 7905 543d 335f eabd 2bdb 57be fc52 b53e
000000a0: 4dd6 dcbe 68b5 ae3d f5b0 d83f 45bd 1e3e
000000b0: f148 0fbf e17c 64be 662b 3cbf 88b3 643d
000000c0: be9b ac3e 1add 3cbe ce7d 403f efce 7dbe
000000d0: c42d 6fbf 7979 bfbd 1016 3f3f db24 7ebe
000000e0: b45f 583e 524e ecbd 3ba6 123f 3a6f a0bc
000000f0: ace7 d0be a81d fabe fc60 86be c8d8 82be
00000100: 812d c43e 7f29 61bd ab9d 31bd 64bf 80be
00000110: d3e2 13bf 035b 643b dfad 32bf 2be5 8f3e
00000120: 6518 543f 142f 43be 9121 c7bf 2d0a e93c
00000130: 2faf f13e 5be0 62be e6c7 a3bf 67ed b2be
00000140: 79d4 f8be 28ea c9be 7c46 f0be 6c81 a8bd
00000150: 3bba 62be 241b 70bd b147 71bd 5988 b93e
00000160: 11fd 3ebe ed0d 4cbd ba35 ec3f b1fd b43d
00000170: ac62 edbd 3ced 993e 80ec 2e3f 62f0 0dbe
00000180: 03d3 06bf f051 ea3c c300 8b3e 823a 24be
00000190: 7555 82be 9669 243e 2950 ea3f a928 a83e
000001a0: 4c34 65be b80c dd3d f812 13be 00e2 e8ba
000001b0: fc53 323f 843e 69bd cd64 d0bf 8865 3dbe
000001c0: 8a8a ce3b c7af 133c 9955 ed3f c1fc 243e
000001d0: f1c9 023f 0abd bf3e a209 803e d619 fd3c
000001e0: bb3b 6d3c 48f0 b83d 7a0d 933e aea7 a6bd
000001f0: d258 803e 90e1 833e 3b1c 893d 5af3 31be
00000200: cd6d a43d d921 463e 80db cb3f 1246 a03e
00000210: 3647 afbe 26f5 263e 2938 fdbe 40a4 5dbe
00000220: 2ad4 ea3e f2f1 9fbd 31a8 743e eee5 733d
00000230: 1589 59bc d12b 81bd d6be 92bf 102a 39be
00000240: 2114 db3e 5eed e13c daaa 12be 9908 363e
00000250: a8cb 81bd f0f4 9f3e eda0 a6be 0085 ccbe
00000260: 35a1 38bf e074 a23e 47ce b93f 386c c43e
00000270: a6a5 e33e 5332 5cbe cf33 c2bf 5959 a1be
00000280: 5ed1 f73e bb71 f2be 2fe6 513d 45aa 82be
00000290: f756 9d3e c208 c53c 3b6c 40bd 6b1b 57be
000002a0: bafc e63d 73f0 b7bd 9284 93be 28d2 a3bd
000002b0: 9ce9 f3bd f5b1 a6be af6d 08bf a5ec 06be
000002c0: 9e91 193e 85e8 ba3c abc6 193e 5d4b 8d3e
000002d0: 6f50 cf3d 0be0 82be 7314 0a3f d9bd c23e
000002e0: 0528 8a3e da38 393e 53b8 71be 1207 e43e
000002f0: 3235 c43e 51d5 f03d a949 b8be 4384 ad3d
00000300: c934 cbbe ed9d 853e 4fce 1f3f 93bc 30be
00000310: a015 ae3e 1d81 7e3e 5ebf ac3e f148 71be
00000320: 293f 3b3e 9e03 b73d 7f64 f23e 0d66 ab3d
00000330: fab3 c2be e40e 14bc e972 d0bd 5766 f13d
00000340: 5754 9ebe baf2 00bd 5c93 81be a216 543e
00000350: 1844 783e a00f 173e 6858 38bf a9fa 023e
00000360: 2a62 7bbe a0ec 853e b4dc 533c 79d4 5d3e
00000370: 6967 2d3e 0285 a53e 2c9e 643f 734c 073f
00000380: 58d3 103d ee29 41bc da6a e13f 52ad f93c
00000390: cdba c63e 3e14 40be a5ac 0ebe 1ed1 82be
000003a0: 99cf 8cbe f0d7 e9bd d6f8 bebc 6fc2 79bd
000003b0: ddc5 d1be a7ec ff3e a0bc babe 5c71 aa3e
000003c0: 43e8 c83d 8cbb e03e 7640 003e bc41 7c3e
000003d0: ce3b 723e f733 17be 352b ab3f 615f c6bc
000003e0: 7ac2 00bd e648 d1be 85d8 cdbd ca57 f7be
000003f0: 4253 f53d ca42 d13e 3d09 50bf 511d 9a3c
-0.60873896 -0.25978842 0.873913 0.25222343 -0.29157776 -0.29457188 -0.14213425 -0.28986707
-0.40562904 0.34353364 0.47813976 0.24762082 0.15958992 -0.6557759 -1.7459531 -0.4907388
0.43367654 0.27839744 -0.6247045 0.021941222 -0.39171225 0.20533139 -0.83771604 -0.12046651
-0.29484516 0.23190944 -0.55657136 0.23169976 -0.14358138 -0.4481297 0.6619871 0.05010954
-0.089028984 0.15804724 0.37054077 -0.10113437 0.05176303 -0.11443939 -0.210797 0.35414875
-0.4313225 0.08530694 1.6929003 0.15501888 -0.55970675 -0.22313263 -0.7350372 0.055835277
0.33712572 -0.18443719 0.7519196 -0.2478597 -0.9342921 -0.09349341 0.7464304 -0.24818747
0.21130258 -0.11538376 0.572849 -0.019584287 -0.40801752 -0.4885075 -0.26245868 -0.25556016
0.38315967 -0.054971214 -0.043363255 -0.2514602 -0.5776798 0.0034844286 -0.69796556 0.2810453
0.82849723 -0.19060928 -1.5557119 0.028447235 0.47203967 -0.22155897 -1.2795379 -0.3494675
-0.48599604 -0.3943646 -0.46928775 -0.0822781 -0.22141354 -0.058619633 -0.05890626 0.36236838
-0.18651225 -0.04981797 1.8453896 0.0883745 -0.11591086 0.30063808 0.6832962 -0.1386123
-0.5266573 0.028603524 0.2714902 -0.16037944 -0.25455824 0.16055903 1.8305713 0.3284352
-0.22383231 0.107934415 -0.14362705 -0.0017767549 0.696594 -0.056944385 -1.6280762 -0.18495762
0.0063031362 0.009014077 1.8541747 0.16112043 0.5108939 0.37448913 0.2500735 0.030896109
0.014479573 0.09030205 0.2872122 -0.08137451 0.25067765 0.25758028 0.06694838 -0.17377988
0.08028755 0.1934885 1.5926361 0.3130346 -0.34234017 0.16304454 -0.4945691 -0.21644688
0.45864993 -0.07809819 0.23892285 0.05954545 -0.013277312 -0.063071854 -1.1464489 -0.18082452
0.42788795 0.027579006 -0.14322987 0.17776717 -0.063376725 0.3124156 -0.32544652 -0.3994522
-0.7212098 0.31729794 1.4516076 0.38363814 0.44462317 -0.21503572 -1.5172061 -0.3151348
0.48401922 -0.47352394 0.05124491 -0.2552053 0.3073041 0.024052028 -0.046978217 -0.21006553
0.112786725 -0.08981409 -0.2881208 -0.079990685 -0.11909792 -0.32557645 -0.53292364 -0.1317621
0.14996955 0.022815952 0.15017192 0.2759656 0.10122763 -0.25561556 0.53937453 0.38035467
0.26983657 0.18088093 -0.2360547 0.44536644 0.38321835 0.11759437 -0.35993698 0.084724925
-0.3968871 0.2609705 0.62424177 -0.17259435 0.34000874 0.2485394 0.33739752 -0.23562981
0.18285812 0.08936237 0.47342297 0.08369074 -0.38027936 -0.009036753 -0.101781674 0.11787098
-0.3092372 -0.031481482 -0.2530774 0.20711759 0.24244726 0.14752054 -0.720099 0.12790932
-0.24549165 0.26157093 0.012931038 0.21663083 0.16933979 0.3232804 0.8930385 0.5285103
0.035357803 -0.011789782 1.7610734 0.030478153 0.38814393 -0.18757722 -0.13933046 -0.2555017
-0.27502134 -0.1141814 -0.023312014 -0.060976442 -0.4097127 0.4998524 -0.36472034 0.3328961
0.098099254 0.43893087 0.1252459 0.2463445 0.23655626 -0.14765917 1.3372561 -0.024215402
-0.031435467 -0.4087593 -0.100510634 -0.48309165 0.11978771 0.4087127 -0.81264096 0.018812807

fc1.bias f4 [64]
00000000: 04c3 b9be ddc9 553e a0af eebe f00c d1be
00000010: 00bc 23bf 629e 27be 6eb7 c03e c10e d9be
00000020: c8de e53e 2296 d43e ee59 c9be 986e 9f3e
00000030: b702 323d 76bd d9bd 0a01 f5bd 84bc f4be
00000040: 910f fa3e e212 85bc 00c1 9fbe b6cb 70be
00000050: c0ab 5fbe 489f 733e 46a4 90be e704 e1bd
00000060: 6212 073f 98be cdbe bad0 c8be 08a5 e4be
00000070: a0ed 8ebe eab3 80be 04fd 1bbb 3552 52bf
00000080: 473f 97be c054 f2bc 4df4 ed3e b449 44be
00000090: 13de da3e d470 78be 2886 dfbe 7a61 c2be
000000a0: 3274 d9be 4758 7f3e 7002 0fbc 4478 be3e
000000b0: d668 053f bb19 03bf fbe7 203e 01d7 f0bd
000000c0: f7ad 48be 07e9 c63e d65c 093f 9634 e13e
000000d0: 4207 8b3e 412d 373e f21d c0bd 3025 0fbf
000000e0: 01b4 adbe e056 453e 135f e63e ca6b 643e
000000f0: 7d00 2e3e 4bcf 5ebe 2084 e33e 7984 c6be
-0.36281598 0.20877786 -0.46618366 -0.40830183 -0.6395874 -0.16369012 0.37639946 -0.4239407
0.4489653 0.41520792 -0.39326423 0.31139064 0.04345962 -0.1063184 -0.11963089 -0.47800076
0.4884 -0.016244356 -0.31201935 -0.2351521 -0.21842861 0.2379123 -0.2825033 -0.10987263
0.52762425 -0.40184474 -0.39221746 -0.4465716 -0.27915668 -0.25137264 -0.0023801932 -0.8215669
-0.29540464 -0.029581428 0.4647545 -0.1916874 0.42747554 -0.2426179 -0.4365704 -0.37964994
-0.42471462 0.24936019 -0.0087286085 0.3720113 0.5211309 -0.51211137 0.15713494 -0.11759759
-0.19597612 0.3884966 0.5365728 0.43985432 0.27153975 0.17888357 -0.093807116 -0.5591612
-0.33926395 0.19271421 0.4499441 0.22306743 0.16992374 -0.21758763 0.4443674 -0.38772944

fc2.weight f4 [64, 64]
00000000: 5806 89bc 5e92 943d c070 e23b 8802 3a3d
00000010: d86e 71bd 7669 b7bc 0037 e43c e8de 163d
00000020: 0991 423c 98ab b9bd 7c9d cc3d 28b0 e63d
00000030: 17e4 a73d 79b7 acbd 2ca1 cc3d 6c3d 843d
00000040: 184a adbd 603e fe3c d47e f2bd 4332 acbd
00000050: 40e2 95bb 0064 d839 d67a 39bd a3a2 c4bb
00000060: 0c17 a63d 30bf a83c f050 15bd de8f c7bd
00000070: 9041 ec3d 9e0d 52bd 1f80 acbd 31e4 03bd
00000080: fca7 d6bd 9d8d 943d 7602 8fbd c911 093d
00000090: 0058 5b39 0da0 16bc a81b 9abd 2cc6 ae3d
000000a0: a8b7 d3bd 69b9 5cbc 8ede f8bd 177e 9c3c
000000b0: 847d 21bd e6e0 e3bd 2009 bebc 5236 86bd
000000c0: e9ac 8fbd dd08 5c3c 7212 aabd 00a8 f0bc
000000d0: d081 c8bc 02fc f8bc ba49 d5bd eadb 983d
000000e0: 3475 033d 5e38 8c3c 1176 553c 4c8c 113d
000000f0: 603d 97bd 0036 86bc a7f9 00be 68fc dabd
00000100: 89a5 243e a099 e8bd feb1 e03d 55f0 02c0
00000110: 29ab 1c3e 559a 72bc cdf2 423e 867f 973e
00000120: d81b bc3d 7eb0 133c a3e1 a83e 9359 a03d
00000130: 6965 3abe 0286 f7bd bae3 e6bc f071 00bc
00000140: 7763 6f3d 0e76 ff3d 40cf 923e b1d2 d43e
00000150: fba8 e93d abb6 9fbd 8094 99bf 4d2d 84bd
00000160: dfb1 ebbc 2891 21bf ac5a 943d adfe bfbf
00000170: d9ff 03bf fc6b 203d aee6 b83d 2f56 1d3f
00000180: 84c2 07bf 8542 013e f032 b93c 8fc8 1abe
00000190: daf2 90bd cf8d 07bd d4d9 a23e a401 55bf
000001a0: 4d0a 65be f66d 263d bb36 a23d f0b7 4d3e
000001b0: 34c8 41bd 341e 853e 9c64 b83d 48a1 bcbc
000001c0: f5b8 acbd c9a1 c43d 2481 cf3d 5e91 993d
000001d0: bcb6 243e 1cb0 0a3b 7ea3 bd3c 7f25 c6bd
000001e0: 3584 6a3e 2b17 92bd 13aa 01bc ee02 3a3e
000001f0: 2327 3ebd b5f4 89bf dfca c03d 7e8d 0bbe
00000200: d0d6 d6bd 5bd0 abbd 6c3d 173d 6802 8b3d
00000210: 780a a43d 84af 4bbc 6eb4 cfbd 0972 253d
00000220: fc73 1ebd db73 89bc 7960 4cbc 787d 8e3d
00000230: 3f61 883d e721 143c 24d9 bfbd e08e c8bb
00000240: ac3f d1bd cd25 8b3d 615a 9bbc 1ab6 d13b
00000250: 4da2 1cbe 1f6d 283d 9852 a3bd dc1f 38be
00000260: 4f00 d6ba cb18 1ebe 4ac9 833d 6594 513d
00000270: 34c2 dcbd 5f02 a43c f813 26b9 5bae 123e
00000280: 1b70 3fbe cfb6 3e3c a818 81bd 3c55 2cbd
00000290: 1e84 213d 9329 03bd 9f4a 173c de3c 2a3e
000002a0: 5451 303d f77a e1bc e867 1fbc e861 c3bd
000002b0: aff8 dc3b 9ebe 15be 13d3 76bd 557f 303d
000002c0: 5765 a9bd f05f 213d e6a3 07be bf68 06bd
000002d0: e6c0 bb3b 02ea 363a 3a50 04be 51aa 42bd
000002e0: acb5 19bc 0de7 a9bd d203 31bd 78a5 efbc
000002f0: 5ec3 1abb 4aa9 adbd c756 54bd 2040 f0bd
00000300: 518b ecbd 76f5 babc c4ce 5c3d 4d45 1ebe
00000310: e468 2cbd 6b90 63bd a44d c63d 5ae1 62bd
00000320: 7193 59bd b887 62bd 408b c33c 78df cabd
00000330: 9564 673c 51c1 b2bc 3d22 773d a4aa 6e3d
00000340: feb3 febd 3272 4cbd 5c68 e93c 7809 91bd
00000350: 8a1b 48bd 433a a43d ba6f bbbc 4f09 743d
00000360: 1978 2a3c b690 1b3c ecb1 6e3d 25be 93bd
00000370: 931e 01be b624 06be 2c59 8a3d 31c5 f6bc
00000380: 762a 25bd 2648 a5bd 8395 e3bd 8e85 c4bd
00000390: 39ca c33c 08f0 9d3d dc05 973c 0191 913b
000003a0: 2e24 cf3d 4a15 503d ae16 8b3d b017 9c3d
000003b0: fec3 9dbd 9a6e aa3d ee4b 9cbd 886f 0dbe
000003c0: 1bf3 17be 84b7 7dbc 9e76 4639 bfa3 a43d
000003d0: 84ae 75bd 9d7f 293d d15c 96bd f35a 0e3d
000003e0: fa86 debd 88d0 15be b2b5 f9bd 7fc5 76bd
000003f0: 6ec3 013d 72f1 abbd 9846 6fbd 6f25 b2bd
-0.016726658 0.0725448 0.0069104135 0.04541257 -0.0589436 -0.022389155 0.027858257 0.036833674
0.011875399 -0.09065932 0.09990975 0.11264068 0.081978016 -0.08433432 0.099916786 0.06457028
-0.08461398 0.031035602 -0.11840597 -0.08408024 -0.0045740902 0.00041273236 -0.04528316 -0.006000833
0.081098646 0.020598978 -0.03645414 -0.09744237 0.115359426 -0.051282518 -0.08422875 -0.032200042
-0.10481259 0.07253573 -0.06982891 0.033464227 0.0002091825 -0.0091934325 -0.07524806 0.08533892
-0.10337764 -0.01347194 -0.12151824 0.019103093 -0.03942634 -0.1112688 -0.02319771 -0.065533295
-0.07015402 0.013429848 -0.083042994 -0.029376984 -0.024475962 -0.030393604 -0.10414453 0.0746382
0.032094195 0.017116722 0.0130286375 0.03553419 -0.07384753 -0.016383171 -0.12595235 -0.10692674
0.16078772 -0.11357427 0.10971449 -2.0459187 0.15299667 -0.014807303 0.19037934 0.2958948
0.09184998 0.009014247 0.32984647 0.07829585 -0.18202747 -0.12086107 -0.02818476 -0.007839665
0.058444466 0.12473689 0.28673744 0.41566995 0.114091836 -0.07798513 -1.1998444 -0.06453953
-0.028771339 -0.63112116 0.07243857 -1.4999596 -0.5156227 0.039165482 0.09028374 0.6145963
-0.5303118 0.12623031 0.022607297 -0.1511557 -0.0707757 -0.033094224 0.31806815 -0.8320563
-0.2236721 0.04063221 0.07920595 0.20089698 -0.04731007 0.25999606 0.09003565 -0.023026124
-0.08433715 0.096011706 0.101320535 0.0749843 0.16085333 0.0021162098 0.023149248 -0.096751206
0.22901995 -0.07133325 -0.007914084 0.1816518 -0.046424042 -1.0777804 0.094136946 -0.13628194
-0.10490191 -0.0838935 0.03692381 0.06787568 0.08009809 -0.012431983 -0.10141836 0.040391956
-0.03868483 -0.016778877 -0.012474173 0.06957525 0.06659173 0.009041286 -0.09367588 -0.0061205477
-0.102172226 0.06794319 -0.018963994 0.006399882 -0.15296288 0.04111969 -0.07974738 -0.17980903
-0.0016326996 -0.15439145 0.06434877 0.05116691 -0.10779229 0.020020662 -0.00015838433 0.14324324
-0.18695109 0.011640265 -0.06303531 -0.042073473 0.039432637 -0.03202207 0.0092341 0.16624781
0.04304631 -0.027524455 -0.009729363 -0.095401585 0.0067435126 -0.14623496 -0.06025989 0.043090183
-0.08271282 0.039398134 -0.13246116 -0.032814737 0.0057297824 0.0006977619 -0.12921229 -0.047525708
-0.009381693 -0.082960226 -0.043216534 -0.029253706 -0.0023614983 -0.08479555 -0.05184057 -0.11730981
-0.1155001 -0.022822123 0.053908125 -0.15456124 -0.04209222 -0.05555765 0.096827775 -0.055390693
-0.053119127 -0.055305213 0.02387011 -0.099059045 0.014123102 -0.021820696 0.060335387 0.058268204
-0.124366745 -0.049913593 0.028492145 -0.07081884 -0.04885439 0.08018925 -0.022880424 0.05957919
0.01040461 0.009494951 0.05827515 -0.072140016 -0.1260932 -0.13099942 0.067552894 -0.030123325
-0.040323697 -0.08070402 -0.111125015 -0.09595786 0.023900138 0.07711798 0.018435411 0.0044423346
0.101143226 0.050801553 0.06791435 0.076217055 -0.07703398 0.08321877 -0.0763167 -0.13812077
-0.14838831 -0.015485648 0.0001892694 0.080390446 -0.059980884 0.041381467 -0.07341922 0.034754705
-0.108655885 -0.1463033 -0.12192859 -0.06024694 0.031680517 -0.083956614 -0.058416933 -0.08698546

fc2.bias f4 [64]
00000000: 3f0f b5bd e5dc 813d f072 1c3d e82d 403d
00000010: 3641 883e 5fb4 29be ff84 de3d 86fe d5bd
00000020: 5a23 a83d 38d2 c6bc 5321 3b3e 3d9c 153d
00000030: 35a9 efbb 9b71 623e 80a6 0d3e 6b8b 313e
00000040: 40a1 0ebe df3f b0bd 7627 673e 665e 793e
00000050: 201e eb3d 515b 4fbe 7f63 0dbd d556 84bb
00000060: 90d3 4d3e 06e8 583d 63de b63d 579b a6bd
00000070: 5a47 023d 7e81 ccbd 5273 21be 2a6e 01be
00000080: f802 6c3e e33d 463e fd0c 7f3e ff17 90bd
00000090: 6bde 4f3d a571 083d f68a 4c3e f732 07be
000000a0: 82b8 833d c4d2 033e 5f1f 803d e4ec 203d
000000b0: 287f 27bd 2cfd 133e 9939 12be 0b6b 49bd
000000c0: 9994 8fbd e4f1 d9bd c1f2 253e 5596 4ebd
000000d0: 12ad 2cbe 4eaf 0c3e 5930 fcbd f824 b33d
000000e0: 236d debd 3a84 3fbd 9897 ed3d 54c7 b9bd
000000f0: f8eb 21be 44a2 a63d 0438 273d 1b3f 803e
-0.088407986 0.063409604 0.03819555 0.04691878 0.26612252 -0.16572712 0.10865211 -0.10448937
0.08209868 -0.024270162 0.18274431 0.036525954 -0.007313872 0.2211365 0.13833046 0.1733834
-0.139287 -0.086059324 0.22573647 0.24352416 0.11480355 -0.20249678 -0.034518715 -0.0040386715
0.20100236 0.05295565 0.08929136 -0.081350975 0.031806327 -0.09985636 -0.15766647 -0.1263968
0.23048007 0.19359545 0.24907298 -0.07035827 0.050749224 0.033311505 0.19974884 -0.13203035
0.064316764 0.1287337 0.062559836 0.039288417 -0.04089275 0.14452046 -0.14279784 -0.04917435
-0.07010765 -0.1064184 0.16205885 -0.050436337 -0.16862896 0.13738748 -0.12313909 0.087472856
-0.1086066 -0.04675696 0.1160118 -0.09071222 -0.15812671 0.081364185 0.040824905 0.25048146

fc3.weight f4 [2, 64]
00000000: 3297 c93d ed9e 723e 88e9 90bc 02df 2c3d
00000010: f49a 1a3f 1046 7ebd e596 e53d 2b8f 99bd
00000020: 2a7c d33e a8a6 883d f99b 233e c564 5d3d
00000030: 40fe 85bd 216b 673e 3325 7b3e cf8f 6b3e
00000040: 02dd 383c c3e4 abbb 0e99 523d 91f2 fb3e
00000050: bbd5 e23d 005f 44bd 745e 4dbd 4b71 8737
00000060: a6e9 5d3e 4deb f8bb 9e0c a33d 4c67 bcbd
00000070: e343 1dbb bc58 5dbd 93de 123e 6ed8 bfbc
00000080: c7b4 9b3e a1fe 533e 7700 2e3e d2a4 4d3c
00000090: 5482 74bd 7207 a9bd fd0e a33e fd99 2cbd
000000a0: df15 283d cf5f 0b3e bfed ff3d 3595 f83d
000000b0: a466 893d 556a f53d 7a0e 80bc c0d8 bcbc
000000c0: 303a cf3b c0f8 b13b 8bae 783e a2a4 32bd
000000d0: b96d 543b 3fd2 7c3e c604 61bd 050e a1bd
000000e0: 4a4e 79bd 1690 9f3d 63be b63e d261 c2bd
000000f0: 6222 b03d 5c9d b73e 1d82 543e 3c7c 813e
00000100: 917a acbd 0d18 1abe 795c b23c b525 a3bd
00000110: a2ea 42bc 9413 90bd dd83 073f c245 95bd
00000120: bb8d d53d a0df 503c 3791 b53d 499a 213e
00000130: dd1b a03d 6100 af3d 0cff c03e 9621 d23e
00000140: 0275 78bd bb74 01bd 035d 5f3e 0ccd 6e3e
00000150: 870c 683e 4f88 f0bc ab8b 253d 97e8 e23c
00000160: e09c 4abd 9278 3c3c 0dd8 c8bd 740a a3bd
00000170: 7f8e bbbd 3b41 d6bb efb5 72bd a042 aebd
00000180: 5580 503f e6ae 5dbb 8724 2a3e f79c 26bc
00000190: 5522 0bbd 2479 3c3d 0a36 2f3f b52b c0bd
000001a0: d7b7 96bd 3223 5d3e 0c8d 88bd ad5d 8c3d
000001b0: 2af0 92bd 0082 723e 5176 93bd f93a 59bd
000001c0: a4a9 42bd e2ab df3d dbea f53d 8ba1 4e3c
000001d0: 3a75 d0bc a8e7 a83d ce81 acbd 5440 063b
000001e0: d2ee 93bd 535b cbbd e51a 1e3f 90c0 c63c
000001f0: c8a7 79bd 2663 dc3e a71f cb3d 8018 003f
0.09843291 0.23693438 -0.017689481 0.042204864 0.6039269 -0.062078536 0.112104215 -0.0749801
0.41305667 0.06672412 0.15977468 0.05405118 -0.06542635 0.2259946 0.24525909 0.23004077
0.011283161 -0.0052457764 0.051415496 0.492085 0.11075922 -0.04794216 -0.050138906 1.614601e-05
0.21671161 -0.0075964094 0.07961391 -0.0919939 -0.0023996762 -0.0540397 0.14342718 -0.023418631
0.3041136 0.20702602 0.16992365 0.012551503 -0.059694603 -0.08253373 0.31847373 -0.042139042
0.041036483 0.13610767 0.12496518 0.12137834 0.0670903 0.11983172 -0.015631903 -0.023052573
0.006324075 0.0054312646 0.24285333 -0.043614037 0.0032414033 0.24689578 -0.054936193 -0.07864002
-0.060865678 0.07791154 0.3569213 -0.09491314 0.08600308 0.35862243 0.2075276 0.25290096
-0.08421815 -0.15048237 0.02177261 -0.079661764 -0.011896761 -0.07034984 0.5293558 -0.07288696
0.104274236 0.012748629 0.08865588 0.15781511 0.078178145 0.08544994 0.37694585 0.4104125
-0.060658462 -0.031605463 0.21812825 0.23320407 0.22661029 -0.029361872 0.0404164 0.027698798
-0.049466014 0.011503356 -0.098068334 -0.07960978 -0.09158038 -0.006538538 -0.059255537 -0.085088015
0.8144582 -0.0033826171 0.16615497 -0.010169259 -0.03396829 0.046013966 0.6844183 -0.093833365
-0.073592834 0.21595457 -0.066675276 0.06853805 -0.07174714 0.23682404 -0.072003014 -0.053034756
-0.047525063 0.10921456 0.12007686 0.012611757 -0.025446523 0.0824731 -0.08423196 0.002048512
-0.07223286 -0.09929528 0.6175979 0.024261743 -0.060951024 0.43044394 0.099181466 0.50037384

fc3.bias f4 [2]
00000000: 3e33 193b bf8d 3f3e
0.002337649 0.18706416

fc1.weight f4 [64, 4]
00000000: 2ab8 05bf 1270 85be 0afa 4f3f dcf9 753e
00000010: d2ba 8ebe f4c9 90be 3bb8 0fbe 88fd 97be
00000020: b4ae cfbe a4e3 af3e bcce f43e f290 7d3e
00000030: fc31 7b3e 66aa 20bf 05cd d5bf 438e f5be
00000040: 6f01 d83e af8f 933e 5121 e2be 0d8c f43c
00000050: ce95 e6be bda0 373e 7974 3dbf 8784 89bd
00000060: 4339 93be 5ecc 683e 605b 0dbf d687 773e
00000070: cbce 0ebe 3bf5 ebbe 2eaa 053f 6145 bd3c
00000080: 3dd4 b2bd eeef 353e 9c18 c13e 70cc f2bd
00000090: 290a 983d a935 f1bd 8c3b 7abe 9c01 b83e
000000a0: ff8f d8be 7052 c13d 5a8b d23f c345 173e
000000b0: a4a7 fbbe 4399 7dbe c850 3bbf f9c4 b13d
000000c0: 16d4 b23e 293e 25be 93ea 413f e77b 84be
000000d0: 3b03 48bf 93dd d4bd 9d14 223f 1f2b 88be
000000e0: 74a4 6e3e ef4b ccbd 7228 f83e 8e8b d2bc
000000f0: ace7 d0be 201e fabe fc60 86be c8d8 82be
00000100: 77de bf3e b878 49bd 07a8 b7bc 62a7 81be
00000110: 4711 fabe 66d3 11bb cdf2 42bf a0ab 8e3e
00000120: 6f2b 533f a2ea 4abe d55d b7bf bcb0 4f3d
00000130: 08bc e13e 65c5 61be 7176 8bbf dca5 b2be
00000140: 0668 cabe c7e2 e0be c832 06bf 90a3 8dbd
00000150: 11f0 6ebe b35b bebd cd69 3abd dd12 c43e
00000160: 41ba 8dbe b51c 0abd 1023 cc3f b4d0 8f3d
00000170: 7df6 cdbd cfc5 a53e 9602 2f3f 4bb4 0dbe
00000180: aec6 09bf 3835 073d 61dc 833e 36ee 2ebe
00000190: e668 8fbe 8446 3a3e c5bb d53f 963c aa3e
000001a0: 4c34 65be b80c dd3d f812 13be 00e2 e8ba
000001b0: 5148 343f f237 91bd e3a8 cabf 9e6e 34be
000001c0: 8b02 5bbd 4f7c 9f3c 1491 c53f c640 133e
000001d0: 75d5 083f 031d c23e d98e 963e 3568 103d
000001e0: 2e20 223d abf0 e43d cdbb 9f3e 435f b3bd
000001f0: 6274 4e3e 1c9f 853e 64d4 a43d 48ce 43be
00000200: 0c80 6b3d 019b 673e 3db7 bb3f 5160 a83e
00000210: 6647 b2be d307 0b3e 6b0d ddbe 21e4 42be
00000220: 8aa4 ea3e 0111 a0bd d660 803e 80ec 8d3d
00000230: 7cbe bf3c dcf2 93bd ccd0 7abf dd15 27be
00000240: 742a de3e e501 d13c e8fd 03be 8a93 463e
00000250: 57f9 25bd 1484 9a3e b011 d6be 8d56 d2be
00000260: 05a1 35bf dbba aa3e 5223 ae3f b203 c63e
00000270: e574 e23e fa55 52be 98f1 b1bf 344c 9dbe
00000280: 40a0 f83e af01 f2be 716c 513d 9aab 82be
00000290: cb22 a33e 21d4 253d 7537 19bd 4ba0 47be
000002a0: 5857 0a3e e6e2 c2bd 3f1d 66be 232a 8fbd
000002b0: 130b e1bd 1928 aabe b459 0cbf eaa9 00be
000002c0: caf1 1c3e 4061 d33c 44c3 143e 9dc5 8d3e
000002d0: 7a99 753e 1dd0 60be 672e 0e3f fc56 ca3e
000002e0: 39bc 943e a9fa 403e 7444 58be fcfd e63e
000002f0: 96ce c53e 397d e03d 51b8 a9be 1bea bc3d
00000300: e296 c6be 8de7 853e cc84 1d3f 5a5c 17be
00000310: 0c09 a93e afd8 863e 0683 b93e ca6b 82be
00000320: f9aa 3b3e 2536 ad3d c6f5 f43e 55f5 c63d
00000330: 69f5 c8be 89e9 cbbc e55d ecbd a212 fe3d
00000340: 0f31 9fbe 6bdb 1bbd f3ca 91be 4049 563e
00000350: f85f 8a3e e6c4 1a3e 6f37 3fbf da2c 073e
00000360: 43e7 7dbe 958b 883e a503 53bd c24c 4c3e
00000370: 8c44 103e 4bee a63e 2591 533f 9df8 053f
00000380: 291f 103d f0d2 9dbc 0b31 da3f 0990 8c3c
00000390: 086a c93e 2724 47be f182 23be f58c 73be
000003a0: 3f15 86be d71b f4bd f568 fabc 566d 6cbd
000003b0: d684 c9be 361d 023f 9d0e b1be 5285 ad3e
000003c0: 28b3 de3d 3cc8 df3e 6c21 d13d 17d5 8a3e
000003d0: 063f 623e b65c 05be 70f8 aa3f a081 a2bc
000003e0: 71d4 bfbd dcdb d0be d41f f6bd df1e fdbe
000003f0: da2d 1d3e 8bb2 d93e 51a1 3ebf e2e6 1d3d
-0.5223414 -0.26062065 0.81240904 0.24021095 -0.27876908 -0.28279078 -0.14035122 -0.29685616
-0.40562975 0.34353364 0.47813976 0.24762323 0.24530786 -0.6276001 -1.6703192 -0.479601
0.42188594 0.2882056 -0.44166043 0.029851938 -0.45036167 0.1793241 -0.7400585 -0.06714731
-0.28754625 0.2273421 -0.5521755 0.24172911 -0.13946073 -0.46085533 0.522128 0.023104372
-0.087318875 0.17767307 0.37714088 -0.118553996 0.07423813 -0.11777813 -0.24436778 0.35938728
-0.4229736 0.09439552 1.6448777 0.14772706 -0.49151337 -0.24765496 -0.7317014 0.08680148
0.34927434 -0.16136993 0.75748557 -0.2587578 -0.7812993 -0.103938244 0.63312703 -0.265954
0.23304921 -0.09975421 0.48468357 -0.02570131 -0.40801752 -0.4885111 -0.26245868 -0.25556016
0.37474415 -0.049187392 -0.022418989 -0.25323015 -0.48841307 -0.0022251247 -0.76151735 0.27865314
0.8248815 -0.19816068 -1.432551 0.050705656 0.4408877 -0.22047956 -1.089552 -0.34892166
-0.3953249 -0.43923017 -0.52421236 -0.06915963 -0.23333766 -0.09294834 -0.045511056 0.38295642
-0.27681163 -0.033718783 1.59482 0.07022229 -0.100567795 0.32377478 0.6836332 -0.13838308
-0.53818786 0.033009738 0.25754073 -0.17083058 -0.2800972 0.18190962 1.6697928 0.33249348
-0.22383231 0.107934415 -0.14362705 -0.0017767549 0.70422846 -0.07090749 -1.583279 -0.17620322
-0.053469222 0.019468455 1.5434899 0.14380178 0.5345071 0.3791276 0.2940586 0.03525563
0.03958147 0.11178716 0.31197968 -0.08758404 0.20161584 0.26097953 0.08048323 -0.19121659
0.057495162 0.22617723 1.4665295 0.32885984 -0.34820098 0.13577203 -0.431743 -0.19032337
0.45828658 -0.07815743 0.2507388 0.069298744 0.02340626 -0.07224056 -0.9797485 -0.16316934
0.43391764 0.025513599 -0.12889826 0.19392219 -0.040520992 0.30178893 -0.4181037 -0.41081658
-0.7094882 0.33345684 1.3604529 0.38674694 0.44229808 -0.2054061 -1.3901854 -0.307222
0.4855976 -0.4726691 0.05112881 -0.25521547 0.31862482 0.040485505 -0.037406404 -0.1949474
0.13509881 -0.09515934 -0.22472094 -0.06990459 -0.1098844 -0.33233717 -0.54824376 -0.12564817
0.1532661 0.025803208 0.14527613 0.2768983 0.23984328 -0.21954389 0.55539554 0.3951949
0.29049852 0.1884562 -0.21119863 0.4511565 0.38634175 0.10961384 -0.33148435 0.092243396
-0.3878699 0.26153222 0.61530757 -0.14781323 0.33014715 0.2633719 0.36232775 -0.25472862
0.1832694 0.08457593 0.4784376 0.09714762 -0.39249733 -0.024891632 -0.115413465 0.12405898
-0.31092116 -0.03805105 -0.2847515 0.2092638 0.27026343 0.15114173 -0.7469396 0.13200703
-0.2479525 0.26668993 -0.051517148 0.19951156 0.14088649 0.32603678 0.8264335 0.5233248
0.035185967 -0.019265622 1.7046217 0.017158525 0.39338708 -0.19447385 -0.15967919 -0.2378424
-0.26188084 -0.119193725 -0.030567626 -0.05772146 -0.39359158 0.5082582 -0.34581462 0.33890778
0.10874015 0.43707454 0.10211453 0.271157 0.22094354 -0.13023648 1.3357067 -0.0198372
-0.09366692 -0.4079274 -0.120177895 -0.49437615 0.15349522 0.4251903 -0.744649 0.038550265

fc1.bias f4 [64]
00000000: 4929 a6be f324 583e 4eb0 eebe ca05 d8be
00000010: b218 22bf 3426 f8bd eb1b c03e 33aa c6be
00000020: 56a5 e23e 1eaf d93e 0129 c5be 1cdb ad3e
00000030: f3f1 6c3d 39fc 8ebd bfb8 c8bd 84bc f4be
00000040: 29a4 f53e ca3e 2a3b bbad 8ebe c015 6abe
00000050: ebd3 2dbe c8b8 853e 1b6e 7cbe 731a d4bd
00000060: 91ba 053f 73cf c6be ded0 c8be fd51 dabe
00000070: f262 71be c13c 84be 3e51 253d b6a9 50bf
00000080: 1413 98be e2b3 49bc 22d3 ea3e 1218 35be
00000090: ce3e d83e 2281 7cbe 7fac d9be a1e0 b5be
000000a0: cda9 d7be 5948 853e 8948 e13c 897d c23e
000000b0: 2b1b 053f d5d9 f0be 83d6 2a3e ffa5 b3bd
000000c0: 7e81 2fbe 271b c13e 7546 073f f33e e03e
000000d0: 0bf2 943e 95ec 3d3e d58b 18bd 2871 0cbf
000000e0: a769 a7be f30e 453e e44d e73e ee8e 693e
000000f0: fc73 303e b57d 5dbe 42c9 df3e 05cd c2be
-0.32453373 0.21107845 -0.46618885 -0.42191917 -0.6331893 -0.12116662 0.375213 -0.38801727
0.44266766 0.42516416 -0.38507846 0.3395623 0.05784793 -0.069817014 -0.098008625 -0.47800076
0.47976807 0.0025977367 -0.2786692 -0.2285986 -0.16975372 0.2611754 -0.24651377 -0.10356607
0.522378 -0.38830146 -0.39221853 -0.42640677 -0.23572901 -0.25827602 0.04036068 -0.8150896
-0.29702055 -0.012310954 0.45864207 -0.17684963 0.42235416 -0.24658635 -0.42514417 -0.3552294
-0.42121735 0.2603176 0.027500408 0.379864 0.5199458 -0.47041193 0.16683392 -0.087718956
-0.17139241 0.37716028 0.52841884 0.43798026 0.29090914 0.1854728 -0.03724273 -0.5486016
-0.32697794 0.19243984 0.45176613 0.2280843 0.17231745 -0.21629985 0.43708235 -0.38047042

fc2.weight f4 [64, 64]
00000000: 5806 89bc d0a0 943d c070 e23b 1e1c 3a3d
00000010: 706f 71bd 2635 b7bc 0037 e43c e8de 163d
00000020: 71fa 423c 98ab b9bd 899d cc3d 28b0 e63d
00000030: 30f2 a73d 3faa acbd 8fb0 cc3d 6c3d 843d
00000040: ae3e adbd 603e fe3c d47e f2bd 6e25 acbd
00000050: 40e2 95bb 0064 d839 ac62 39bd 26d2 c3bb
00000060: 3f25 a63d 30bf a83c 1a51 15bd 6e81 c7bd
00000070: 9041 ec3d d1f3 51bd 8f73 acbd b1cb 03bd
00000080: fca7 d6bd e89c 943d 7602 8fbd 9c2c 093d
00000090: 0058 5b39 f535 16bc af1b 9abd eed3 ae3d
000000a0: a8b7 d3bd 764f 5cbc 9ad2 f8bd 92b3 9c3c
000000b0: 847d 21bd e6e0 e3bd 2009 bebc a32a 86bd
000000c0: 8ea0 8fbd 0772 5c3c 7506 aabd 38a8 f0bc
000000d0: d081 c8bc 85c6 f8bc ba49 d5bd eadb 983d
000000e0: 3475 033d 936b 8c3c 72de 553c 83a8 113d
000000f0: 603d 97bd 0036 86bc 45f5 00be 26ee dabd
00000100: f4fe f33d 6f92 8ebd 3ab2 e03d 10ab d5bf
00000110: 2381 f73d 5ac7 13bd e059 493e 6bf5 3d3e
00000120: 7c79 e43d d7c2 4a3c 56f1 573d db68 b23d
00000130: a798 20be c2f9 e0bd b450 f3bc f071 00bc
00000140: 39c9 9c3d 0f8e dc3d d597 643e 0ce1 7c3e
00000150: ef95 dd3d ce0d a4bd e099 74bf a0cc 83bd
00000160: 41f1 15bc 7528 05bf 025b 943d 7234 afbf
00000170: 0522 98be f6b4 8d3d b487 ef3d 8cbc 0f3f
00000180: 94c9 00bf bace b43d 5207 f93c 66cb 0cbe
00000190: a186 87bd 93ef 75bd 4c71 5f3e bc29 2dbf
000001a0: 2061 61be 2b0b 373d e4ac 233d b0f1 4e3e
000001b0: 28ae 31bd 63ad 3f3e a7a3 a93d 00b2 08bb
000001c0: 39e1 a7bd ef2d d23d 0cf7 e33d 7aa3 aa3d
000001d0: 5303 283e ba5a 963c b4ce ef3c 40f2 0dbe
000001e0: 3bdf 023d b89e 8dbd cd8a fa3a 6bce 433e
000001f0: 9322 00bd d11f 7dbf ef67 fe3d 6730 f8bd
00000200: 33b3 d6bd a3ab abbd 6c3d 173d 15c2 8a3d
00000210: 2805 8b3d 6d85 4abc d03d b9bd 2bbc 253d
00000220: 8783 d7bc 01d1 14bc 428b 4bbc 454d 8f3d
00000230: f0fd 983d 7f5b 153c ad61 c2bd e08e c8bb
00000240: a21f bebd 2909 8c3d afa7 abbc 9b1a 1dbd
00000250: 9c90 1cbe 10a5 2e3d e42f a3bd a3b8 27be
00000260: d2b3 e83a 087a 1ebe 4ac9 833d 80d2 eb3c
00000270: c68d ddbd fd24 f73c 18a1 033c 4906 c03d
00000280: 439f 14be 0517 403c 96a4 4bbd 0dfd 2bbd
00000290: 4fa5 5c3d 0366 80bd 0457 183c b389 d93d
000002a0: 5451 303d 0c80 8fbc f7d3 33bc 03c9 c2bd
000002b0: 9620 9b3c eeec 15be 6118 27bd c77c 583d
000002c0: 2307 a9bd 59c3 593d 91f0 f3bd 7a55 f8bc
000002d0: 6649 dd3b 90e2 863c e29a 03be 137f cabc
000002e0: 37d4 1dbc 130a 9ebd 0a76 27bd 949a 5abc
000002f0: 9425 a73c d21a e6bd c35c 54bd 4e1c f5bd
00000300: 1b7a ecbd a089 babc c4ce 5c3d bf36 1ebe
00000310: e468 2cbd ce58 63bd 9066 c63d 77c8 62bd
00000320: 2b5c 59bd c65b 62bd c8ce c33c 85c8 cabd
00000330: 164d 683c 464c b2bc c05c 773d a4aa 6e3d
00000340: fb97 febd c84c 4cbd a1b5 e93c dbeb 90bd
00000350: fef8 47bd d450 a43d 2600 bbbc eb43 743d
00000360: 335b 2b3c 7921 1c3c ecb1 6e3d 519f 93bd
00000370: c315 01be ba16 06be 3377 8a3d 7c5b f6bc
00000380: b0f6 24bd d52b a5bd e27e e3bd 4668 c4bd
00000390: 1c26 c43c ad0f 9e3d 944c 973c c96b 933b
000003a0: 2e24 cf3d 194f 503d 5f2d 8b3d e430 9c3d
000003b0: bbab 9dbd fc7e aa3d 3735 9cbd 0762 0dbe
000003c0: 37e4 17be 80d7 7cbc a01d 7839 c4bb a43d
000003d0: 2882 75bd 17b7 293d 0446 96bd 597c 0e3d
000003e0: e77a debd f0c2 15be 049e f9bd 9e91 76bd
000003f0: f4f3 013d bdd9 abbd 4e12 6fbd 120a b2bd
-0.016726658 0.07257235 0.0069104135 0.04543697 -0.058944166 -0.02236421 0.027858257 0.036833674
0.01190053 -0.09065932 0.09990985 0.11264068 0.082004905 -0.08430909 0.099946134 0.06457028
-0.08459221 0.031035602 -0.11840597 -0.08405577 -0.0045740902 0.00041273236 -0.045260116 -0.0059759794
0.08112573 0.020598978 -0.036454298 -0.09741484 0.115359426 -0.051257912 -0.084204786 -0.032176677
-0.10481259 0.0725649 -0.06982891 0.03348981 0.0002091825 -0.009168138 -0.075248115 0.08536516
-0.10337764 -0.013446679 -0.12149544 0.019128595 -0.03942634 -0.1112688 -0.02319771 -0.06551101
-0.07013045 0.013454921 -0.08302013 -0.029377088 -0.024475962 -0.030368099 -0.10414453 0.0746382
0.032094195 0.01714114 0.013053523 0.035561096 -0.07384753 -0.016383171 -0.12593563 -0.106899545
0.11913863 -0.06961524 0.10971494 -1.6692829 0.12085178 -0.03607879 0.19663191 0.18550651
0.11155984 0.012375555 0.05272039 0.08711406 -0.15683232 -0.109851375 -0.029701568 -0.007839665
0.07655568 0.10769283 0.22323544 0.24695224 0.10819613 -0.080104455 -0.95547295 -0.064355135
-0.009151758 -0.5201486 0.07243921 -1.368788 -0.29713455 0.06919281 0.11695805 0.56147075
-0.50307584 0.088284925 0.030398998 -0.13749465 -0.06617475 -0.06004293 0.21820563 -0.67641807
-0.22009706 0.044688385 0.039959803 0.20209384 -0.04337898 0.18718486 0.08283167 -0.002085805
-0.08197255 0.102626674 0.11131105 0.08331962 0.16407518 0.018353809 0.029273368 -0.13861942
0.03195117 -0.06915039 0.0019114852 0.19121711 -0.031282973 -0.98876673 0.124221675 -0.12118607
-0.10483398 -0.083823465 0.03692381 0.067752995 0.06788093 -0.012360913 -0.09044993 0.040462654
-0.026307834 -0.009083034 -0.012423338 0.0699716 0.0747031 0.009116053 -0.094912864 -0.0061205477
-0.09283377 0.06837685 -0.020953981 -0.03835545 -0.15289539 0.042637885 -0.07968119 -0.16379027
0.0017753786 -0.15476239 0.06434877 0.028786898 -0.10818057 0.030169005 0.008034013 0.09376199
-0.14513879 0.011724238 -0.04971751 -0.041989375 0.053868588 -0.06269457 0.00929809 0.10621967
0.04304631 -0.017517112 -0.010975829 -0.09510996 0.018936437 -0.14641163 -0.040794734 0.052853372
-0.08253314 0.053164814 -0.11911119 -0.030314196 0.0067531345 0.016465455 -0.12852052 -0.024718797
-0.0096331155 -0.07716765 -0.040884055 -0.013342518 0.02040366 -0.11235584 -0.051846277 -0.11968289
-0.11546727 -0.022770703 0.053908125 -0.15450571 -0.04209222 -0.055504613 0.09687531 -0.05536696
-0.053066414 -0.055263303 0.023902312 -0.09901527 0.014178535 -0.021764886 0.060391188 0.058268204
-0.12431332 -0.04987791 0.02852899 -0.07076236 -0.04882144 0.08023229 -0.02282722 0.059635084
0.010458755 0.009529465 0.05827515 -0.072081216 -0.12605958 -0.13094607 0.06761017 -0.03007292
-0.040274322 -0.08065001 -0.11108185 -0.09590201 0.023943953 0.07717834 0.018469132 0.004498933
0.101143226 0.050856683 0.06795763 0.07626513 -0.076987706 0.083250016 -0.076273374 -0.13806926
-0.14833151 -0.015432239 0.00023662159 0.08043626 -0.05993858 0.041434374 -0.07337573 0.034786556
-0.108632855 -0.14625144 -0.12188342 -0.060197465 0.031726792 -0.0839114 -0.058367066 -0.08693327

fc2.bias f4 [64]
00000000: fd02 b5bd c93d 8e3d 1088 3d3d 5e63 403d
00000010: 8013 733e 9594 29be 3f3f c53d 7ae7 d5bd
00000020: 9299 7a3d 38d2 c6bc ee92 3b3e aad8 d13c
00000030: 55ce edbb 4870 593e 4f3a 063e 8133 283e
00000040: 7393 0ebe 902f b0bd c5b1 593e fb83 6c3e
00000050: 7a40 ce3d b177 45be 69c1 03bd bc66 82bb
00000060: 1179 4b3e 0a25 593d 2ff3 b63d bc85 a6bd
00000070: 466d 023d df63 ccbd c579 1fbe 2062 01be
00000080: 3c40 4c3e 34fa 3b3e fa28 723e 75fb 8fbd
00000090: 660e 503d 97be 083d 5fcd 463e 4c25 07be
000000a0: 5bc4 833d 3289 e23d 6941 803d 6671 113d
000000b0: d34e 27bd 05ba 093e 7230 12be 8a54 49bd
000000c0: e69e 8dbd e4f1 d9bd 58cf 1d3e 0660 4ebd
000000d0: 2274 2bbe 919c 043e cf19 fcbd 1640 b33d
000000e0: 2d58 debd a969 3fbd 33ed b93d 54c7 b9bd
000000f0: 9a6b 21be 8f84 8a3d 8adf 143d 49ab 733e
-0.088384606 0.06945378 0.046272337 0.046969764 0.23737907 -0.16560586 0.09631204 -0.10444541
0.061181612 -0.024270162 0.18317768 0.025616009 -0.0072572627 0.21234238 0.1310818 0.16425897
-0.13923435 -0.08602822 0.2125922 0.23097222 0.10070892 -0.1928394 -0.032166872 -0.003979532
0.19870402 0.05301384 0.08933102 -0.081309766 0.031842493 -0.099799864 -0.15573795 -0.12635088
0.19946378 0.18357164 0.23648444 -0.070303835 0.05079498 0.033384886 0.1941428 -0.13197821
0.06433936 0.11061324 0.06262476 0.035508536 -0.040846657 0.13449867 -0.14276293 -0.04915289
-0.06915073 -0.1064184 0.15411127 -0.050384544 -0.1674352 0.1295035 -0.1230961 0.08752458
-0.10856662 -0.046731625 0.09078445 -0.09071222 -0.15763703 0.06763565 0.036345996 0.23795809

fc3.weight f4 [2, 64]
00000000: 3297 c93d 09a9 593e 4c41 9fbc 9cb0 2c3d
00000010: 87ff 073f 1046 7ebd 7248 053e 02a4 99bd
00000020: 5949 bc3e e0a6 883d bac7 133e 4442 6d3d
00000030: db16 86bd 2436 4d3e 2225 683e 57eb 573e
00000040: e71b 383c bbee acbb a812 5f3d e9c2 de3e
00000050: 93e3 e83d 005f 44bd 745e 4dbd 3e29 34b8
00000060: f4b3 543e 17b0 fabb e9fa a23d a37c bcbd
00000070: c651 1fbb 2c8a 5dbd 4da0 113e 3b24 c0bc
00000080: 63e7 923e 70ec 3d3e 54e8 2e3e c5df 4c3c
00000090: e3aa 74bd 0a27 a9bd 6913 9e3e dbd1 2cbd
000000a0: 7dfd 273d 6e8f 0e3e 11d8 ff3d b6cd eb3d
000000b0: 8350 893d 637e d43d 9752 80bc c0d8 bcbc
000000c0: ac50 ee3b 23f9 b13b 5a4b 653e b1d7 32bd
000000d0: 50c4 4b3b dacb 6d3e 7130 61bd cf27 a1bd
000000e0: 2077 79bd 0483 9f3d 74b9 b73e d261 c2bd
000000f0: 420f b03d 433e ad3e a6c4 433e 8b47 803e
00000100: fc89 acbd 1a00 dcbd a2b0 fd3c a43c a3bd
00000110: 1eb5 5cbc ad53 90bd f4e0 e93e 175c 95bd
00000120: c6e4 bb3d a0df 503c cc2a d93d 11c3 233e
00000130: 6c03 a03d 8b33 d03d 1040 ae3e 7c8e bc3e
00000140: 84a5 78bd 3994 01bd 6857 5b3e d21c 703e
00000150: b3ec 643e fad1 1ebd 6e69 1d3d 1a6d e23c
00000160: f304 5ebd aca4 3b3c 35ee c8bd 141f a3bd
00000170: 85a0 bbbd d8ca d7bb 2b56 76bd 8255 aebd
00000180: 12c2 2e3f b5dd c03c 0ac6 273e e766 27bc
00000190: 2349 0bbd d736 3c3d a090 263f 6d46 c0bd
000001a0: b3c3 96bd 2309 4b3e ccbb 88bd 79e3 bd3d
000001b0: fd07 93bd cba5 433e cd87 93bd 724f 59bd
000001c0: a4a9 42bd 81ac df3d e46c 053e 38e2 4d3c
000001d0: a3f3 d0bc 70f8 d93d e696 acbd f928 033b
000001e0: 5904 94bd 6f68 cbbd 655b 0a3f 90c0 c63c
000001f0: 3dd9 79bd 2bd9 cb3e cf27 f93d a29a eb3e
0.09843291 0.21255888 -0.019440316 0.042160615 0.5312428 -0.062078536 0.13015917 -0.07501985
0.3677471 0.06672454 0.14431658 0.057924524 -0.06547328 0.20040184 0.22670415 0.21085869
0.011237121 -0.0052774823 0.05446115 0.4350808 0.11371531 -0.04794216 -0.050138906 -4.2953754e-05
0.20771772 -0.007650386 0.079580136 -0.0920346 -0.0024310215 -0.05408685 0.14221306 -0.023454776
0.2869216 0.18547225 0.17080814 0.012504523 -0.059733283 -0.08259399 0.30874184 -0.04219232
0.04101323 0.13921902 0.12492383 0.115138456 0.067048095 0.10375669 -0.015664382 -0.023052573
0.0072728004 0.0054313107 0.22392026 -0.04366273 0.0031092353 0.23222294 -0.054977838 -0.07868921
-0.060904622 0.07788661 0.35883677 -0.09491314 0.0859666 0.33836564 0.19117984 0.25054583
-0.08424756 -0.10742207 0.030968014 -0.07970551 -0.013470916 -0.0704721 0.45679438 -0.07292955
0.091744944 0.012748629 0.10603866 0.1599238 0.07813153 0.10166081 0.3403325 0.36827457
-0.060704723 -0.031635497 0.21420062 0.23448494 0.22355919 -0.038774468 0.038430624 0.027639914
-0.05420394 0.011452835 -0.098110594 -0.07964912 -0.09161476 -0.00658546 -0.06014077 -0.08512403
0.6826488 0.023543218 0.1638414 -0.010217405 -0.034005295 0.045950737 0.6506443 -0.09388433
-0.073615454 0.19827704 -0.066764444 0.092719026 -0.07179258 0.19106214 -0.07203636 -0.05305428
-0.047525063 0.109215744 0.1302982 0.012566142 -0.0255068 0.10643089 -0.08427219 0.0020013435
-0.07227392 -0.099320285 0.54045707 0.024261743 -0.06099819 0.39814124 0.12165796 0.46016413

fc3.bias f4 [2]
00000000: 23e9 1fbc 0cef 2a3e
-0.009760174 0.16692752
