checkpoints/dqn_episode_250.pth (torch, 41394 bytes, 12 tensors)

fc1.weight f4 [64, 4]
-0.9840814 -0.12214742 1.2345911 0.24852137 -0.49689835 -0.25467455 -0.043929636 -0.29219925
-0.48448652 0.26424614 0.39967895 0.17097445 -0.10014347 -0.60403234 -1.7989072 -0.5491524
0.46048507 0.25352705 -0.8815345 0.0641133 -0.21509549 0.110325545 -1.8691543 -0.15823181
-0.3029692 0.22927509 -0.53816295 0.20026062 -0.011792679 -0.31639886 1.7161924 0.2022381
-0.13732785 0.111900605 0.32624868 -0.091584824 0.06099067 -0.103764765 -0.10077321 0.29753008
-0.27648142 0.035115052 1.8892354 0.157108 -0.72036153 -0.108482495 -0.82852715 -0.09760112
0.31151322 -0.2737124 0.8033208 -0.12148725 -1.2176847 -0.09424635 1.0886256 -0.39406344
0.36760637 -0.19861361 1.5463187 0.060761984 -0.13620175 -0.19752194 0.023090532 -0.14439946
0.35208943 -0.093765184 -0.08816154 -0.23629054 -0.89505404 0.015288591 -0.42614788 0.34830895
0.80137205 -0.16052166 -1.7418244 -0.08405412 0.5390115 -0.22704096 -1.6699003 -0.37726462
-0.0604534 -0.49847177 -1.2626106 -0.41279137 -0.24091122 0.030012665 0.18237372 0.21474537
-0.4969089 0.075520046 2.1749187 0.29096624 -0.2000386 0.2249005 0.55565494 -0.123319834
-0.5989704 0.04630677 0.2719878 -0.16966304 -0.06945404 0.07682947 2.3701203 0.25337142
-0.22383231 0.107934415 -0.14362705 -0.0017767549 0.6037565 -0.0756566 -1.8729752 -0.32090676
-0.09702224 0.06732752 2.4502745 0.32964334 0.42398667 0.2563117 0.09284189 0.061207674
-0.035101846 0.03714656 0.0354786 -0.15224051 0.43675748 0.15128408 0.11927253 0.10218878
0.16586755 0.19408953 1.7086658 0.25376564 -0.5762386 0.20453367 -0.9778952 -0.3637327
0.42593244 -0.11254465 0.08660699 0.055812627 -0.080949046 -0.016346509 -1.7893819 -0.20288166
0.37789366 -0.015809348 -0.31140718 0.14989296 -0.07009644 0.31415176 -0.6937552 -0.34737447
-0.6079552 0.14613086 1.7866366 0.32259893 0.5399444 -0.2876079 -1.5695279 -0.3664548
0.48401922 -0.47352394 0.05124491 -0.2552053 0.23348796 -0.058083758 -0.24867147 -0.23795766
0.076126084 -0.0106693925 -1.38583 -0.17347181 -0.04823368 -0.32497603 -0.5431773 -0.22447056
0.10783994 -0.0018226408 0.047349 0.25071138 -0.09629264 -0.1692249 1.4602513 0.5350569
0.20343839 0.1230547 -0.4657061 0.39462745 0.34437373 0.07141547 -0.5008447 0.0809994
-0.86721617 0.14087592 0.3822793 -0.29760134 0.3042618 0.17463048 0.30930263 -0.1270933
0.14567061 0.067582645 0.38153383 0.06917753 -0.3915679 0.053054415 0.16606022 0.10235422
-0.27436584 0.12995498 -0.11372736 0.09539451 0.15007979 0.030936021 -0.6281064 0.10388518
-0.34280294 0.41012818 0.57896477 0.40277582 0.23259676 0.33346885 1.1846373 0.5660212
0.0197523 0.0059263054 1.9657153 0.07095977 0.34763783 -0.26422158 -0.23825467 -0.21658912
-0.32519728 -0.06385254 0.07101954 -0.093420714 -0.42183626 0.4731351 -0.43807542 0.31584206
0.027874686 0.33489594 0.11181094 0.31598935 0.30275476 -0.1543638 1.2213238 0.007549469
-0.115650736 -0.38953042 -0.044431254 -0.4719106 0.03206902 0.26771015 -1.189853 -0.040664002
00000000: c2ec 7bbf 6d28 fabd 1507 9e3f 637c 7e3e
00000010: 7669 febe b464 82be 90ef 33bd 249b 95be
00000020: 9e0e f8be 454b 873e b8a2 cc3e ed13 2f3e
00000030: 0518 cdbd dda1 1abf 9742 e6bf 4095 0cbf
00000040: b3c4 eb3e 4cce 813e 3fac 61bf d54d 833d
00000050: fe41 5cbe 5cf2 e13d 7340 efbf 8507 22be
00000060: c71e 9bbe 17c7 6a3e 0cc5 09bf 1f11 4d3e
00000070: 1536 41bc 08ff a1be 31ac db3f 8117 4f3e
00000080: ac9f 0cbe 252c e53d 110a a73e d390 bbbd
00000090: 5ad1 793d 9f82 d4bd 2f62 cebd dd55 983e
000000a0: f98e 8dbe cdd4 0f3d 77d2 f13f ebe0 203e
000000b0: 9d69 38bf 122c debd 5b1a 54bf 19e3 c7bd
000000c0: a97e 9f3e 0824 8cbe 6fa6 4d3f 4fce f8bd
000000d0: 18dd 9bbf 3b04 c1bd 1558 8b3f afc2 c9be
000000e0: e736 bc3e 5e61 4bbe c5ed c53f 8fe1 783d
000000f0: 7978 0bbe 3143 4abe 5b28 bd3c 74dd 13be
00000100: 1145 b43e f607 c0bd 0a8e b4bd 26f6 71be
00000110: 4322 65bf 007d 7a3c 0e30 dabe 8d55 b23e
00000120: b826 4d3f ca5f 24be 1af4 debf 9124 acbd
00000130: a8fc 093f 6d7d 68be 4bbf d5bf d428 c1be
00000140: fc9d 77bd b137 ffbe 399d a1bf 6459 d3be
00000150: 6eb1 76be 1fdd f53c 2dc0 3a3e 36e6 5b3e
00000160: d86a febe 41aa 9a3d de31 0b40 87f9 943e
00000170: ebd6 4cbe 514c 663e 673f 0e3f 1c8f fcbd
00000180: 2056 19bf 2bac 3d3d fc41 8b3e 26bc 2dbe
00000190: eb3d 8ebd c558 9d3d 0db0 1740 e6b9 813e
000001a0: 4c34 65be b80c dd3d f812 13be 00e2 e8ba
000001b0: c98f 1a3f d9f1 9abd a7bd efbf e44d a4be
000001c0: 99b3 c6bd 03e3 893d 4cd1 1c40 03c7 a83e
000001d0: c814 d93e 4a3b 833e e423 be3d e6b4 7a3d
000001e0: f4c6 0fbd fe26 183d 0252 113d f0e4 1bbe
000001f0: ad9e df3e 37ea 1a3e 2845 f43d 5a48 d13d
00000200: 2fd9 293e 68bf 463e 90b5 da3f 92ed 813e
00000210: 5f84 13bf 4671 513e 5757 7abf 2c3b babe
00000220: d113 da3e cf7d e6bd 015f b13d c89b 643d
00000230: 9dc8 a5bd 1de9 85bc 770a e5bf 36c0 4fbe
00000240: 477b c13e 9b82 81bc c370 9fbe 8a7d 193e
00000250: b98e 8fbd 80d8 a03e f199 31bf 11db b1be
00000260: f4a2 1bbf 54a3 153e 82b0 e43f b02b a53e
00000270: cc39 0a3f 5841 93be 4ae6 c8bf f79f bbbe
00000280: 5ed1 f73e bb71 f2be 2fe6 513d 45aa 82be
00000290: 7817 6f3e 3ce9 6dbd bca3 7ebe 2cab 73be
000002a0: fee7 9b3d adce 2ebc e162 b1bf 98a2 31be
000002b0: ae90 45bd 4263 a6be ab0d 0bbf 9cdb 65be
000002c0: 30db dc3d ade5 eeba 06f1 413d 3e5d 803e
000002d0: 1335 c5bd 4b49 2dbe 84e9 ba3f 7df9 083f
000002e0: 2752 503e 1a04 fc3d 0871 eebe 9c0c ca3e
000002f0: c151 b03e 4642 923d 5c37 00bf 03e3 a53d
00000300: e101 5ebf c741 103e 1dba c33e 345f 98be
00000310: 34c8 9b3e 55d2 323e ea5c 9e3e bf24 02be
00000320: ad2a 153e c568 8a3d 6758 c33e f3ac 8d3d
00000330: 967b c8be 964f 593d b10b 2a3e 179f d13d
00000340: ae79 8cbe eb12 053e e4e9 e8bd 325e c33d
00000350: 84ae 193e 8a6d fd3c 95cb 20bf c1c1 d43d
00000360: de83 afbe 52fc d13e 0937 143f a238 ce3e
00000370: d82d 6e3e 6ebc aa3e 32a2 973f c4e6 103f
00000380: 93cf a13c 7431 c23b 8f9c fb3f 5b53 913d
00000390: 96fd b13e 0d48 87be 08f9 73be 8ac9 5dbe
000003a0: 4280 a6be 1fc5 82bd b172 913d 5c53 bfbd
000003b0: ecfa d7be c43e f23e 6c4b e0be 0db6 a13e
000003c0: 7459 e43c 7b77 ab3e 22fd e43d 5bc9 a13e
000003d0: ac02 9b3e 8b11 1ebe 5754 9c3f 8961 f73b
000003e0: 4bda ecbd 8870 c7be 8cfd 35bd 449e f1be
000003f0: ce5a 033d 4e11 893e 1a4d 98bf 4c8f 26bd

fc1.bias f4 [64]
-0.48233405 0.10821055 -0.5454139 -0.35644007 -0.5568647 -0.34068677 0.40295547 -0.6259146
0.4796154 0.4084826 -0.4271079 0.08394023 -0.09765015 -0.11339871 -0.29847494 -0.7371833
0.54524595 -0.07004941 -0.39774105 -0.3648723 -0.20743896 -0.049034912 -0.44286904 -0.14383402
0.50481576 -0.47883883 -0.39221746 -0.60370785 -0.4519327 -0.1765159 -0.2989542 -1.2022294
-0.38281158 -0.18414983 0.516201 -0.37789735 0.4610936 -0.68116415 -0.49782237 -0.50243294
-0.42471462 0.16483352 -0.16439769 0.2280812 0.5546792 -0.6586337 0.122646786 -0.11933548
-0.1717385 0.42575485 0.59305155 0.4249562 0.08224474 0.15165351 -0.401057 -0.6017909
-0.3947197 0.19484006 0.41265705 0.19765136 0.1204996 -0.26771268 0.44707695 -0.45712584
00000000: 7df4 f6be 7e9d dd3d 3fa0 0bbf 507f b6be
00000010: af8e 0ebf 7f6e aebe 2e50 ce3e f03b 20bf
00000020: 2690 f53e a224 d13e e3ad dabe dbe8 ab3d
00000030: cdfc c7bd 953d e8bd b5d1 98be 0bb8 3cbf
00000040: 3d95 0b3f 1176 8fbd b7a4 cbbe 8bd0 babe
00000050: e16a 54be d5d8 48bd bbbf e2be 3a49 13be
00000060: 9b3b 013f 5d2a f5be bad0 c8be 998c 1abf
00000070: b963 e7be 96c0 34be 8610 99be a7e2 99bf
00000080: e1ff c3be c691 3cbe c025 043f c37b c1be
00000090: 7614 ec3e c660 2ebf 93e2 febe 729f 00bf
000000a0: 3274 d9be 1eca 283e de57 28be 1e8e 693e
000000b0: 75ff 0d3f 389c 28bf 3d2e fb3d 2966 f4bd
000000c0: 38dc 2fbe 8afc d93e 3ad2 173f dc93 d93e
000000d0: ee6f a83d 0f4b 1b3e 5857 cdbe f80e 1abf
000000e0: b318 cabe 2784 473e c947 d33e 1e65 4a3e
000000f0: 7fc8 f63d a311 89be 45e7 e43e 660c eabe

fc2.weight f4 [64, 64]
-0.016726658 0.0725448 0.0069104135 0.04541257 -0.0589436 -0.022389155 0.027858257 0.036833674
0.011875399 -0.09065932 0.09990975 0.11264068 0.081978016 -0.08433432 0.099916786 0.06457028
-0.08461398 0.031035602 -0.11840597 -0.08408024 -0.0045740902 0.00041273236 -0.04528316 -0.006000833
0.081098646 0.020598978 -0.03645414 -0.09744237 0.115359426 -0.051282518 -0.08422875 -0.032200042
-0.10481259 0.07253573 -0.06982891 0.033464227 0.0002091825 -0.0091934325 -0.07524806 0.08533892
-0.10337764 -0.01347194 -0.12151824 0.019103093 -0.03942634 -0.1112688 -0.02319771 -0.065533295
-0.07015402 0.013429848 -0.083042994 -0.029376984 -0.024475962 -0.030393604 -0.10414453 0.0746382
0.032094195 0.017116722 0.0130286375 0.03553419 -0.07384753 -0.016383171 -0.12595235 -0.10692674
0.06742076 -0.061720546 0.10971449 -2.5497215 0.23775932 0.31826454 0.25043026 -1.8122449
0.19358683 0.14641902 -0.5320824 0.23499922 -0.0860331 -1.6164093 -0.4113972 0.0732665
0.074395135 0.4124173 0.41618884 0.6273143 0.5051106 0.27493006 -3.3576891 0.045286857
0.12628245 -4.157123 0.07243857 -1.3154364 -2.6230333 0.030024895 0.09341583 0.57974154
-0.6196219 0.17066073 0.080961384 -0.48580047 -0.039240167 -0.13638465 -2.2279048 -1.314118
-0.2236721 -0.020749345 0.21669874 0.26536354 0.0605582 -1.581234 0.09937255 -0.060021173
0.24948531 0.08941551 0.18445133 0.36179486 0.41632745 -0.055893604 -0.266717 -0.37106022
-3.1599948 -0.08410463 0.22339961 0.22126332 -0.0108227115 -2.680755 0.10524512 0.041395824
-0.10490191 -0.0838935 0.03692381 0.06787568 0.08009809 -0.012431983 -0.10141836 0.040391956
-0.03868483 -0.016778877 -0.012474173 0.06957525 0.06659173 0.009041286 -0.09367588 -0.0061205477
-0.102172226 0.06794319 -0.018963994 0.006399882 -0.15296288 0.04111969 -0.07974738 -0.17980903
-0.0016326996 -0.15439145 0.06434877 0.05116691 -0.10779229 0.020020662 -0.00015838433 0.14324324
-0.18695109 0.011640265 -0.06303531 -0.042073473 0.039432637 -0.03202207 0.0092341 0.16624781
0.04304631 -0.027524455 -0.009729363 -0.095401585 0.0067435126 -0.14623496 -0.06025989 0.043090183
-0.08271282 0.039398134 -0.13246116 -0.032814737 0.0057297824 0.0006977619 -0.12921229 -0.047525708
-0.009381693 -0.082960226 -0.043216534 -0.029253706 -0.0023614983 -0.08479555 -0.05184057 -0.11730981
-0.1155001 -0.022822123 0.053908125 -0.15456124 -0.04209222 -0.05555765 0.096827775 -0.055390693
-0.053119127 -0.055305213 0.02387011 -0.099059045 0.014123102 -0.021820696 0.060335387 0.058268204
-0.124366745 -0.049913593 0.028492145 -0.07081884 -0.04885439 0.08018925 -0.022880424 0.05957919
0.01040461 0.009494951 0.05827515 -0.072140016 -0.1260932 -0.13099942 0.067552894 -0.030123325
-0.040323697 -0.08070402 -0.111125015 -0.09595786 0.023900138 0.07711798 0.018435411 0.0044423346
0.101143226 0.050801553 0.06791435 0.076217055 -0.07703398 0.08321877 -0.0763167 -0.13812077
-0.14838831 -0.015485648 0.0001892694 0.080390446 -0.059980884 0.041381467 -0.07341922 0.034754705
-0.108655885 -0.1463033 -0.12192859 -0.06024694 0.031680517 -0.083956614 -0.058416933 -0.08698546
00000000: 5806 89bc 5e92 943d c070 e23b 8802 3a3d
00000010: d86e 71bd 7669 b7bc 0037 e43c e8de 163d
00000020: 0991 423c 98ab b9bd 7c9d cc3d 28b0 e63d
00000030: 17e4 a73d 79b7 acbd 2ca1 cc3d 6c3d 843d
00000040: 184a adbd 603e fe3c d47e f2bd 4332 acbd
00000050: 40e2 95bb 0064 d839 d67a 39bd a3a2 c4bb
00000060: 0c17 a63d 30bf a83c f050 15bd de8f c7bd
00000070: 9041 ec3d 9e0d 52bd 1f80 acbd 31e4 03bd
00000080: fca7 d6bd 9d8d 943d 7602 8fbd c911 093d
00000090: 0058 5b39 0da0 16bc a81b 9abd 2cc6 ae3d
000000a0: a8b7 d3bd 69b9 5cbc 8ede f8bd 177e 9c3c
000000b0: 847d 21bd e6e0 e3bd 2009 bebc 5236 86bd
000000c0: e9ac 8fbd dd08 5c3c 7212 aabd 00a8 f0bc
000000d0: d081 c8bc 02fc f8bc ba49 d5bd eadb 983d
000000e0: 3475 033d 5e38 8c3c 1176 553c 4c8c 113d
000000f0: 603d 97bd 0036 86bc a7f9 00be 68fc dabd
00000100: e513 8a3d afce 7cbd feb1 e03d a32e 23c0
00000110: 2e77 733e 92f3 a23e 6538 803e a4f7 e7bf
00000120: a03b 463e deee 153e 8d36 08bf a3a3 703e
00000130: 1f32 b0bd 80e6 cebf a7a2 d2be bf0c 963d
00000140: 7a5c 983d 5c28 d33e b416 d53e ac97 203f
00000150: ee4e 013f a2c3 8c3e 61e4 56c0 b67e 393d
00000160: 3050 013e 2707 85c0 ac5a 943d 3860 a8bf
00000170: c7df 27c0 c5f6 f53c cc50 bf3d f169 143f
00000180: 8a9f 1ebf b0c1 2e3e 15cf a53d d7ba f8be
00000190: 4cba 20bd 6ba8 0bbe fe95 0ec0 0535 a8bf
000001a0: 4d0a 65be 88fa a9bc 46e6 5d3e bbdd 873e
000001b0: e00b 783d e065 cabf d683 cb3d c3d8 75bd
000001c0: 1479 7f3e 7b1f b73d cfe0 3c3e 2d3d b93e
000001d0: df28 d53e b1f0 64bd 218f 88be 9bfb bdbe
000001e0: 5b3d 4ac0 0c3f acbd dec2 643e da92 623e
000001f0: be51 31bc 7d91 2bc0 c18a d73d ab8e 293d
00000200: d0d6 d6bd 5bd0 abbd 6c3d 173d 6802 8b3d
00000210: 780a a43d 84af 4bbc 6eb4 cfbd 0972 253d
00000220: fc73 1ebd db73 89bc 7960 4cbc 787d 8e3d
00000230: 3f61 883d e721 143c 24d9 bfbd e08e c8bb
00000240: ac3f d1bd cd25 8b3d 615a 9bbc 1ab6 d13b
00000250: 4da2 1cbe 1f6d 283d 9852 a3bd dc1f 38be
00000260: 4f00 d6ba cb18 1ebe 4ac9 833d 6594 513d
00000270: 34c2 dcbd 5f02 a43c f813 26b9 5bae 123e
00000280: 1b70 3fbe cfb6 3e3c a818 81bd 3c55 2cbd
00000290: 1e84 213d 9329 03bd 9f4a 173c de3c 2a3e
000002a0: 5451 303d f77a e1bc e867 1fbc e861 c3bd
000002b0: aff8 dc3b 9ebe 15be 13d3 76bd 557f 303d
000002c0: 5765 a9bd f05f 213d e6a3 07be bf68 06bd
000002d0: e6c0 bb3b 02ea 363a 3a50 04be 51aa 42bd
000002e0: acb5 19bc 0de7 a9bd d203 31bd 78a5 efbc
000002f0: 5ec3 1abb 4aa9 adbd c756 54bd 2040 f0bd
00000300: 518b ecbd 76f5 babc c4ce 5c3d 4d45 1ebe
00000310: e468 2cbd 6b90 63bd a44d c63d 5ae1 62bd
00000320: 7193 59bd b887 62bd 408b c33c 78df cabd
00000330: 9564 673c 51c1 b2bc 3d22 773d a4aa 6e3d
00000340: feb3 febd 3272 4cbd 5c68 e93c 7809 91bd
00000350: 8a1b 48bd 433a a43d ba6f bbbc 4f09 743d
00000360: 1978 2a3c b690 1b3c ecb1 6e3d 25be 93bd
00000370: 931e 01be b624 06be 2c59 8a3d 31c5 f6bc
00000380: 762a 25bd 2648 a5bd 8395 e3bd 8e85 c4bd
00000390: 39ca c33c 08f0 9d3d dc05 973c 0191 913b
000003a0: 2e24 cf3d 4a15 503d ae16 8b3d b017 9c3d
000003b0: fec3 9dbd 9a6e aa3d ee4b 9cbd 886f 0dbe
000003c0: 1bf3 17be 84b7 7dbc 9e76 4639 bfa3 a43d
000003d0: 84ae 75bd 9d7f 293d d15c 96bd f35a 0e3d
000003e0: fa86 debd 88d0 15be b2b5 f9bd 7fc5 76bd
000003f0: 6ec3 013d 72f1 abbd 9846 6fbd 6f25 b2bd

fc2.bias f4 [64]
-0.088407986 0.13767166 0.03819555 0.04691878 0.39792353 -0.16572712 0.1623759 -0.10448937
0.20250121 -0.12736167 0.20353918 0.121022634 -0.007313872 0.25634086 0.19369166 0.22278875
-0.139287 -0.14419375 0.3275201 0.28327322 0.20802541 -0.20249678 -0.034518715 -0.045502767
0.2957867 0.05295565 0.014588431 -0.081350975 0.031806327 -0.09985636 -0.15766647 -0.1263968
0.38040042 0.20276353 0.34461364 -0.08990604 0.050749224 0.033311505 0.22457616 -0.13203035
0.064316764 0.2892957 0.062559836 0.08686125 -0.04089275 0.17437392 -0.14279784 -0.104604356
-0.07010765 -0.1064184 0.18653035 -0.050436337 -0.16862896 0.18183717 -0.12313909 0.087472856
-0.1086066 -0.10892966 0.26582292 -0.09071222 -0.15812671 0.11702954 0.06838258 0.31107876
00000000: 3f0f b5bd cdf9 0c3e f072 1c3d e82d 403d
00000010: a2bc cb3e 5fb4 29be de45 263e 86fe d5bd
00000020: 7a5c 4f3e 196b 02be 936c 503e b7da f73d
00000030: 35a9 efbb 1c3f 833e 1b57 463e bc22 643e
00000040: 40a1 0ebe 87a7 13be b7b0 a73e 3009 913e
00000050: 9d04 553e 515b 4fbe 7f63 0dbd 1c61 3abd
00000060: 5b71 973e 06e8 583d 5104 6f3c 579b a6bd
00000070: 5a47 023d 7e81 ccbd 5273 21be 2a6e 01be
00000080: d8c3 c23e 3ea1 4f3e 3371 b03e a820 b8bd
00000090: 6bde 4f3d a571 083d 4bf7 653e f732 07be
000000a0: 82b8 833d 911e 943e 5f1f 803d 50e4 b13d
000000b0: 287f 27bd 148f 323e 9939 12be cf3a d6bd
000000c0: 9994 8fbd e4f1 d9bd d001 3f3e 5596 4ebd
000000d0: 12ad 2cbe 8633 3a3e 5930 fcbd f824 b33d
000000e0: 236d debd 8316 dfbd f119 883e 54c7 b9bd
000000f0: f8eb 21be 2fad ef3d 2b0c 8c3d b745 9f3e

fc3.weight f4 [2, 64]
0.09843291 0.17437834 -0.017689481 0.042204864 0.8291055 -0.062078536 -0.2681728 -0.0749801
0.70044553 0.0015985267 0.13230574 0.19230086 -0.06542635 0.29488978 0.24681218 0.242184
0.011283161 -0.05554055 0.18931995 0.7513753 0.19301651 -0.04794216 -0.050138906 -0.007801785
0.36220673 -0.0075964094 0.07601751 -0.0919939 -0.0023996762 -0.0540397 0.14342718 -0.023418631
0.4149316 0.3034642 0.2774094 0.012548312 -0.059694603 -0.08253373 0.3022593 -0.042139042
0.041036483 0.34625885 0.12496518 0.20365287 0.0670903 0.0571859 -0.015631903 -0.041605882
0.006324075 0.0054312646 0.25635156 -0.043614037 0.0032414033 0.27462736 -0.054936193 -0.07864002
-0.060865678 0.05564578 0.47884402 -0.09491314 0.08600308 0.36511838 0.20896958 0.22908601
-0.08421815 -0.7652392 0.02177261 -0.079661764 0.018753354 -0.07034984 0.8638815 -0.07288696
0.22377998 -0.115418576 -0.02636762 0.2810518 0.078178145 -0.041562922 0.43929228 0.46887055
-0.060658462 -0.02155532 0.30763635 0.17345214 0.32468036 -0.029361872 0.0404164 0.019388799
0.17453969 0.011503356 -0.098068334 -0.07960978 -0.09158038 -0.006538538 -0.059255537 -0.085088015
1.2234756 -0.13526818 0.274407 0.0024387976 -0.03396829 0.046013966 0.769614 -0.093833365
-0.073592834 0.44274393 -0.066675276 -0.2119177 -0.07174714 0.46065584 -0.072003014 0.06412172
-0.047525063 0.10921456 0.00340712 0.012611757 -0.025446523 -0.05052817 -0.08423196 0.002048512
-0.07223286 -0.08970656 0.97558653 0.024261743 -0.060951024 0.5973992 -0.03156695 0.60108906
00000000: 3297 c93d 3c90 323e 88e9 90bc 02df 2c3d
00000010: 4240 543f 1046 7ebd f24d 89be 2b8f 99bd
00000020: 6650 333f a885 d13a 287b 073e 84ea 443e
00000030: 40fe 85bd cbfb 963e 55bc 7c3e 15ff 773e
00000040: 02dd 383c 7d7e 63bd 17dd 413e 225a 403f
00000050: 1fa6 453e 005f 44bd 745e 4dbd 1ea6 ffbb
00000060: 2973 b93e 4deb f8bb 11af 9b3d 4c67 bcbd
00000070: e343 1dbb bc58 5dbd 93de 123e 6ed8 bfbc
00000080: ea71 d43e a95f 9b3e 9b08 8e3e 6f97 4d3c
00000090: 5482 74bd 7207 a9bd bbc1 9a3e fd99 2cbd
000000a0: df15 283d d748 b13e bfed ff3d 618a 503e
000000b0: a466 893d c33b 6a3d 7a0e 80bc ee6a 2abd
000000c0: 303a cf3b c0f8 b13b 8340 833e a2a4 32bd
000000d0: b96d 543b f59b 8c3e c604 61bd 050e a1bd
000000e0: 4a4e 79bd d4ec 633d 0b2b f53e d261 c2bd
000000f0: 6222 b03d ccf0 ba3e 1ffc 553e 8695 6a3e
00000100: 917a acbd b7e6 43bf 795c b23c b525 a3bd
00000110: a2a0 993c 9413 90bd 5727 5d3f c245 95bd
00000120: 9426 653e 9360 ecbd e800 d8bc 06e6 8f3e
00000130: dd1b a03d e23d 2abd ebea e03e cd0f f03e
00000140: 0275 78bd c894 b0bc 8382 9d3e 709d 313e
00000150: 813c a63e 4f88 f0bc ab8b 253d 42d5 9e3c
00000160: 88ba 323e 9278 3c3c 0dd8 c8bd 740a a3bd
00000170: 7f8e bbbd 3b41 d6bb efb5 72bd a042 aebd
00000180: d99a 9c3f be83 0abe 137f 8c3e 3cd4 1f3b
00000190: 5522 0bbd 2479 3c3d 6c05 453f b52b c0bd
000001a0: d7b7 96bd 55af e23e 0c8d 88bd f400 59be
000001b0: 2af0 92bd 15db eb3e 5176 93bd 4052 833d
000001c0: a4a9 42bd e2ab df3d fd49 5f3b 8ba1 4e3c
000001d0: 3a75 d0bc a0f6 4ebd ce81 acbd 5440 063b
000001e0: d2ee 93bd 13b8 b7bd 0ac0 793f 90c0 c63c
000001f0: c8a7 79bd 27ef 183f 594c 01bd f9e0 193f

fc3.bias f4 [2]
0.08404508 0.317953
00000000: d41f ac3d bcca a23e

fc1.weight f4 [64, 4]
-0.9746233 -0.14903311 1.1682739 0.23949951 -0.5316578 -0.27294216 -0.04073162 -0.28291562
-0.4740592 0.2747567 0.41007182 0.18112628 -0.108289964 -0.6257578 -1.8201512 -0.54456145
0.46914026 0.25218937 -0.9090407 0.0515268 -0.22370288 0.11949412 -1.7163154 -0.15650234
-0.30018803 0.22814333 -0.53505296 0.2058438 -0.011425833 -0.3522128 1.53662 0.16475949
-0.13154459 0.11682607 0.33797958 -0.093293644 0.06507437 -0.09862758 -0.101032 0.29925936
-0.32844603 0.04649516 1.8555881 0.15735592 -0.71209717 -0.1474815 -0.8259546 -0.070748016
0.30111432 -0.269481 0.69451165 -0.18195277 -1.2477919 -0.082837746 1.01254 -0.37850264
0.35221505 -0.16395947 1.4063357 0.06263934 -0.3179417 -0.3926193 -0.16873085 -0.2219739
0.35682145 -0.08884581 -0.072954305 -0.23948652 -0.8747961 0.0007124151 -0.45224753 0.34247968
0.7999839 -0.16897479 -1.7404131 -0.07432684 0.53895986 -0.22445305 -1.6863098 -0.37591872
-0.21267337 -0.46806058 -1.0448612 -0.3689972 -0.23197195 0.0072510205 0.12869444 0.24828997
-0.47666794 0.07144714 2.1603308 0.26572666 -0.20537534 0.22303592 0.57592213 -0.15944858
-0.5696098 0.051495675 0.27756804 -0.16648406 -0.092650235 0.09136051 2.2915862 0.27480614
-0.22383231 0.107934415 -0.14362705 -0.0017767549 0.61209935 -0.07467666 -1.8432503 -0.3175822
-0.11340624 0.08249456 2.3546245 0.30976444 0.44104767 0.27557963 0.12220525 0.052386653
-0.042938307 0.042493463 0.06575223 -0.15219088 0.40875012 0.16009134 0.07354543 0.10583771
0.15912576 0.18886852 1.6940297 0.28253654 -0.5062247 0.18797408 -0.89453614 -0.32591593
0.43161592 -0.108479686 0.103197545 0.054376367 -0.06252537 -0.030902078 -1.7062835 -0.2034914
0.38356885 -0.010334894 -0.2884919 0.1511152 -0.07980034 0.30253553 -0.5546797 -0.36222154
-0.64870936 0.18006267 1.7514566 0.33177793 0.52888876 -0.284128 -1.6034167 -0.36377993
0.48404065 -0.4735203 0.051243894 -0.25521547 0.24801321 -0.04243039 -0.1886272 -0.23911397
0.09045219 -0.039484307 -1.2826924 -0.14729841 -0.12365975 -0.31570762 -0.49568325 -0.21030906
0.11247844 0.000102594786 0.0638379 0.25549662 -0.017652268 -0.19952498 1.2953212 0.4940385
0.21351123 0.1324002 -0.43115515 0.40291312 0.35038662 0.08010517 -0.44553027 0.08337273
-0.79827386 0.13951275 0.43251845 -0.2878578 0.31140262 0.18731904 0.32357097 -0.15524717
0.1523234 0.070766516 0.39400887 0.0697424 -0.39629418 0.038573742 0.13832812 0.105982706
-0.25385994 0.08017191 -0.118011706 0.11509106 0.16144733 0.04692861 -0.58810544 0.11450517
-0.322245 0.38789374 0.51839393 0.39734516 0.22749692 0.330489 1.1420938 0.56557465
0.016472507 -0.00051004515 1.940303 0.064843535 0.353867 -0.25350288 -0.1988899 -0.22393659
-0.30134973 -0.075107574 0.057733946 -0.08648081 -0.41591722 0.47382408 -0.42185652 0.32803664
0.037379716 0.3506269 0.15414736 0.3141858 0.2950711 -0.16253771 1.2608407 -0.0028198294
-0.07929428 -0.39550045 -0.052532602 -0.47660795 0.05771493 0.29241586 -1.1026673 -0.033310644
00000000: ea80 79bf 239c 18be 008a 953f 5c3f 753e
00000010: ba1a 08bf 13bf 8bbe 33d6 26bd 51da 90be
00000020: e3b7 f2be e9ac 8c3e eff4 d13e 2b79 393e
00000030: 21c7 ddbd aa31 20bf b7fa e8bf 6168 0bbf
00000040: 2733 f03e f71e 813e e4b6 68bf c40d 533d
00000050: 5e12 65be 55b9 f43d 39b0 dbbf 2642 20be
00000060: 3fb2 99be 689e 693e 3bf9 08bf b8c8 523e
00000070: 6b33 3bbc 3c55 b4be f7af c43f b6b6 283e
00000080: a0b3 06be 8242 ef3d a90b ad3e bd10 bfbd
00000090: b645 853d 42fd c9bd dde9 cebd 8638 993e
000000a0: 142a a8be b571 3e3d e983 ed3f e921 213e
000000b0: 004c 36bf 6405 17be c371 53bf 56e4 90bd
000000c0: a82b 9a3e 6af9 89be 84cb 313f d451 3abe
000000d0: a5b7 9fbf d6a6 a9bd e99a 813f 19cb c1be
000000e0: 8855 b43e fee4 27be cf02 b43f 0e49 803d
000000f0: 41c9 a2be 6605 c9be c8c7 2cbe 204d 63be
00000100: 4db1 b63e cbf4 b5bd 1169 95bd f43b 75be
00000110: a3f2 5fbf 5ec1 3a3a fd8c e7be 7f59 af3e
00000120: bfcb 4c3f ba07 2dbe dbc5 debf ac38 98bd
00000130: 46f9 093f 05d7 65be 00d9 d7bf 6b78 c0be
00000140: 0cc7 59be a3a5 efbe 03be 85bf 33ed bcbe
00000150: 0e8a 6dbe f899 ed3b 7ac8 033e ba3f 7e3e
00000160: d20d f4be e152 923d dc42 0a40 530d 883e
00000170: ea4d 52be 8763 643e a26f 133f 7d46 23be
00000180: f3d1 11bf 21ed 523d 661d 8e3e cc7a 2abe
00000190: 68bf bdbd 381b bb3d 59a9 1240 64b3 8c3e
000001a0: 4c34 65be b80c dd3d f812 13be 00e2 e8ba
000001b0: 8bb2 1c3f 14f0 98bd a0ef ebbf 229a a2be
000001c0: 8841 e8bd e8f2 a83d 2bb2 1640 7299 9e3e
000001d0: 00d1 e13e c618 8d3e bf46 fa3d 6393 563d
000001e0: 14e0 2fbd a00d 2e3d 1ba9 863d edd7 1bbe
000001f0: b247 d13e fcee 233e fd9e 963d 71c1 d83d
00000200: ddf1 223e c066 413e f7d5 d83f a1a8 903e
00000210: f197 01bf 477c 403e 5200 65bf 74de a6be
00000220: c3fc dc3e 992a debd 3c59 d33d c1b9 5e3d
00000230: 4d0d 80bd 5b26 fdbc 7f67 dabf 0d60 50be
00000240: 2363 c43e b053 29bc 36b5 93be f1bd 1a3e
00000250: 5c6e a3bd f0e5 9a3e 7dff 0dbf 1a75 b9be
00000260: d111 26bf 5962 383e bb2f e03f ccde a93e
00000270: 4165 073f 3a79 91be c23c cdbf 5d41 babe
00000280: 2dd4 f73e 4171 f2be 1ee5 513d 9aab 82be
00000290: 2df7 7d3e 7dcb 2dbd 7d27 41be 4bda 74be
000002a0: ff3e b93d 4cba 21bd 442f a4bf 65d5 16be
000002b0: 5341 fdbd 6ea4 a1be 32ca fdbe 425b 57be
000002c0: 195b e63d 2828 d738 72bd 823d 74d0 823e
000002d0: 7d9b 90bc 4750 4cbe 16cd a53f 9df2 fc3e
000002e0: b0a2 5a3e eb93 073e 5ec0 dcbe a14a ce3e
000002f0: e065 b33e 2e0e a43d 8b1c e4be 52bf aa3d
00000300: ad5b 4cbf 6edc 0e3e 0f73 dd3e 1962 93be
00000310: 2a70 9f3e 90d0 3f3e 18ab a53e 1df9 1ebe
00000320: aafa 1b3e 09ee 903d 88bb c93e 1ad5 8e3d
00000330: 12e7 cabe 80ff 1d3d e3a5 0d3e 760d d93d
00000340: eef9 81be 2c31 a43d 1fb0 f1bd ddb4 eb3d
00000350: 7352 253e 3738 403d 148e 16bf b081 ea3d
00000360: 4cfd a4be 029a c63e 77b5 043f d370 cb3e
00000370: f4f4 683e db35 a93e 2130 923f 80c9 103f
00000380: 5af1 863c 8db4 05ba d95b f83f b0cc 843d
00000390: 0e2e b53e 21cb 81be cba9 4bbe a24f 65be
000003a0: 834a 9abe 00d2 99bd 6e7a 6c3d da1c b1bd
000003b0: 1af3 d4be 1299 f23e 94fd d7be 6bf4 a73e
000003c0: 791b 193d 5e85 b33e ced8 1d3e f6dc a03e
000003d0: 8f13 973e 4970 26be 3a63 a13f e3cc 38bb
000003e0: 0a65 a2bd 097f cabe 6d2c 57bd f505 f4be
000003f0: 7e66 6c3d 88b7 953e 3424 8dbf be70 08bd

fc1.bias f4 [64]
-0.44031277 0.14654873 -0.5349517 -0.34962794 -0.5677002 -0.3056455 0.40071258 -0.6094409
0.47677743 0.411893 -0.42527235 0.12999293 -0.06488877 -0.10582611 -0.28763396 -0.56419396
0.539632 -0.06592482 -0.41102698 -0.33628625 -0.15888049 -0.018365882 -0.40939575 -0.13525926
0.51221097 -0.47349328 -0.39221853 -0.5796621 -0.42872664 -0.18718551 -0.2574202 -1.1417266
-0.3583355 -0.19262955 0.51018345 -0.34903345 0.4586107 -0.62874335 -0.4904139 -0.4855806
-0.42470348 0.18334825 -0.12276234 0.2633397 0.5498301 -0.65169054 0.1259401 -0.11850366
-0.17140168 0.42061704 0.5863555 0.42624864 0.11610021 0.15796621 -0.3700535 -0.59743816
-0.38534397 0.19304697 0.42124635 0.20517479 0.13291974 -0.25932053 0.44974032 -0.449988
00000000: ad70 e1be df10 163e 98f2 08bf 6f02 b3be
00000010: cd54 11bf 917d 9cbe 332a cd3e 5204 1cbf
00000020: 2c1c f43e a4e3 d23e 4cbd d9be de1c 053e
00000030: 67e4 84bd 5cbb d8bd c244 93be 046f 10bf
00000040: 5325 0a3f 9803 87bd 2172 d2be b62d acbe
00000050: 91b1 22be 0c74 96bc 529c d1be 6781 0abe
00000060: 4220 033f b66d f2be ded0 c8be bc64 14bf
00000070: 0f82 dbbe 8fad 3fbe 95cc 83be 1924 92bf
00000080: c077 b7be ae40 45be 629b 023f 83b4 b2be
00000090: 06cf ea3e 53f5 20bf 8817 fbbe 059e f8be
000000a0: bc72 d9be a5bf 3b3e d26a fbbd 76d4 863e
000000b0: aac1 0c3f 31d5 26bf 71f6 003e 0cb2 f2bd
000000c0: ec83 2fbe 1e5b d73e 651b 163f 433d da3e
000000d0: f2c5 ed3d e5c1 213e a777 bdbe b5f1 18bf
000000e0: ce4b c5be 1bae 453e 9aad d73e 5719 523e
000000f0: 1d1c 083e a9c5 84be 5d44 e63e d464 e6be

fc2.weight f4 [64, 64]
-0.016726658 0.07255096 0.0069104135 0.045413733 -0.058944166 -0.022388352 0.027858257 0.036833674
0.011875913 -0.09065932 0.09990985 0.11264068 0.081983514 -0.084330484 0.09992474 0.06457028
-0.084613614 0.031035602 -0.11840597 -0.084077165 -0.0045740902 0.00041273236 -0.04528335 -0.0060008215
0.08110434 0.020598978 -0.036454298 -0.09743623 0.115359426 -0.051281147 -0.084226176 -0.032199964
-0.10481259 0.07254351 -0.06982891 0.033466574 0.0002091825 -0.009192739 -0.075248115 0.08534377
-0.10337764 -0.01347129 -0.12151681 0.019104466 -0.03942634 -0.1112688 -0.02319771 -0.06553243
-0.07015185 0.0134303095 -0.08304152 -0.029377088 -0.024475962 -0.030392243 -0.10414453 0.0746382
0.032094195 0.017116997 0.013028905 0.03553786 -0.07384753 -0.016383171 -0.12595369 -0.106920935
0.040528644 -0.079133846 0.10971494 -2.5086687 0.27211264 0.16881487 0.21881114 -1.4438719
0.17211574 0.10530575 -0.35838258 0.18109488 -0.11708134 -1.5013753 -0.39174846 0.020827428
0.07717182 0.3260222 0.45379904 0.67822087 0.40009117 0.23064305 -3.1073954 -0.03103394
0.08202723 -3.3688211 0.07243921 -1.2844882 -2.4416668 0.056946415 0.069822885 0.5506309
-0.61037207 0.13080063 0.0760059 -0.4819683 -0.040325735 -0.15605335 -1.6418308 -1.2493447
-0.22366035 -0.003655733 0.19678895 0.23715053 0.0384304 -1.3738699 0.09890774 -0.027664836
0.14123504 0.097979136 0.17258246 0.30048415 0.3614435 -0.046770558 -0.2870058 -0.3187179
-2.55487 -0.07758532 0.17103589 0.19851138 -0.01013622 -2.6153712 0.08750404 0.049754214
-0.104901806 -0.08389089 0.03692381 0.06787194 0.08007044 -0.01243192 -0.10139005 0.040395703
-0.03865182 -0.016758958 -0.01247383 0.06957814 0.06661533 0.009041861 -0.093681075 -0.0061205477
-0.1021468 0.06794644 -0.01896903 0.0062840683 -0.15295495 0.0411245 -0.07974832 -0.1797728
-0.0016239074 -0.15440036 0.06434877 0.051109485 -0.10780011 0.020048153 -0.00013714156 0.1431184
-0.18684386 0.0116412155 -0.06299844 -0.04207211 0.03947017 -0.03210255 0.009234647 0.16609876
0.04304631 -0.0274987 -0.009732878 -0.09540219 0.006775409 -0.14624932 -0.060210604 0.043116335
-0.082713686 0.039434865 -0.1324233 -0.03280993 0.005732691 0.00073863805 -0.12920219 -0.047468696
-0.009382933 -0.082947955 -0.043211598 -0.029211957 -0.0023025842 -0.084867604 -0.05184367 -0.1173175
-0.115496665 -0.022822354 0.053908125 -0.15454939 -0.04209222 -0.055557836 0.096832715 -0.055390194
-0.053117737 -0.055304512 0.023871034 -0.099053025 0.014124154 -0.021820238 0.06033744 0.058268204
-0.12436297 -0.049913947 0.02849418 -0.07081496 -0.048852224 0.08019535 -0.022880098 0.059581194
0.010405335 0.009495421 0.05827515 -0.07213373 -0.1260878 -0.13099036 0.067559004 -0.030122155
-0.0403212 -0.08070201 -0.11112312 -0.09595354 0.023900839 0.077125676 0.018435767 0.0044426983
0.101143226 0.0508043 0.06791664 0.07622414 -0.077028826 0.083220325 -0.076313555 -0.1381132
-0.14838023 -0.015485766 0.0001893874 0.08039652 -0.05997981 0.04138292 -0.07341524 0.034755543
-0.10865694 -0.14629404 -0.1219266 -0.06024431 0.031682137 -0.083950505 -0.058415167 -0.08698293
00000000: 5806 89bc 9995 943d c070 e23b c003 3a3d
00000010: 706f 71bd c767 b7bc 0037 e43c e8de 163d
00000020: 3093 423c 98ab b9bd 899d cc3d 28b0 e63d
00000030: f9e6 a73d 76b5 acbd 58a5 cc3d 6c3d 843d
00000040: e749 adbd 603e fe3c d47e f2bd a630 acbd
00000050: 40e2 95bb 0064 d839 097b 39bd 8aa2 c4bb
00000060: 081a a63d 30bf a83c 1a51 15bd a58c c7bd
00000070: 9041 ec3d 2e0c 52bd c67e acbd 1ce4 03bd
00000080: fca7 d6bd b191 943d 7602 8fbd 3f14 093d
00000090: 0058 5b39 249d 16bc af1b 9abd b7c8 ae3d
000000a0: a8b7 d3bd afb6 5cbc cedd f8bd f880 9c3c
000000b0: 847d 21bd e6e0 e3bd 2009 bebc de35 86bd
000000c0: c6ab 8fbd cd0a 5c3c ac11 aabd 38a8 f0bc
000000d0: d081 c8bc 27f9 f8bc ba49 d5bd eadb 983d
000000e0: 3475 033d f238 8c3c 3077 553c 2690 113d
000000f0: 603d 97bd 0036 86bc 01fa 00be 5df9 dabd
00000100: 5d01 263d ed10 a2bd 3ab2 e03d 078e 20c0
00000110: 5952 8b3e cedd 2c3e 0710 603e cbd0 b8bf
00000120: 1c3f 303e 8baa d73d ec7d b7be f070 393e
00000130: 57c8 efbd 112d c0bf 4193 c8be 489e aa3c
00000140: 420c 9e3d 62ec a63e 5958 e83e e29f 2d3f
00000150: c0d8 cc3e b12d 6c3e 91df 46c0 e43a febc
00000160: e4fd a73d c49a 57c0 025b 943d 1c6a a4bf
00000170: 4544 1cc0 a540 693d 4dff 8e3d 26f6 0c3f
00000180: 5841 1cbf 9af0 053e fba8 9b3d 8dc4 f6be
00000190: 992c 25bd 73cc 1fbe 8327 d2bf 87ea 9fbf
000001a0: 3807 65be 0695 6fbb 0b83 493e 97d7 723e
000001b0: 3269 1d3d f8da afbf 2490 ca3d 5ea1 e2bc
000001c0: eb9f 103e 49a9 c83d 75b9 303e 0fd9 993e
000001d0: 1f0f b93e 7c92 3fbd 6df2 92be fe2e a3be
000001e0: fd82 23c0 0de5 9ebd 0824 2f3e 9146 4b3e
000001f0: 6312 26bc 3e62 27c0 5135 b33d 13cb 4b3d
00000200: c2d6 d6bd fdce abbd 6c3d 173d 7200 8b3d
00000210: f9fb a33d 40af 4bbc 96a5 cfbd f775 253d
00000220: 5f51 1ebd 154a 89bc 095f 4cbc fc7e 8e3d
00000230: 9e6d 883d 5024 143c dddb bfbd e08e c8bb
00000240: 5732 d1bd 8127 8b3d f064 9bbc 96ea cd3b
00000250: 39a0 1cbe 2a72 283d 1653 a3bd 5c16 38be
00000260: 4ad9 d4ba 211b 1ebe 4ac9 833d 2e58 513d
00000270: 4ec6 dcbd 063c a43c a8cd 0fb9 a18d 123e
00000280: ff53 3fbe ccba 3e3c 5305 81bd ce53 2cbd
00000290: 79ab 213d f77d 03bd eb4c 173c cb15 2a3e
000002a0: 5451 303d f444 e1bc a676 1fbc 3962 c3bd
000002b0: 4004 de3b 62c2 15be 659f 76bd c19a 303d
000002c0: cb65 a9bd 7486 213d f999 07be b563 06bd
000002d0: 4cd9 bb3b 29a1 413a 944d 04be 896e 42bd
000002e0: e0ba 19bc 9ee0 a9bd a5fe 30bd ea4d efbc
000002f0: f4e6 16bb 11cf adbd 075a 54bd 2844 f0bd
00000300: 8489 ecbd f2f5 babc c4ce 5c3d 3242 1ebe
00000310: e468 2cbd 9d90 63bd 3b50 c63d d4e0 62bd
00000320: fc91 59bd fc86 62bd 308d c33c 50dc cabd
00000330: ff68 673c 5bc0 b2bc 6424 773d a4aa 6e3d
00000340: 03b2 febd 9172 4cbd a06c e93c 6f07 91bd
00000350: 4519 48bd 763d a43d 0b6f bbbc 690b 743d
00000360: 237b 2a3c af92 1b3c ecb1 6e3d d9ba 93bd
00000370: 291d 01be 5622 06be 605c 8a3d bdc2 f6bc
00000380: d827 25bd 1847 a5bd 8594 e3bd 4a83 c4bd
00000390: b1cb c33c 11f4 9d3d 9b06 973c 0e94 913b
000003a0: 2e24 cf3d 2b18 503d e117 8b3d 671b 9c3d
000003b0: 4ac1 9dbd 6b6f aa3d 484a 9cbd 8c6d 0dbe
000003c0: fdf0 17be 03b8 7dbc 4b96 4639 eea6 a43d
000003d0: 64ad 75bd 2381 293d bb5a 96bd d45b 0e3d
000003e0: 8887 debd 1bce 15be a7b4 f9bd bdc2 76bd
000003f0: 21c5 013d 3eee abbd be44 6fbd 1b24 b2bd

fc2.bias f4 [64]
-0.088406004 0.12284502 0.03821684 0.046922497 0.38364357 -0.16572541 0.15429373 -0.104484566
0.18997 -0.12338293 0.20392857 0.10597837 -0.007313538 0.25098437 0.18632357 0.21673682
-0.1392755 -0.106147416 0.31208313 0.2787098 0.19655028 -0.20246927 -0.034512877 -0.041144136
0.2779835 0.052957546 0.01607392 -0.081350215 0.031808797 -0.099850245 -0.15766378 -0.12638584
0.36009032 0.19959421 0.33002 -0.073562935 0.050752144 0.033313837 0.22062412 -0.13201855
0.064317964 0.2689397 0.062567055 0.06997257 -0.040891178 0.16970997 -0.14279222 -0.09976003
-0.07010715 -0.1064184 0.18190494 -0.050435495 -0.16861627 0.1769752 -0.12313361 0.08747467
-0.10860479 -0.10700569 0.24966612 -0.09071222 -0.15812571 0.11037777 0.06675161 0.30091554
00000000: 350e b5bd 2b96 fb3d 4389 1c3d ce31 403d
00000010: ee6c c43e ecb3 29be 2dff 1d3e 01fc d5bd
00000020: 7f87 423e 31b0 fcbd a7d2 503e 300b d93d
00000030: 67a6 efbb 0681 803e 9bcb 3e3e 42f0 5d3e
00000040: 3d9e 0ebe d163 d9bd 5cc9 9f3e 0db3 8e3e
00000050: 7a44 493e 1b54 4fbe 605d 0dbd c186 28bd
00000060: da53 8e3e 03ea 583d 74ad 833c f19a a6bd
00000070: f149 023d 497e ccbd 9d72 21be 4a6b 01be
00000080: c25d b83e 6d62 4c3e 62f8 a83e 2aa8 96bd
00000090: 7be1 4f3d 1774 083d 4aeb 613e df2f 07be
000000a0: 23b9 833d 77b2 893e 2823 803d c74d 8f3d
000000b0: 827d 27bd 73c8 2d3e 2038 12be fd4e ccbd
000000c0: 5694 8fbd e4f1 d9bd 4a45 3a3e 7395 4ebd
000000d0: bea9 2cbe fd38 353e 792d fcbd eb25 b33d
000000e0: 306c debd cd25 dbbd 7aa8 7f3e 54c7 b9bd
000000f0: b5eb 21be be0d e23d 11b5 883d 9a11 9a3e

fc3.weight f4 [2, 64]
0.09843291 0.20789066 -0.017694306 0.042202495 0.80213726 -0.062078536 -0.21457332 -0.07498733
0.65989184 0.0041192113 0.1463002 0.15732898 -0.065428115 0.29619327 0.25998017 0.24792193
0.011282653 -0.02257684 0.16231933 0.7101103 0.17526068 -0.04794216 -0.050138906 -0.0073735164
0.32552877 -0.007596663 0.0760907 -0.09199722 -0.0023999326 -0.054041617 0.14341807 -0.023420269
0.41004738 0.28426814 0.25370544 0.012550793 -0.05969668 -0.082534865 0.31138265 -0.042142887
0.041036464 0.31115487 0.12496647 0.17923376 0.06708962 0.06732945 -0.015632916 -0.039975226
0.0063266912 0.0054313107 0.2586413 -0.04361812 0.003241169 0.27575383 -0.054939423 -0.07864561
-0.060870163 0.05634644 0.46317664 -0.09491314 0.08599944 0.3613283 0.21736944 0.24356815
-0.08422617 -0.6773784 0.021796592 -0.079666354 0.020953516 -0.07035301 0.8348683 -0.07289369
0.20871018 -0.11049734 -0.01679229 0.24536714 0.07817623 -0.021214688 0.43310443 0.46022096
-0.060661543 -0.028290918 0.28438628 0.1940787 0.29945126 -0.029387536 0.040410977 0.020272397
0.13217123 0.01150338 -0.09807698 -0.0796142 -0.09158744 -0.006538667 -0.05925744 -0.08509045
1.1813935 -0.09942523 0.24844973 -0.008105115 -0.033969495 0.04601352 0.75753856 -0.093837544
-0.073594056 0.40806332 -0.06667983 -0.14772256 -0.07175373 0.4342859 -0.07200706 0.053931475
-0.047525063 0.109215744 0.02555383 0.012611668 -0.025446853 -0.03648647 -0.08423362 0.0020483541
-0.07223803 -0.08999987 0.9335406 0.024261743 -0.06095212 0.5798766 -0.020067312 0.5901964
00000000: 3297 c93d 4ae1 543e a6f3 90bc 86dc 2c3d
00000010: de58 4d3f 1046 7ebd 1cb9 5bbe f592 99bd
00000020: acee 283f 73fa 863b b8cf 153e d91a 213e
00000030: 2dff 85bd a5a6 973e 1f1c 853e 3fdf 7d3e
00000040: e0da 383c 11f3 b8bc 0a37 263e cac9 353f
00000050: 8977 333e 005f 44bd 745e 4dbd 8a9d f1bb
00000060: b5ab a63e 6eed f8bb 71d5 9b3d 0a69 bcbd
00000070: 3048 1dbb be5a 5dbd 30dc 123e dddb bfbc
00000080: bbf1 d13e 988b 913e aee5 813e d7a1 4d3c
00000090: 8284 74bd 0a08 a9bd 8c6d 9f3e 059e 2cbd
000000a0: da15 283d b14f 9f3e 6cee ff3d 0e89 373e
000000b0: 4866 893d 06e4 893d 9a10 80bc 10bd 23bd
000000c0: 2250 cf3b 23f9 b13b a26c 843e eaa8 32bd
000000d0: cb69 543b 9b2f 8d3e 2908 61bd f310 a1bd
000000e0: fe52 79bd 86cb 663d 7d25 ed3e d261 c2bd
000000f0: 7920 b03d 0600 b93e 1896 5e3e ee69 793e
00000100: c57e acbd ac68 2dbf c48e b23c 1d28 a3bd
00000110: b5a6 ab3c 3d15 90bd eeb9 553f 4949 95bd
00000120: 1fb8 553e 6e4c e2bd fc8f 89bc 8641 7b3e
00000130: dc1a a03d 6dca adbc ddbf dd3e 15a2 eb3e
00000140: 3d78 78bd 5bc2 e7bc 149b 913e 91bc 463e
00000150: ad51 993e 21be f0bc fb85 253d 4c12 a63c
00000160: e557 073e ac78 3c3c 95dc c8bd c50c a3bd
00000170: 3292 bbbd 5042 d6bb eeb7 72bd e743 aebd
00000180: e737 973f 749f cbbd 9b69 7e3e 51cb 04bc
00000190: 9923 0bbd ac78 3c3d 0cee 413f e62d c0bd
000001a0: 7bb8 96bd aded d03e 6f8f 88bd 9544 17be
000001b0: 9ff3 92bd b95a de3e 7078 93bd 40e7 5c3d
000001c0: a4a9 42bd 81ac df3d 4456 d13c 2ba1 4e3c
000001d0: eb75 d0bc d672 15bd ad82 acbd ae3d 063b
000001e0: 88f1 93bd da51 b8bd 84fc 6e3f 90c0 c63c
000001f0: eea8 79bd cb72 143f 3464 a4bc 1c17 173f

fc3.bias f4 [2]
0.07236307 0.2984575
00000000: 1733 943d 6ccf 983e
